timeseries/models/cnn.pth (torch, 188951 bytes, 21 tensors)

conv_stack.0.weight f4 [32, 100, 3]
000000 e1 b2 19 bc 59 82 5b 3c f5 64 70 bd 47 95 5a 3d
       -0.009381027 0.0133977765 -0.05869003 0.05336502
000010 cf 6e 87 bb 6b 4a 62 3c 46 61 94 3c fc 9b 1e 3d
       -0.0041330825 0.013811688 0.01811279 0.038722977
000020 70 68 4c 3c 10 5c 01 bc 18 d3 0c bd 8c 71 7f bd
       0.012476072 -0.007895485 -0.034381002 -0.062364146
000030 8d 53 30 bd 39 80 9d 3b f6 30 9d bc 54 62 dc bc
       -0.04304843 0.004806545 -0.019188385 -0.026902355
000040 62 4b 05 bc c0 45 14 3d 75 27 5d bd 94 fc ed 3c
       -0.008135648 0.03619933 -0.053992707 0.029051103
000050 ea 38 34 bb c9 7d 05 3c ee 87 19 3d fd 23 23 3c
       -0.0027499744 0.008147665 0.03748315 0.009957311
000060 74 e0 94 bc 71 73 4d 3c 60 b2 49 3c 28 77 27 bc
       -0.018173434 0.01253973 0.012310594 -0.01022128
000070 7b 25 e1 ba 7a 25 2f bb 76 e6 bd bc a9 de d1 bc
       -0.0017177308 -0.0026725219 -0.023181181 -0.025618868
000080 4c 9c 16 3c aa 17 0c 3d 0d 69 55 bc 59 e2 32 bd
       0.0091925375 0.034202255 -0.013025534 -0.043672893
000090 8c db a7 bc 30 5d 53 3d 9e 1a e4 bc b7 fc 52 3d
       -0.02049043 0.051602542 -0.027844723 0.05151054
0000a0 2f 71 ac bc 68 eb 6c bd 49 64 ab bb b3 9f 6d 3d
       -0.021050064 -0.05784169 -0.005230461 0.05801363
0000b0 6a e4 47 3c 80 e8 9f 3d 6c 0c be 3c c6 4b 3a bd
       0.012200454 0.07808018 0.023199283 -0.04548242
0000c0 a3 94 95 3c 39 cc ad 3c f7 20 23 3b c9 3c a1 3c
       0.018259352 0.021215545 0.0024891475 0.019682305
0000d0 ef 3f 16 3d 14 aa 7f bc b1 57 51 bb 25 cf 8c 3c
       0.036682066 -0.015604515 -0.0031943137 0.017188618
0000e0 b9 36 b9 bc 0e a4 16 3d 55 dd c1 3c 14 50 31 3d
       -0.022609102 0.03677755 0.02366511 0.04328926
0000f0 5a 54 90 3d 8c e5 09 3b 0b 27 a1 bb e5 5a 3a bc
       0.07047339 0.0021041362 -0.0049179844 -0.01137421
000100 a5 80 da 3c b8 3f 7c bc 60 54 a1 3b 7e 73 2d 3c
       0.02667267 -0.015396051 0.0049233884 0.0105866175
000110 9a 45 bd 3c 8d f2 01 bb 97 81 c7 bc 45 b8 ce 3c
       0.023104478 -0.001982841 -0.024353785 0.025234351
000120 e3 b9 32 3d d8 69 1c bd dc 0b 82 bc 0a b2 fc bc
       0.043634307 -0.038186878 -0.015874796 -0.030846614
000130 0f a7 74 bd 83 a9 b6 bc 58 ce 80 bd 3a df 63 3c
       -0.059729632 -0.022297626 -0.06289357 0.013908202
000140 18 5f 3e bd 26 14 53 3c 56 32 e6 3b f7 28 0b 3d
       -0.046477407 0.012883222 0.0070250435 0.033974614
000150 6e 8c 99 bd ed 6e d5 bc 10 4a cc bb 37 7c da 3c
       -0.07497488 -0.02605387 -0.006234415 0.026670558
000160 a2 82 46 3d 07 59 aa bc e0 ba 40 bd 16 d6 90 bc
       0.048464425 -0.020794405 -0.047053218 -0.01768021
000170 1c 1b dd 3c b9 e8 87 bd 67 02 ec bc 4d ef 2c 3c
       0.026990466 -0.06636185 -0.02880974 0.010555101
000180 99 56 53 bd 53 27 05 ba 51 79 31 bd 36 b6 a2 bc
       -0.051596258 -0.0005079407 -0.043328587 -0.019862276
000190 1c f0 20 3d 4d d0 03 3d bd 3f 61 bc 48 62 3a 3d
       0.039291486 0.032181073 -0.013748107 0.045503885
0001a0 3f f0 07 bd a7 9e 2e bc fc cb 2b 3c a5 1b fd bc
       -0.0331881 -0.010657943 0.010485645 -0.030896971
0001b0 9c d8 3b bd 45 48 0f 3d c8 76 ce 3c ec 29 3d 3d
       -0.04586087 0.03498103 0.025203124 0.046182558
0001c0 c5 fb 67 3d 3b ec 0f 3c bd a3 88 3d 92 96 90 3d
       0.05663659 0.008784349 0.066718556 0.07059969
0001d0 9d b3 ff 3c 76 55 0e 3d 9b 14 93 bb 02 63 e2 bc
       0.031213576 0.03474947 -0.0044885403 -0.027635101
0001e0 dc b4 8b 3d d3 03 07 bd aa 27 a9 bc 1f ec 8a 3d
       0.068216056 -0.03296263 -0.020648796 0.06783318
0001f0 75 98 40 3d 81 3b 29 bc 3e 95 da bb e1 83 55 3d
       0.047020394 -0.010329128 -0.006670623 0.052127723
000200 b5 42 0f 3d b1 24 01 bd 5a 7c cf bb a9 a9 39 bd
       0.034975726 -0.031529132 -0.0063319625 -0.045327816
000210 a7 a4 70 3c d5 92 a0 bc 97 a1 1a 3d c6 c4 be 3d
       0.014687694 -0.019601265 0.03775176 0.09314875
000220 bb 5e 4c 3d b1 8d 6f 3c e7 60 1a 3d 85 8d 59 bd
       0.04989503 0.014621184 0.03769007 -0.05311348
000230 0f 26 d5 bc f1 22 b8 bc c3 53 04 bc 6e 91 a1 3c
       -0.026019124 -0.022477599 -0.008076611 0.019722667
000240 9b 6b 09 3d 7b 6f fc 3b dc 21 34 bd 09 5e 5d bb
       0.033549886 0.007703719 -0.043977603 -0.0033777973
000250 31 02 42 bd 7e ec ad bb c4 fe 7d bd e0 51 41 bc
       -0.04736537 -0.005307733 -0.06201054 -0.011799306
000260 3f c7 f1 3b b4 6c 26 3d fd 79 ef 3c 54 69 0d 3d
       0.0073784883 0.04063101 0.029232973 0.034524277
000270 2b cf 55 bd 77 69 17 bc b0 f9 97 3d 3f 22 7c bd
       -0.052199524 -0.009241453 0.07420671 -0.061556097
000280 28 42 63 3c 91 d0 b0 3d e2 6b 8d bc 37 db ae bc
       0.013870753 0.08633531 -0.017263357 -0.021344764
000290 75 1e c1 3c 72 91 f9 3c 66 76 5a 3d 39 6b e0 bb
       0.023574093 0.030464862 0.05333557 -0.0068487194
0002a0 52 da 88 3c 62 6d 38 bc 35 29 4d bc ce b2 ff bc
       0.016705666 -0.011256548 -0.012522032 -0.03121319
0002b0 02 e0 84 3b 3e b3 1c 3d db 71 63 3a cd 85 48 bd
       0.004055024 0.038256876 0.00086763286 -0.048955727
0002c0 1e 39 72 3d c4 66 10 3d 3e 90 63 3d 18 86 ca bc
       0.059136502 0.035254255 0.055557482 -0.024722144
0002d0 2b be 1c 3d c1 6a b2 bc bc e9 3a 3d 92 87 ca bc
       0.038267296 -0.02177942 0.045633063 -0.024722848
0002e0 b7 70 ba 3a b3 3a 3c 3d 71 1f 6d 3d 29 15 a9 bc
       0.0014224265 0.045954417 0.057891313 -0.020639973
0002f0 f5 f4 3d bc 11 9e 4f 3c 41 dd 4c 3d 7e 10 63 bc
       -0.011594047 0.012671963 0.05001569 -0.0138589125
000300 93 c8 ac 3c 46 a6 99 bc 70 2b 8a bc 98 9c fa 3c
       0.021091735 -0.018756043 -0.016866416 0.030592248
000310 b4 49 d8 3c ac 60 14 3d ac ee 5c 3c 9d 30 4c 3b
       0.026402332 0.036225006 0.013484638 0.0031156905
000320 d3 65 a6 bc f4 ac b5 bc 23 c3 35 bc 06 73 b3 3b
       -0.020312225 -0.022177197 -0.0110938875 0.0054763583
000330 a8 4f 03 3c b5 65 bf 3c fb 00 57 3d e1 fb 92 bc
       0.008014597 0.023363927 0.05249117 -0.01794237
000340 01 2c aa bc 90 3b 22 bd 6d 49 e2 bc 5a 7f cc bc
       -0.020772936 -0.039607584 -0.027622903 -0.02496307
000350 0a 39 56 bc 8d a1 29 3d 4e 49 fe bb d4 ed 63 bd
       -0.013075123 0.041413832 -0.0077602034 -0.055646732
000360 26 00 d9 bc 74 0d 3e 3d 2c 71 5a bd 68 95 c4 ba
       -0.026489329 0.04639955 -0.053330585 -0.001499814
000370 70 7e 36 3d c9 84 2c bc a7 2d 1c bd ec a7 8d 3b
       0.044554174 -0.010529705 -0.038129475 0.0043229964
000380 79 4c 36 bd c0 f2 3b 3c ed fe 65 3d 70 bc 99 3c
       -0.044506524 0.01147145 0.05615132 0.018766612
000390 1b 4b b2 bc b1 cf 61 bd 8b af 93 3d e6 61 51 bd
       -0.021764329 -0.05512971 0.072112165 -0.051118754
0003a0 c2 c8 c4 bc ca b4 05 3e e7 63 a3 bd bd 15 f4 bc
       -0.02402151 0.13057247 -0.07978039 -0.029795522
0003b0 f2 1c 00 3d 07 b4 12 bd 64 3b 43 3c ec 1a ef b9
       0.031277604 -0.03581622 0.011916015 -0.0004560569
0003c0 2d 33 8d 3c 8e 5b 0a 3c eb e4 b5 3b 28 10 d8 bc
       0.017236317 0.00844468 0.005550971 -0.026374891
0003d0 65 68 a7 3b 50 54 ee 3c d3 5b 32 bd 8c 89 a3 3d
       0.0051088803 0.029092938 -0.0435446 0.07985219
0003e0 5f 7f b9 3c 28 07 2f bc 00 14 3d 3d 9d 60 4b bc
       0.022643743 -0.0106828585 0.04616165 -0.012413171
0003f0 3c 71 84 bd 8b 29 a1 3d a4 fc 5b 3d ed 7a 16 bd
       -0.0646691 0.07869252 0.053707734 -0.036738325

conv_stack.0.bias f4 [32]
000000 09 8b 19 3c 08 08 0c bd d7 1c 85 3d 0c 4e 4c be
       0.0093715275 -0.034187347 0.064996414 -0.19951648
000010 a7 07 c2 3d 25 e2 b1 3d d5 b6 9c 3d 25 c5 00 3e
       0.09474116 0.08685712 0.0765206 0.12575205
000020 fc 47 c1 3d 45 7b d8 bd b6 61 5d 3c c3 c9 ef bd
       0.09437558 -0.10570387 0.013512066 -0.11708405
000030 d1 9e 15 3e 86 ec fa 3d de f2 a4 bd cb bb 64 bd
       0.14611365 0.122521445 -0.08054136 -0.055843156
000040 4f 7c e6 bc c3 91 8d 3c ad aa 1e 3d 0b 7c 4e 3e
       -0.028135447 0.017281419 0.038736988 0.20164506
000050 6e 10 ce ba 6e 30 01 be 45 c0 4c bd 9c db 62 bd
       -0.0015721449 -0.1261613 -0.04998805 -0.055385217
000060 eb b5 50 3d 5b 65 c6 3d f9 59 87 3d 84 3d ba bc
       0.05095474 0.09687301 0.06608958 -0.022734411
000070 6d 4d 13 3e aa 9f 0c be 18 08 1c be 4f 82 08 be
       0.14385004 -0.13732782 -0.15237463 -0.13330959

conv_stack.2.weight f4 [32]
000000 2a 19 83 3f 5f 0e 71 3f d7 21 8c 3f 57 42 7a 3f
       1.0242054 0.94162554 1.0947827 0.97757477
000010 41 e6 74 3f 0e 79 7f 3f b9 d7 87 3f 37 6a 78 3f
       0.9566384 0.9979409 1.0612708 0.9703707
000020 d9 7a 72 3f c3 44 7a 3f ec da 68 3f 9c 0f 87 3f
       0.947187 0.9776117 0.9095905 1.0551639
000030 60 ce 79 3f e4 94 87 3f 03 3c 7f 3f ff e8 81 3f
       0.9758053 1.0592313 0.99700946 1.014923
000040 6c 85 90 3f 5a 84 73 3f c4 eb 82 3f 26 27 7f 3f
       1.1290717 0.9512383 1.02282 0.9966911
000050 0e 53 7a 3f 45 82 77 3f c9 4e 83 3f 3f 0f 6f 3f
       0.9778298 0.9668315 1.0258418 0.9338264
000060 aa 08 7b 3f 01 51 7b 3f 0b 17 75 3f ec b7 51 3f
       0.98060095 0.9817048 0.95738286 0.8192127
000070 9c 02 84 3f 9b 14 7a 3f d4 d2 74 3f f2 dc 7e 3f
       1.0313296 0.9768769 0.956342 0.99555886

conv_stack.2.bias f4 [32]
000000 dd b3 02 bd 5d 54 d6 3c 40 ef 92 3c 5f bf f2 3b
       -0.031909812 0.026163274 0.017936349 0.007408067
000010 2e 97 bb bb ba 88 4f bd 2f 5e 37 bc d7 68 df bc
       -0.005724809 -0.050667502 -0.011191889 -0.027271671
000020 a5 96 08 bd a0 1e 9a 3d 2f 25 06 3d 79 04 1a bd
       -0.03334679 0.075253725 0.032750305 -0.03760192
000030 2e cd f0 3c 4e 59 02 bc 15 7a 45 3c b3 c4 ae 3d
       0.029394712 -0.007955862 0.012053032 0.08533611
000040 a7 8b d2 3c b0 e3 8e 3c 0d 70 42 bd 7d 3b db bc
       0.025701357 0.017442554 -0.04747014 -0.026761765
000050 8d f1 6d bc 3e d6 20 bd 3e b4 52 bc 52 57 b7 bb
       -0.014522922 -0.039266817 -0.012860356 -0.005595126
000060 3c 0c e8 bc f2 0a 9c bd bf f7 8b bd 80 9b 04 3d
       -0.028326146 -0.07619275 -0.06834363 0.03237486
000070 39 92 29 3c 68 6d 05 3d de 17 78 bd 50 ca d8 bc
       0.010349804 0.03257504 -0.060569637 -0.026463658

conv_stack.2.running_mean f4 [32]
000000 dd 2b d1 3e 47 74 a7 3e 84 cc b3 3e 9c 61 7c 3f
       0.40853778 0.327059 0.3511697 0.9858644
000010 c8 73 00 3f 35 bf ce 3e 76 96 ce 3e b0 d6 7a 3f
       0.5017667 0.40380254 0.40349168 0.9798384
000020 01 25 7d 3f ce 6a 38 3f a5 5f 2e 3f d1 88 0f 3f
       0.9888459 0.7203797 0.6811469 0.5606814
000030 76 d1 17 3f 79 35 d0 3e e5 eb e7 3e c1 61 e0 3e
       0.5930399 0.40665796 0.4529716 0.4382458
000040 c7 3b 53 3e fb c7 14 3f c7 c3 e7 3e 0c bd 90 3e
       0.20628272 0.58117646 0.45266554 0.2826923
000050 74 01 19 3f af 0c 08 3e ad 7c 0c 3f ae 78 53 3f
       0.5976784 0.13286088 0.5487774 0.8260602
000060 43 6c 13 3f 47 02 36 3f 0f c1 91 3f 4e 1b 54 3f
       0.5758707 0.71097225 1.1387042 0.82854164
000070 28 97 40 3f 55 8d d4 3e ce e3 d4 3e db 09 df 3e
       0.75230646 0.41514078 0.4158005 0.43562207

conv_stack.2.running_var f4 [32]
000000 30 e4 08 3f 04 36 0a 3f 5f 8d df 3e e1 cc 9d 40
       0.53473186 0.5398867 0.43662545 4.9312596
000010 3e 4b 79 3f cb 4f 21 3f 2b 37 f4 3e a2 51 8b 40
       0.97380435 0.6301238 0.4769834 4.353715
000020 6c af 8a 40 09 03 1a 40 33 5e 39 40 62 b4 d4 3f
       4.333914 2.4064353 2.8963745 1.6617548
000030 2a a8 a9 3f 43 90 16 3f 3d 31 55 3f 6e 87 40 3f
       1.3254445 0.58813876 0.83278257 0.7520665
000040 8c b1 52 3e 9b ef 91 3f b2 f3 2c 3f dc 8b da 3d
       0.20575541 1.1401247 0.6755935 0.10671207
000050 aa 5d ca 3f 74 6c 51 3e ce a7 c2 3f 4f ae 26 40
       1.5809834 0.20451528 1.520746 2.604389
000060 aa a4 bc 3f 3c f1 d0 3f 92 02 8f 40 85 fe 1e 40
       1.4737751 1.6323619 4.4690638 2.4842846
000070 03 c9 e2 3f 17 c2 78 3f 37 5a 72 3f bf d0 7d 3f
       1.7717594 0.9717116 0.94668907 0.99146646

conv_stack.3.weight f4 [64, 32, 3]
000000 54 3f 96 3c 0f 96 b8 3d 73 2b 95 3d 6a 85 81 bd
       0.018340744 0.090129964 0.07283678 -0.06324275
000010 f8 f7 ca bc 4c 2c 10 bd 2b 1e 05 3e 37 55 24 be
       -0.024776444 -0.035198495 0.1299979 -0.16048132
000020 9a 93 eb 3d 6c 69 51 bd 88 9a 77 bb 62 68 5d 3d
       0.11502762 -0.05112593 -0.0037781317 0.054054625
000030 34 fa c4 bd d3 84 55 3d f6 ad 0f 3d 3e 7a 1b 3d
       -0.09618035 0.052128624 0.03507801 0.037958376
000040 07 0e 8e 3d b9 ea 1f 3e 7e f7 e8 bd df 33 94 bc
       0.06936269 0.15616883 -0.113753304 -0.01809114
000050 ba b3 d1 bd 0b 3a 86 3d d8 9e a2 bd e8 d0 06 3d
       -0.10239358 0.065540396 -0.07940453 0.032914072
000060 60 50 a4 3d e4 b9 57 3d 5c 6a af bd 45 04 a6 bd
       0.08023143 0.052667513 -0.08565208 -0.08106283
000070 c1 e1 ff 3d 85 5b 78 3c f9 e3 25 3c 66 d6 a6 3c
       0.12494231 0.015158539 0.010125154 0.020365905
000080 b1 a5 46 bd 5b ee 30 3c 4e f3 de bd 14 7a 2a bd
       -0.04849786 0.010799016 -0.108862504 -0.04162033
000090 8c f1 d9 bd 6a 97 39 bd 80 84 b2 3d e6 9d e7 bc
       -0.106417745 -0.045310415 0.087166786 -0.028273534
0000a0 5d e4 1b bd af a0 eb 3d 38 12 7c 3d 30 91 01 be
       -0.03805958 0.11505257 0.061540812 -0.12653041
0000b0 69 6e 1f bd 27 5c 4c bd d7 a4 ce 3d 32 2b af 3d
       -0.038923655 -0.04989257 0.100900345 0.08553161
0000c0 6d bf 16 3e d2 05 40 3d 33 1e 95 bc 92 56 54 3d
       0.1472146 0.04688055 -0.018202877 0.051840372
0000d0 7b cf d3 3d b9 6d 65 3d b6 a7 1f bd a7 4a 2b 3e
       0.10342308 0.056012843 -0.0389783 0.16727696
0000e0 9d 91 02 be ad f3 82 3d 01 db c2 3b d6 33 76 bd
       -0.1275086 0.06394134 0.0059465175 -0.06010803
0000f0 e0 fd 98 bd b9 6e 06 3c 29 0c d5 bd e8 e0 5a bd
       -0.07470298 0.008205109 -0.1040271 -0.053437144
000100 7d dc 06 3c e4 90 72 bc d2 3c 05 3b 2d 9a 04 3c
       0.008231279 -0.014805052 0.0020330441 0.008093399
000110 cd af 07 be 92 46 85 bc 5f 3b 9e 3c ce 13 b1 3c
       -0.13250656 -0.016269002 0.01931542 0.021615889
000120 05 94 94 bd 51 75 bf bd 0e 9a eb bc 2a e2 cd 3c
       -0.07254795 -0.09348548 -0.028759982 0.025132257
000130 9f 9d 49 bc 94 31 46 3d ce 72 cc 3d 68 e5 cd 3d
       -0.012305646 0.048387125 0.09982835 0.100535214
000140 d0 5e 18 bd 20 f7 d7 3d bb d2 df bc 4d 9e 27 3d
       -0.037199795 0.10545182 -0.027322164 0.04092245
000150 44 f1 8e bb 1c ae 6c bd d9 31 33 bd b8 5d 26 bc
       -0.004362257 -0.05778323 -0.04374871 -0.01015418
000160 75 8f 51 be fb 9e b3 3b 4d dc 25 bc 90 e2 c7 3c
       -0.20464881 0.0054815984 -0.010123325 0.024400026
000170 ec 7c 03 be 81 12 aa bd 28 fb 97 bc c3 71 27 3c
       -0.12840623 -0.083043106 -0.018552378 0.010219994
000180 4e 8e 05 be 02 66 07 be 41 4a 34 3d 51 c3 c8 bd
       -0.13042566 -0.13222507 0.044016127 -0.09802879
000190 07 1c 33 bd 2d cc 06 be 11 80 fa 3d 91 60 31 3c
       -0.0437279 -0.13163824 0.12231458 0.010826246
0001a0 50 0c 06 be 39 95 f3 bd 22 06 0b bd c1 38 a7 bc
       -0.13090634 -0.11893696 -0.033941396 -0.020412805
0001b0 88 ee 71 bd 70 39 d3 bd b6 b2 85 3c d7 48 c4 3d
       -0.05906537 -0.1031369 0.016320568 0.095842056
0001c0 a0 55 eb 3c 56 e6 79 bd f4 40 17 3d 8b 21 63 bc
       0.028727353 -0.06101068 0.03692718 -0.013862978
0001d0 e9 77 f9 3d c3 2d bd 3d 78 e0 99 bd e0 8a 39 bd
       0.12181074 0.09237244 -0.07513517 -0.045298457
0001e0 ef 13 51 3b 1c 75 d2 bd 66 7a 96 3d 11 2e ec bb
       0.003190275 -0.10276243 0.073475644 -0.00720764
0001f0 5c 49 91 bd 94 12 02 be 14 d9 a1 bc bf 33 6d 3c
       -0.0709407 -0.127024 -0.019756831 0.014477669
000200 80 83 d1 bd 2a 90 a8 3d 7e 1f 92 bb 67 1a bc bd
       -0.1023016 0.08230622 -0.0044593206 -0.09184723
000210 a0 c5 d6 bc 5e be d1 bc 9a cd 67 bd 5d 93 63 bd
       -0.026217282 -0.02560347 -0.05659256 -0.05556046
000220 df ed 11 bc 28 ed d6 bc 38 7e d6 bd e9 c9 9c bd
       -0.008906811 -0.026236132 -0.10473293 -0.07655699
000230 ed ed 30 3d d7 d6 f7 bd dc 09 20 be e6 04 1f bd
       0.043195654 -0.12101524 -0.15628761 -0.03882303
000240 4d de c4 bc 2b a2 11 3e 5e 4d c8 3d 6d c2 1e bd
       -0.024031783 0.14222018 0.097803816 -0.038759638
000250 63 56 80 bc 48 9b 0c be 15 da 70 bd 9d 4e d6 bd
       -0.015666192 -0.1373111 -0.05880173 -0.10464213
000260 ce bb 86 3d 42 f8 1e 3d 11 6d 23 3d a2 12 20 3d
       0.0657879 0.038810976 0.039898936 0.03908027
000270 d5 5e 4a 3c df c2 54 bd a1 e0 73 3c 6c a0 5a bd
       0.012351711 -0.051943656 0.014885099 -0.053375646
000280 97 1a 8f 3d 2c ce cf 3d fd d0 02 3d 91 b5 c4 bd
       0.069874935 0.10146746 0.031937588 -0.096049435
000290 b1 d8 14 3d 44 08 eb 3c 83 49 60 3b 01 b9 08 3e
       0.036339466 0.028690465 0.0034223504 0.13351823
0002a0 86 ce 41 3a 43 99 6f 3d 99 0b 7b bd 72 17 af 3c
       0.000739314 0.05849577 -0.061290357 0.021373484
0002b0 ce 4f f5 3c 0f 03 89 bd 2c ec 7f 3d e0 ec 1e bc
       0.02994528 -0.066900365 0.06248109 -0.00970003
0002c0 88 a5 cb 3d d3 3f a7 bb 07 54 d7 bc 7f b6 c5 3d
       0.09943682 -0.005104044 -0.026285185 0.09653949
0002d0 c4 3b bb 3a 19 bd b9 3d f3 55 45 3d 0b d3 7d bd
       0.0014284779 0.09069271 0.04817767 -0.061968844
0002e0 d6 ff 9b bd 3c bc 61 3d 05 7e 87 bc d6 83 00 be
       -0.07617156 0.055111155 -0.016539583 -0.12550291
0002f0 ec bb b0 bc 45 a6 6d bd 88 d0 6c bd 48 0d c2 3d
       -0.021573983 -0.058019895 -0.05781606 0.094751894
000300 c4 86 c4 bd 85 7c 8a 3d 2e 7f 8d bd 2a f3 92 3c
       -0.09596017 0.067620315 -0.06909023 0.017938215
000310 e2 76 9b 3b e5 42 c3 bd 59 2f 87 3c f2 63 95 bd
       0.0047443965 -0.095342435 0.01650207 -0.07294454
000320 73 3b 4d 3d 3d f7 a9 bd 3e a3 3b bc 8e d7 bc 3c
       0.050105523 -0.0829911 -0.011452494 0.023052003
000330 d4 6c 18 be 9c f6 02 3d e4 89 08 3e 89 45 fb 3c
       -0.14885265 0.031973466 0.13333851 0.030672805
000340 1e 82 26 be 2b 13 69 3d fb 62 77 bd 40 66 82 3e
       -0.16260573 0.056903046 -0.06039713 0.25468636
000350 c9 40 d4 3b c8 7d 11 3d 6b 34 0a bc 2e b0 0c 3e
       0.0064774496 0.035520345 -0.008435349 0.13739082
000360 33 d6 25 bb 2a c5 25 bd 38 38 28 be f9 e1 34 3d
       -0.0025304675 -0.040471233 -0.16427696 0.044160817
000370 26 ea d2 3c 4d d6 a5 3d 64 e0 9a bd f8 0d cc bd
       0.025746416 0.08097515 -0.0756233 -0.09963602
000380 6a 41 ed 3c df 78 c9 3d 95 dd 18 3a da cf 39 bd
       0.028961856 0.098375075 0.0005831358 -0.04536424
000390 75 ba 05 bd 85 bd a8 bd 4b 73 9b bd 48 5e 2f bc
       -0.032648522 -0.08239273 -0.0759035 -0.010703631
0003a0 7e 88 60 3d 65 7a f9 39 7d d0 64 bd 7a 73 12 be
       0.05481767 0.00047584172 -0.055862892 -0.14301863
0003b0 23 ec 37 bb e0 c0 9b 3a 6e 7e b0 bd 81 78 87 3d
       -0.0028064332 0.0011883043 -0.086178645 0.06614781
0003c0 38 a7 86 3d 6d b2 78 bc 8c f9 0f 3d eb 60 29 bd
       0.06574863 -0.015179259 0.035150096 -0.041352194
0003d0 8a 90 da bd 4a 89 69 bd dd 38 ac 3c a2 5f 71 3d
       -0.106721 -0.057015695 0.021023208 0.058929093
0003e0 9b 4d 66 bd 0a 08 df 3d 24 3e a0 bc 80 df 8b bd
       -0.056226354 0.10890205 -0.019560881 -0.068297386
0003f0 ab fd 15 bd aa 7d 24 bc b9 61 de 3c 3c 17 0d bc
       -0.03661887 -0.010039726 0.027146207 -0.008611497

conv_stack.3.bias f4 [64]
000000 cf 76 e5 3c be d1 be bd f9 79 4c 3d a3 27 c0 3d
       0.028010754 -0.09317349 0.04992101 0.0938256
000010 04 97 83 be a1 7e b3 3b 07 c6 3a bd 06 1c 3b be
       -0.25701153 0.005477742 -0.04559901 -0.18272409
000020 dc af c8 bd da 0e 7d 3d d3 45 c0 3d 01 58 d2 3c
       -0.097991675 0.06178174 0.09388318 0.02567673
000030 39 0d b1 bd 77 41 cc bd 99 3f 1d 3e 18 e9 e0 bd
       -0.086451 -0.09973424 0.15356292 -0.10981959
000040 4b 67 1a bd b6 c1 81 bd f9 c5 92 bd 51 7c 4c 3d
       -0.037696164 -0.063357756 -0.071666665 0.049923245
000050 bc f7 4c be 65 ea 93 ba 28 85 df 3c ca 8a b2 3c
       -0.20016378 -0.0011285065 0.027285174 0.021794695
000060 c8 fd 04 be 34 01 36 be fa 60 06 bc fc 45 16 3d
       -0.12987435 -0.17773896 -0.008201832 0.036687836
000070 cd b9 13 be f2 93 98 bd 24 38 eb bd 04 c4 8c bd
       -0.14426346 -0.07450093 -0.11485317 -0.068733245
000080 32 88 c6 3b 1b 45 3e bc 4e 01 60 3d c3 1c 2f bd
       0.006058716 -0.011613156 0.054688744 -0.04275204
000090 e2 6b bf 3d 67 59 7b 3d a1 42 0f bd d1 a4 16 be
       0.09346749 0.061364558 -0.03497565 -0.1471131
0000a0 5f 85 28 be ac 42 5e be db f4 95 3c 3a da 3f be
       -0.16457127 -0.21705121 0.018305233 -0.1873559
0000b0 df 5c e8 3d ec 5a 3f 3c 53 e9 c1 bd 93 ed 9c 3d
       0.11345839 0.011679392 -0.09468331 0.07662501
0000c0 3e c1 08 3e 03 11 1c 3d 54 75 eb 3d 9d db 46 be
       0.13354966 0.03810216 0.11496988 -0.19419713
0000d0 bc e4 4c 3d 22 7c 49 bd 2b 22 05 be 33 5b 01 bd
       0.050022826 -0.049190648 -0.13001315 -0.031581115
0000e0 10 3a 02 3d 76 47 8c bd 96 69 4e be 63 41 32 bd
       0.031793654 -0.068495676 -0.20157465 -0.04351939
0000f0 ad 66 45 3c 4d d5 85 3d 98 fb bc bc a2 a2 cd bd
       0.012048406 0.065348245 -0.023069188 -0.10040785

conv_stack.5.weight f4 [64]
000000 e9 72 7b 3f ba 6f 7a 3f 16 d1 78 3f 06 0e 73 3f
       0.98222214 0.9782673 0.9719404 0.94943273
000010 67 56 90 3f 8b 9f 75 3f 82 d1 5e 3f 68 3d 7a 3f
       1.1276368 0.9594657 0.87038434 0.9774995
000020 22 80 7f 3f 0b 5c 8a 3f 06 4c 7b 3f c3 c8 84 3f
       0.9980489 1.0809339 0.9816288 1.0373768
000030 8b c9 75 3f 1a 88 77 3f b2 15 93 3f 8a 0f 81 3f
       0.96010655 0.9669205 1.1490996 1.0082867
000040 c2 6e 72 3f 68 92 7c 3f c6 aa 83 3f ea fe 7a 3f
       0.94700253 0.986609 1.0286491 0.9804522
000050 c6 dc 7f 3f 04 c5 76 3f 90 e2 78 3f ee 2c 6b 3f
       0.9994625 0.9639437 0.97220707 0.9186543
000060 64 47 81 3f 05 c0 7f 3f a3 af 83 3f 68 45 75 3f
       1.0099912 0.99902374 1.0287975 0.9580903
000070 d0 24 75 3f f5 41 7f 3f 3b f1 76 3f 38 00 78 3f
       0.95759296 0.9971002 0.9646184 0.96875334
000080 e0 77 7a 3f 86 86 77 3f 2e d5 76 3f 59 e8 7f 3f
       0.97839165 0.9668964 0.96419036 0.9996391
000090 68 68 82 3f dd cc 6c 3f a9 9e 82 3f 52 61 88 3f
       1.0188112 0.92500097 1.0204669 1.06547
0000a0 24 f9 8e 3f a7 20 8b 3f 7d 13 76 3f 60 2a 77 3f
       1.1169782 1.086934 0.96123487 0.96549034
0000b0 ef 59 68 3f 93 34 74 3f 25 56 7c 3f f9 7d 5d 3f
       0.9076223 0.9539272 0.98568946 0.86520344
0000c0 22 56 6c 3f 1d c5 81 3f d7 31 77 3f a4 14 85 3f
       0.9231893 1.0138279 0.96560425 1.0396924
0000d0 40 a3 81 3f 89 8d 8c 3f 67 3d 87 3f 95 08 82 3f
       1.0127945 1.0980693 1.0565614 1.0158869
0000e0 42 e7 83 3f 86 a7 7a 3f 21 82 77 3f ca 42 83 3f
       1.0304949 0.9791187 0.96682936 1.0254757
0000f0 06 fb 80 3f 1f cc 82 3f ce 8a 78 3f b7 26 70 3f
       1.0076606 1.0218543 0.970868 0.93809074

conv_stack.5.bias f4 [64]
000000 bf 9c 92 3b e3 71 14 3c 10 f9 15 3c 3b bf b6 3d
       0.004474252 0.009060356 0.009153619 0.08923193
000010 d7 06 28 bd 8f df 95 bd 0a 85 7e bd be 43 e5 bd
       -0.041022148 -0.07318031 -0.062138595 -0.111945614
000020 a5 17 c0 bc 0f 12 c4 3b dc c2 f4 3c 96 be a1 3d
       -0.023448775 0.005983598 0.029878072 0.078976795
000030 af 3b a9 3c eb 1b 89 3c 74 42 be 3c 11 f7 4f bd
       0.020658342 0.016736945 0.023225047 -0.05077273
000040 6d 00 e5 bc 63 10 07 bd a9 f1 a1 bd fc 5a 5e 3d
       -0.027954305 -0.032974612 -0.07907421 0.05428599
000050 43 5c 39 bd 59 0d 1e 3d ec a8 09 3b 5c 5c b9 bc
       -0.045254003 0.038586948 0.0021005226 -0.022627048
000060 9f a9 25 be 94 3a f0 bd 5b be 04 3d fa a6 b0 3c
       -0.16177987 -0.11729923 0.0324081 0.021563996
000070 2a 97 08 3d c9 cf f4 bc ac a7 7a bc 4b 5c 4b 3b
       0.033347286 -0.029884236 -0.015298765 0.0031030353
000080 9a b5 f3 bd fb bf 91 ba db 55 62 3c 16 df c1 bd
       -0.11899872 -0.0011119837 0.013814415 -0.094663784
000090 42 45 0f 3e c3 24 04 bd c6 7d 63 bd 6b 61 25 bd
       0.13991264 -0.03226162 -0.05553987 -0.04037611
0000a0 97 8c 1e bd 6a f2 b5 bd 47 f5 0c 3c 66 77 94 3c
       -0.038708296 -0.088841274 0.008603401 0.01812334
0000b0 ec 30 c6 bd 95 4d 28 3d 52 52 8e 3c e3 4e 06 3c
       -0.096773 0.041089613 0.017373238 0.008197519
0000c0 ae e1 61 be 36 0b b7 bd cf 10 a4 bd 72 96 fe bb
       -0.22058746 -0.08937685 -0.080110185 -0.0077693993
0000d0 61 35 38 bd 00 18 43 bd 13 13 3c 3d 8e 96 64 bb
       -0.04497278 -0.04763031 0.045916628 -0.0034879777
0000e0 19 e9 dc 3d 17 21 d4 bd 94 56 5b bd ff 8c f6 bd
       0.10786647 -0.10357874 -0.053549364 -0.120386116
0000f0 3f a4 ca bd 8b 0e 04 3d fc f3 ea 3a 74 cb 60 3d
       -0.09894609 0.03224043 0.0017925496 0.054881528

conv_stack.5.running_mean f4 [64]
000000 85 0b 93 3e 89 e7 b8 3d 29 3b a4 3e 27 e1 37 3e
       0.28719726 0.09028537 0.32076386 0.17956983
000010 b5 2c 1a 3e ce d0 c8 3e ca ae 5f 3e e2 fc 36 3e
       0.15056117 0.39221805 0.2184402 0.17869905
000020 ab ec 8d 3e 28 92 b8 3e 26 07 a1 3e 86 8f 50 3e
       0.27719626 0.36049008 0.31450766 0.2036725
000030 bc 58 b8 3d 67 69 f6 3d 80 e7 b4 3e fe 8f 90 3e
       0.090013 0.12031823 0.3533287 0.28234857
000040 75 45 7c 3e db 3d 70 3e bf 0b 8e 3e db 13 71 3e
       0.24635871 0.23461096 0.27743337 0.2354273
000050 ee 08 35 3d f4 65 0b 3e 0f 45 61 3e 5a 44 92 3e
       0.04419797 0.13613111 0.21999 0.28567773
000060 55 60 80 3e e3 2f 1f 3e 14 fc 3b 3e 43 4b b3 3e
       0.25073496 0.15545611 0.18357879 0.35018358
000070 93 cb bb 3d 2a fa 3d 3e 54 8f 96 3d 70 c6 1a 3e
       0.09169688 0.18552461 0.073515564 0.1511476
000080 0b 02 84 3e 9f d2 67 3e 8c b3 50 3e d9 86 56 3e
       0.2578281 0.2263894 0.20380992 0.20949878
000090 cb 50 51 3e 14 f1 9f 3e 57 24 ac 3e eb 27 10 3e
       0.20440976 0.31238616 0.33621475 0.14077727
0000a0 96 14 05 3d 29 52 a3 3d db 7d 47 3e ff b5 96 3d
       0.032490335 0.07974655 0.19481604 0.07358932
0000b0 36 a9 87 3e ff 88 94 3e 45 c9 5f 3e 50 cb ac 3e
       0.26496285 0.2901077 0.21854122 0.33748865
0000c0 34 14 9c 3e e1 6e a1 3e c1 48 82 3e f9 66 25 bd
       0.30484164 0.31529906 0.25446132 -0.040381406
0000d0 2c aa d4 3e 21 02 01 3e 71 81 f3 3d a2 d7 6e 3e
       0.4153608 0.12598468 0.11889923 0.23324445
0000e0 e9 b5 46 3e 10 8c 3b 3e 1a e8 21 3e c8 81 b8 3e
       0.1940533 0.18315148 0.15811196 0.36036515
0000f0 b7 0e 95 3e 4c cd 00 3f fb a5 4e 3e 4d db c5 3e
       0.2911279 0.5031326 0.20180504 0.38643876

conv_stack.5.running_var f4 [64]
000000 fa f6 73 3e 42 30 be 3d 44 7f 6e 3e 27 8e c4 3d
       0.23824683 0.09286548 0.23290735 0.09597426
000010 5e 51 59 3e 31 a1 ff 3e 8c 4a 62 3e 9b 7f 9a 3e
       0.21222445 0.49927667 0.2209875 0.3017548
000020 30 a9 aa 3e d9 4d 90 3e 69 31 7e 3e f5 72 54 3e
       0.33332205 0.28184393 0.24823536 0.20746978
000030 81 4a da 3d e3 bf 27 3e d4 dc 2e 3e df f2 15 3f
       0.10658742 0.16381793 0.17076427 0.58573717
000040 5a ee 84 3e de 70 a5 3e f2 a9 fc 3e 88 ab 5d 3e
       0.25963098 0.32312673 0.49348408 0.21647465
000050 f7 e8 c3 3d ae 69 d3 3d 98 67 82 3e e6 12 ea 3e
       0.09565919 0.10322891 0.2546966 0.45717543
000060 58 58 f5 3e 2d eb 75 3e d1 05 13 3e 4d ef bb 3e
       0.47918963 0.24015494 0.14357688 0.3670601
000070 c5 23 d7 3d ab 13 3b 3e 70 55 83 3d a3 1e a2 3d
       0.10504869 0.18269221 0.0641278 0.07916
000080 ee b8 8b 3e 18 d9 23 3e e9 94 1f 3e 00 c8 74 3e
       0.27289528 0.16000783 0.15584148 0.23904419
000090 12 b8 a2 3d 37 57 cb 3e b8 b1 f7 3e 15 2e 27 3e
       0.07945265 0.39714977 0.48377776 0.16326173
0000a0 2d bc 9b 3d f6 6f f9 3d 89 cd ea 3d 54 07 12 3e
       0.07604251 0.12179558 0.11464984 0.14260608
0000b0 21 e3 21 3e 5c 66 c1 3e f5 d2 a1 3e 79 10 8d 3e
       0.15809299 0.37773407 0.3160626 0.2755163
0000c0 d3 90 76 3e ec 19 82 3e d3 8f 10 3e e6 c8 22 3d
       0.24078684 0.25410402 0.14117365 0.039742373
0000d0 f9 33 fb 3e 37 1c fc 3d 70 75 40 3e 6a fb 88 3e
       0.4906309 0.12310069 0.18794799 0.26754314
0000e0 ee ad db 3d 56 64 62 3e 13 dd e4 3e 36 b1 06 3f
       0.10726534 0.22108588 0.44699916 0.5261415
0000f0 38 0d b2 3e 98 a4 1c 3f c0 a3 2f 3e c3 cb 1d 3f
       0.3477571 0.6118865 0.1715231 0.6163904

conv_stack.6.weight f4 [128, 64, 3]
000000 26 86 1f 3d c2 b0 ae 3c f7 3f 30 3d cd 2d 28 bc
       0.038946293 0.021324519 0.04302975 -0.010264826
000010 4b c4 94 3c 32 28 dc bd ba ab a9 3c 6b e9 8b bc
       0.018160006 -0.10749854 0.020711768 -0.017079076
000020 3b d7 f7 3c d1 a5 b0 bc 61 62 e4 bc 0e 75 14 bd
       0.030253997 -0.021563442 -0.027878942 -0.036244445
000030 13 55 88 3d 86 a0 a9 3c e4 b6 bc ba c8 e8 41 3d
       0.066568516 0.020706426 -0.0014397767 0.047341138
000040 89 df 1c 3d b7 87 39 3d 69 2a 83 bd 94 4a df 3a
       0.038299117 0.045295443 -0.064045735 0.0017035776
000050 83 80 7e bd ba 41 48 bc 87 fe 22 bd da 02 34 ba
       -0.062134277 -0.012222702 -0.039793517 -0.000686688
000060 aa b0 a5 3d a9 cf a8 3d 30 80 c2 3c 96 b6 c1 3c
       0.080903366 0.08242733 0.023742765 0.023646634
000070 39 1e 58 3c 65 ba 97 3c 76 cd e3 bd 47 a9 1a bd
       0.013190799 0.018521497 -0.11123173 -0.03775909
000080 ad 3b 4c bd dd 62 52 bb fa fb 99 3c 55 c9 50 3b
       -0.0498616 -0.0032102384 0.01879691 0.0031858284
000090 b9 7a 20 3c f2 9c cd 3b 38 98 bc bb 41 1b b2 bd
       0.009794884 0.006274813 -0.0057554506 -0.086966045
0000a0 85 9b 05 3c af 0d 65 3d cd 47 4d bd 3e eb 82 3a
       0.0081547545 0.055921253 -0.050117303 0.000998832
0000b0 42 08 41 be 47 cf f0 3d 36 09 d4 bd fd 4a 81 bd
       -0.18850806 0.11758285 -0.10353319 -0.06313131
0000c0 17 a4 93 bd 65 39 18 bd d3 dc c8 3b de ac 89 bc
       -0.07209032 -0.03716411 0.00612984 -0.016806062
0000d0 bc 23 83 bd 0b 98 48 3d cd 55 34 bd 81 e7 bc bd
       -0.064033 0.048973124 -0.04402714 -0.09223843
0000e0 ad a5 63 bd 5e 8a 10 bd 16 d0 39 bd 77 62 37 3d
       -0.055577923 -0.035288207 -0.04536446 0.044771638
0000f0 89 fe 85 bd d0 d8 2c bb c3 ee 87 bc 02 58 5d bd
       -0.06542689 -0.0026374348 -0.016593343 -0.05403901
000100 60 c3 63 3d 5f 80 29 3c 1b 80 78 3b 3b c9 91 bc
       0.055606246 0.010345547 0.0037918154 -0.01779615
000110 a5 2f b8 3d 76 52 13 3d c6 97 93 bc e8 d2 a8 bb
       0.089934625 0.035967313 -0.018016707 -0.005152095
000120 d8 13 fc bc fe 64 69 bd d1 7c f5 3d 91 bc 22 bd
       -0.030771181 -0.05698108 0.119866975 -0.039730612
000130 ed 64 d6 bd cf b7 71 bc 73 d8 d7 bb 0c 1b a2 3d
       -0.10468469 -0.014753296 -0.006587082 0.07915315
000140 d3 e2 90 3c 2a b6 81 bd 5a 87 b0 bc 73 89 47 3d
       0.017686283 -0.06333573 -0.021548916 0.048715066
000150 a2 7d 2f bc 18 26 1b 3e 54 37 91 3c a0 fe 1a bb
       -0.010711106 0.1515125 0.017726578 -0.0023650303
000160 89 2f 88 bd 27 d7 28 3d a4 02 30 bc 2a 82 96 3d
       -0.066496916 0.04122081 -0.010742817 0.073490456
000170 be eb 53 3d d2 0b 06 3d ec 1a e3 bc 1f fd c9 3c
       0.051738493 0.032726116 -0.027722798 0.02465683
000180 0f e2 cb 3d 0a 76 ae bd 17 ea 07 3d bf ee 33 bd
       0.09955227 -0.08518608 0.03318223 -0.043928858
000190 8d e0 67 3c fc e7 4d bc 33 56 6d 3d ef 41 dc 3d
       0.014152658 -0.012567516 0.057943534 0.10754763
0001a0 18 5d 3e 3d c4 0a 15 3c 22 29 30 bd 37 13 9f 3d
       0.0464755 0.009096805 -0.043007977 0.07767337
0001b0 1e fa 5e 3d a7 98 f3 3c a1 ec 4b 3d ce f3 57 3c
       0.05443775 0.029735876 0.049786214 0.013180686
0001c0 6e 64 e2 bc 30 53 88 3d f0 61 cf 3c b8 0d c8 bd
       -0.02763578 0.06656492 0.025315255 -0.09768242
0001d0 6d fc 38 bc 08 eb fb bd a7 c4 b5 bd b6 93 57 bd
       -0.011290652 -0.12300688 -0.08875399 -0.052631103
0001e0 e3 f7 fb bc ee b4 29 bd 17 ca 23 3d 04 4b d2 bd
       -0.03075785 -0.041432314 0.03998765 -0.10268214
0001f0 eb 9a 05 bd 51 71 e4 3c 3d d5 32 3d 10 f2 3d 3d
       -0.032618444 0.027886065 0.04366039 0.046373427
000200 39 aa fa 3c 03 ce 47 bd c9 c8 03 3c 3c 03 2d bb
       0.030598747 -0.048780452 0.008043476 -0.0026399633
000210 c3 48 be bd 4d 26 13 3d 2e dc 31 bd e1 f6 a5 bc
       -0.09291222 0.0359252 -0.04342287 -0.020259323
000220 e3 85 99 3d 39 8d c5 3d 70 12 40 bd c5 24 53 bc
       0.0749624 0.09646077 -0.046892583 -0.0128871845
000230 fb b0 9d 3c 2a f7 8e 3d e8 b5 bd 3c 88 a0 16 bd
       0.01924943 0.069807366 0.023158029 -0.03677419
000240 30 90 f9 bc 2f 38 d6 3d 2d 12 fc 3d 1e 15 8a bd
       -0.030464262 0.10459935 0.12308154 -0.06742309
000250 1b 84 15 be 37 4c be bb 22 af 47 bd 66 9b 84 bd
       -0.14601175 -0.0058074254 -0.048751004 -0.064749524
000260 25 9a d5 bc 43 ce b9 bd eb 4e 21 bd e2 01 eb 3c
       -0.026074478 -0.090725444 -0.039381903 0.028687421
000270 a2 90 c5 3b b5 c5 f1 3c d4 25 40 3e 6f 85 36 bd
       0.0060292045 0.02951322 0.1876443 -0.044560846
000280 1c 73 85 bd 68 91 05 bd 37 ee 4e 3d e7 f1 12 bd
       -0.06516096 -0.032609373 0.050520148 -0.035875227
000290 40 21 de 3d 54 9c ed bc ae 4c dc 3d 8a c8 02 3d
       0.10846186 -0.029005207 0.10756813 0.03192953
0002a0 ab 1b 04 3e 66 8c ce 3c bf db aa 3d f1 68 b5 bd
       0.1290118 0.025213432 0.083426945 -0.088579066
0002b0 b1 2f 04 3d 12 83 40 3c 19 ef e7 bd 89 95 25 bc
       0.032272045 0.01175 -0.11324901 -0.010106453
0002c0 b1 cb db 3c e1 f6 11 bb c6 62 38 bd e6 f5 d4 bc
       0.026830526 -0.0022272395 -0.045016073 -0.02599616
0002d0 ef 9d 1b be dc ac 84 bd 23 1a 44 bd 9e 17 c7 bc
       -0.15196966 -0.06478283 -0.04787649 -0.024303254
0002e0 30 23 17 3d 80 ad 72 bc 02 95 05 bd bb 35 53 bd
       0.03689879 -0.014811873 -0.032612808 -0.051564913
0002f0 34 55 fb 3d ba 8a 7c bd 18 ae 43 3b 1f 08 8e bb
       0.122721106 -0.061655737 0.0029858407 -0.004334464
000300 25 68 6e bc 30 04 81 3d 13 21 89 3c 3a 0d a0 3c
       -0.014551197 0.06299627 0.016739404 0.019537557
000310 97 a1 2e 3c 57 27 c0 3d e1 c7 31 3c f6 8d d2 3d
       0.010658643 0.093825035 0.0108508775 0.10280983
000320 cb 27 6b bd 5a d1 98 bc be ad 23 bc cb da cd bd
       -0.057410996 -0.018654514 -0.009990154 -0.10051497
000330 c8 e1 e6 bc e6 40 82 bd 66 e9 22 3e 4c ed c6 bb
       -0.028183833 -0.06360035 0.15909347 -0.0060707685
000340 87 c0 f9 bc db 90 2a 3d 72 5c a6 bd 2f ed eb bb
       -0.030487312 0.04164205 -0.08123101 -0.0071999053
000350 9e 77 90 3c 9f f5 14 3c 18 3a e5 bc ac cf b0 bd
       0.017635163 0.009091764 -0.027981803 -0.0863336
000360 52 a4 8b bd 8a be fb 3b 9d d0 0e bd a8 5b 46 bd
       -0.06818451 0.007682626 -0.034866918 -0.048427254
000370 8e 54 87 3d 9d a7 b7 bc 27 82 d1 3c 69 72 3b bd
       0.066079244 -0.022418791 0.025574757 -0.045763407
000380 62 9e 37 bd cb fd e5 3d a1 b9 24 3d 71 d5 fa bd
       -0.04482878 0.11230048 0.040216092 -0.12247742
000390 59 d1 b9 3d bb 6b c5 bd 2c 21 2a be 97 37 62 3d
       0.09073133 -0.096396886 -0.16614217 0.055228796
0003a0 23 7b ce 3b 52 be 69 bd 5e 84 93 3c 6d 5a 80 3c
       0.0063013 -0.05706627 0.018007454 0.015668118
0003b0 ca 90 04 3d 51 3b ca bc 7c af d8 bc 2c 71 cc ba
       0.032364644 -0.024686487 -0.026450865 -0.0015597693
0003c0 56 60 93 3c 31 e6 0d bd 96 27 3e bc 22 e1 8a bd
       0.017990272 -0.034643356 -0.011606118 -0.06781222
0003d0 50 4b ed 3c d5 9a a8 3d 0d c9 7d bd a0 c0 b7 bc
       0.028966576 0.08232657 -0.061959315 -0.022430718
0003e0 f1 52 37 bc 05 62 06 bd a4 c6 aa 3c 8a 51 0d bd
       -0.011189208 -0.032808322 0.020846672 -0.03450159
0003f0 e2 59 9f bd 05 f6 e0 bc 54 3e 8c bc 9f eb 30 3d
       -0.07780816 -0.027461061 -0.017119564 0.043193456

conv_stack.6.bias f4 [128]
000000 6a f2 d3 bb b3 d3 b5 3d 74 cc 18 3d c4 82 7d bd
       -0.006468107 0.08878269 0.037304357 -0.061892286
000010 82 a2 94 bc 37 7e 9e bd 97 cb 7b bd 2f 06 b8 bc
       -0.018143896 -0.07738917 -0.061473455 -0.022463886
000020 87 c2 b8 bd 64 95 48 3d ad ce 19 bd 54 49 8f 3c
       -0.09021478 0.048970595 -0.037550617 0.01749102
000030 5d 65 27 be bf 4c 94 bc 6d e6 64 3d ce 46 17 3e
       -0.16347261 -0.018103002 0.055883814 0.14773104
000040 f5 b7 11 3e 65 fe b5 3d a9 13 b8 bd 3d 82 c9 3d
       0.1423033 0.088864125 -0.08988125 0.09839294
000050 8e 2e 96 3d fb 74 3d bd 38 f9 5d bd 4d 24 05 be
       0.07333098 -0.04625414 -0.05419275 -0.13002129
000060 40 cc 5f bd c7 d9 2c 3e 4f 2b 8c bd da 66 fc 3b
       -0.054638147 0.1687995 -0.06844198 0.0077026905
000070 e9 1b cd 3c a1 c9 b9 39 49 79 13 be b2 18 e2 bc
       0.025037723 0.00035436175 -0.14401735 -0.027599666
000080 df 94 6f bc 81 01 31 3c 26 6d b5 3d c1 db ef bd
       -0.014622896 0.010803581 0.08858709 -0.117118366
000090 ec ab 44 bd 85 8f c8 bc e1 82 0a bd f2 a6 63 bd
       -0.04801552 -0.024482498 -0.033816222 -0.055579133
0000a0 cf 87 2f bd 7b ee 8a 3d 7d e0 6c bc 08 0a 1d 3b
       -0.042854127 0.06783768 -0.014457819 0.0023962278
0000b0 68 98 ca bb 49 db a4 bc ee 60 00 3d 2c 1b ab bd
       -0.006182719 -0.020124095 0.03134244 -0.08354792
0000c0 cd 95 03 3d 42 ed cd bd ca d7 9f 3c fd 4f f3 bc
       0.032125283 -0.10055019 0.019512076 -0.029701227
0000d0 a5 52 8c bd cb 9b b3 bd 3c 5f 89 bc aa ea b8 3d
       -0.06851701 -0.087699495 -0.016769044 0.090291336
0000e0 3c cd 00 3e bf 6d 03 be 4e 6b 6a bc 8b d8 dc bc
       0.1257829 -0.12834834 -0.01430781 -0.026958724
0000f0 65 6f 8c 3d 8d 25 6b 3d 30 15 b1 3c fc 30 6f 3c
       0.06857184 0.057408858 0.021616548 0.014599081
000100 c5 0f 58 bd f8 a6 9f 3b d1 47 d8 bd c5 04 f4 bd
       -0.052749414 0.004872199 -0.10560573 -0.11914972
000110 0c f0 8f bd 02 c0 64 bd 33 41 14 3d f5 da 7d bd
       -0.07028207 -0.055847175 0.03619499 -0.06197639
000120 e3 fb 81 bd d1 42 da bd 77 b1 b4 3a 2f 3e ef 3c
       -0.06346872 -0.106572755 0.0013785799 0.029204456
000130 93 e5 b0 3d cd 25 9f 3b 74 4d c4 bc ab f7 b7 3c
       0.08637538 0.004856801 -0.023962714 0.022456964
000140 f8 da d3 3c 09 b1 8b bc 61 3a 3d bd 3e 38 8c 3d
       0.025861248 -0.01705219 -0.046198253 0.06846665
000150 c2 ff ec bd 0a 9a 13 be 16 49 b3 bd 61 38 02 3d
       -0.115722194 -0.1441423 -0.087541744 0.03179205
000160 d1 2a 21 bd a4 62 70 bd bb 94 23 bd ed 29 2e bd
       -0.039347474 -0.05868782 -0.039936762 -0.042520452
000170 99 86 79 3d 6b 70 d0 3d d3 22 21 bd a6 59 61 bc
       0.060919378 0.10177692 -0.03933985 -0.013754284
000180 07 cf 5a 3d ff 34 e3 bc 7d 91 45 3d 8c b2 8e 3d
       0.053420093 -0.027735231 0.04823445 0.06967649
000190 21 ab d0 3c 68 c4 bb bd 3b 99 29 3d 95 f1 3f bd
       0.025472226 -0.09168321 0.041405898 -0.04686125
0001a0 57 3b d9 3c dd 46 e9 3c cd 34 af bb ed 43 27 bd
       0.026517553 0.028476173 -0.0053468705 -0.040836263
0001b0 ed c2 bc bd 76 fa 91 3b 23 65 95 bc 92 6a c5 bd
       -0.09216867 0.004454906 -0.018236702 -0.09639467
0001c0 87 ce e4 3b 16 2b b7 bd 49 57 e2 3c 31 8e d0 3d
       0.006982628 -0.08943765 0.027629511 0.10183371
0001d0 d5 ef 3f be 41 ac b3 bb 69 6b c3 bd ac ba c5 bd
       -0.18743832 -0.0054831808 -0.09541971 -0.096547455
0001e0 6e 34 ea bc 5b d6 87 3d f4 4f 01 3e 21 41 2e 3d
       -0.028589454 0.06632682 0.12628156 0.04254258
0001f0 48 99 ef 3d c4 13 ba 3d 68 4b c5 bb f9 1e c4 3b
       0.11699158 0.09085801 -0.006020952 0.0059851375

conv_stack.8.weight f4 [128]
000000 06 0b 71 3f 5e d3 7b 3f e1 b5 75 3f e5 63 7c 3f
       0.94157445 0.98369396 0.9598065 0.98589927
000010 41 00 78 3f 59 c6 4e 3f 86 55 76 3f 7b 7e 80 3f
       0.9687539 0.80771405 0.9622425 1.0038599
000020 ba 66 74 3f 52 e6 72 3f af b9 7d 3f 5a c3 7b 3f
       0.9546925 0.9488269 0.99111456 0.9834496
000030 18 7d 6c 3f 01 00 7e 3f 48 8f 7b 3f e4 46 71 3f
       0.9237838 0.99218756 0.98265505 0.94248796
000040 c7 ba 78 3f 2e 29 74 3f 81 f2 7b 3f c7 90 71 3f
       0.9716 0.95375335 0.98416907 0.9436154
000050 df 2b 66 3f 38 0d 59 3f d7 90 66 3f 73 ed 68 3f
       0.8991069 0.84785795 0.9006476 0.9098732
000060 c2 42 4e 3f a3 36 5b 3f b3 39 73 3f b1 93 57 3f
       0.80570614 0.85630244 0.9500992 0.84209734
000070 02 f3 79 3f 14 2d 6a 3f f3 b9 67 3f 78 11 78 3f
       0.97636425 0.91475034 0.9051811 0.96901655
000080 31 3f 75 3f 17 83 70 3f 07 37 7d 3f 1b 6b 67 3f
       0.9579955 0.9395003 0.9891209 0.90397805
000090 da 73 78 3f da f6 71 3f fa 60 7f 3f 8c ff 7a 3f
       0.97051775 0.9451729 0.9975735 0.98046184
0000a0 ec 98 79 3f 62 4e 5a 3f 8f 04 79 3f 4a ee 7f 3f
       0.97498965 0.8527585 0.9727258 0.99972975
0000b0 61 ec 75 3f 02 e9 7a 3f fb fe 72 3f e6 bc 6f 3f
       0.9606381 0.9801179 0.9492032 0.9364761
0000c0 61 ba 6d 3f 43 5d 7c 3f 11 d1 78 3f 09 12 80 3f
       0.92862517 0.98579806 0.9719401 1.0005504
0000d0 57 c9 6f 3f 6a bd 7a 3f cc 6c 7d 3f f2 7c 7b 3f
       0.93666595 0.9794527 0.98994136 0.98237526
0000e0 39 4e 78 3f 0a 20 57 3f 5b 97 6f 3f 48 9f 6f 3f
       0.9699436 0.8403326 0.93590325 0.9360242
0000f0 ba 53 5e 3f 4d 8f 7d 3f c3 03 6e 3f b5 0b 70 3f
       0.86846507 0.99046785 0.9297449 0.93767864
000100 65 f4 77 3f bf 64 56 3f 0c d6 77 3f 8f ee 6f 3f
       0.9685729 0.83747476 0.96810985 0.93723387
000110 1a e1 7d 3f 16 a6 62 3f e5 bb 77 3f 2f da 78 3f
       0.991716 0.8853468 0.9677108 0.9720792
000120 93 97 80 3f c5 3c 6d 3f 27 ee 78 3f 10 c4 7e 3f
       1.0046257 0.9267085 0.9723839 0.9951792
000130 cd ed 72 3f 6b ba 6b 3f d1 e9 7e 3f 61 8d 80 3f
       0.94894105 0.92081326 0.99575526 1.0043145
000140 c2 e5 78 3f 82 e5 71 3f dd f3 79 3f b7 4d 58 3f
       0.9722558 0.94490826 0.9763773 0.84493583
000150 15 1f 7e 3f c8 b8 74 3f 43 c5 77 3f ba 0b 7f 3f
       0.9926618 0.95594454 0.9678537 0.9962727
000160 1a 86 69 3f 33 2c 6b 3f 54 5d 7b 3f 16 22 7c 3f
       0.9122025 0.9186432 0.9818928 0.9848951
000170 71 96 80 3f 41 c0 7b 3f 72 71 7f 3f 27 6d 75 3f
       1.0045911 0.9834023 0.9978248 0.9586968
000180 38 fd 69 3f 69 2f 76 3f 07 4e 6c 3f 4a c6 75 3f
       0.91402006 0.9616609 0.9230656 0.9600569
000190 e6 2b 69 3f 0b 23 81 3f 52 0c 76 3f e4 0a 70 3f
       0.9108261 1.0088819 0.9611255 0.9376662
0001a0 7f 88 79 3f 8c 8d 71 3f b8 b8 73 3f 63 ed 81 3f
       0.974739 0.9435661 0.95203733 1.015057
0001b0 ee f8 7b 3f fc 81 5e 3f b1 0c 67 3f 81 c1 62 3f
       0.9842671 0.8691709 0.9025374 0.88576514
0001c0 3a 4e 76 3f e3 de 68 3f 3d 02 51 3f 5e a0 74 3f
       0.96213114 0.909651 0.8164404 0.955572
0001d0 b3 76 76 3f af 79 4d 3f 10 70 73 3f db 67 73 3f
       0.9627487 0.802638 0.9509287 0.95080346
0001e0 c2 83 80 3f 3d 48 76 3f 43 8f 7a 3f cd f1 76 3f
       1.0040209 0.96203977 0.9787485 0.9646271
0001f0 4d 74 7a 3f 4a ad 7a 3f aa 10 7d 3f b8 3d 7f 3f
       0.9783371 0.9792067 0.9885355 0.9970355

conv_stack.8.bias f4 [128]
000000 53 5c f1 bc f0 4c 6b bb db 32 28 bd af b4 1e 3c
       -0.029462969 -0.0035904013 -0.041064125 0.009686633
000010 4d f0 b1 bc af 2c 90 bd fb 12 d6 bb f2 11 9e bb
       -0.02172103 -0.07039773 -0.0065330244 -0.0048239166
000020 86 8b a2 bc b5 3a 09 bd a6 f4 f0 3a 63 ec 5c bc
       -0.01984192 -0.033503253 0.0018383458 -0.013484093
000030 fa 71 66 bd 03 31 3d bc 22 99 64 bb 65 b5 a7 bc
       -0.05626104 -0.01154733 -0.0034881313 -0.020472238
000040 d0 75 c8 3c f2 4f 58 3d 81 a7 14 bd cc bd a8 bc
       0.02447024 0.052810617 -0.036292557 -0.020598315
000050 98 2f 14 3c 03 1b 4f bd cc cb 59 bc 6d 69 a8 bc
       0.00904455 -0.05056287 -0.013293218 -0.020558083
000060 3c a2 a4 bd 16 06 9a bd 8a 8b 5d bc 5e 33 a4 bd
       -0.08038756 -0.07520692 -0.013522038 -0.0801761
000070 e5 28 a4 bc 53 91 bd bd a0 e9 e1 bb e6 5a 39 bd
       -0.020039031 -0.09256234 -0.0068943053 -0.045252703
000080 2f e4 ab bc de 5c 2f bc f0 98 03 bb cc c7 dd bc
       -0.02098283 -0.010703294 -0.0020080172 -0.02707281
000090 21 a0 fc bc 04 ea c0 3c 65 a1 46 3b 97 2b 08 bd
       -0.030838074 0.023549087 0.00303086 -0.033244696
0000a0 56 53 9a bc cc 40 36 3c 0f 3d 24 bd f5 e0 98 bb
       -0.018838566 0.011123847 -0.040097293 -0.004665489
0000b0 c4 2e 7b bb f1 41 e9 bc 74 c0 e1 bc 9c 0d d3 bc
       -0.0038327435 -0.028473826 -0.02755759 -0.025763325
0000c0 b7 c8 96 bd 87 ef 8c bc b5 64 0a bc 3c 43 00 bc
       -0.07362502 -0.01720406 -0.008446862 -0.00782853
0000d0 85 a3 39 bd b8 61 00 bb ca 7c ec bb 33 bd 25 3c
       -0.04532196 -0.0019589495 -0.0072170245 0.010115909
0000e0 cb 86 46 bc ad 85 11 bd ad a3 61 bc 54 2b b8 3c
       -0.012117098 -0.035527874 -0.0137719335 0.022481598
0000f0 4b 88 3f bb 20 35 81 bc 83 d0 2c bc 67 76 ca bc
       -0.0029225524 -0.015772402 -0.01054776 -0.024714662
000100 e9 f9 09 bd 16 b9 f3 bd 26 3c 45 ba 6d 20 57 bd
       -0.0336856 -0.11900537 -0.00075239164 -0.052521158
000110 2e 6b 31 bb 87 3d 07 bd e8 17 a6 bc 8b 04 a1 bc
       -0.002707194 -0.03301766 -0.020275071 -0.019655487
000120 44 00 80 b9 e6 ef a8 bc bd 9e fa 3b e2 32 80 bb
       -0.0002441426 -0.020622205 0.0076483176 -0.0039123157
000130 ce bd 8b 3c 70 c3 3d bc 75 aa 81 3b 3f 85 ba bb
       0.01705828 -0.01158224 0.0039570876 -0.0056921537
000140 af 13 2a bb 39 e3 01 bd 6b ab 66 3c 00 33 75 bd
       -0.0025951674 -0.031710837 0.014078955 -0.05986309
000150 7d b1 26 bc 81 d6 81 bd 50 60 dc 3c 7a b3 1e bc
       -0.010174152 -0.063397415 0.026901394 -0.009686345
000160 28 5b 49 bd 55 33 16 bd bb 19 8f bc 05 eb 7d 3c
       -0.0491592 -0.036670048 -0.017468324 0.015497928
000170 37 9a 22 3c d3 a8 68 bc 3b c4 e7 bc 37 e5 87 bc
       0.009924463 -0.014200407 -0.028291812 -0.01658879
000180 1f c1 c7 bc e8 cf da bb d2 73 55 bd d7 0b aa bc
       -0.02438408 -0.0066776164 -0.052112408 -0.020757599
000190 d0 f4 6d bd b5 2a a4 bc 10 7d f8 bc 9a 71 83 bd
       -0.0580948 -0.020039896 -0.030333072 -0.06418152
0001a0 0a 64 88 3b 22 3c 5d bd 3d 66 36 bd 6b e6 5e 3c
       0.004162316 -0.054012425 -0.044531096 0.013604741
0001b0 e3 a3 bd 3c 1e 9f 9b bd 81 d1 23 bd 50 06 42 bd
       0.023149436 -0.075987086 -0.03999472 -0.0473693
0001c0 d2 18 b0 bb c8 0e f6 bb 72 34 92 bd 6c 23 fa bc
       -0.0053740526 -0.0075090863 -0.071389094 -0.030534469
0001d0 f6 10 83 bd de af 07 be d6 42 18 bc 6a 64 52 bd
       -0.063997194 -0.13250682 -0.009293279 -0.051365294
0001e0 80 e4 50 36 4c c6 b1 bc d3 88 ba bc e0 52 20 bd
       3.112742e-06 -0.021701 -0.022770321 -0.039141536
0001f0 37 1d eb bc fc 70 4d bb 48 36 43 bc cc 73 6e 3b
       -0.028700454 -0.0031347862 -0.011914797 0.0036384938

conv_stack.8.running_mean f4 [128]
000000 fa 68 0d 3f c3 3d bd 3e b3 ba 14 3f b7 9d 38 3f
       0.55238307 0.36961183 0.5809738 0.72115654
000010 26 94 5d 3f fc d1 38 3e da c5 c0 3e db 7a 4c 3f
       0.8655418 0.18048853 0.3765095 0.7987496
000020 7f 79 f2 3e ef f7 06 3f ae 57 48 3f 9b a7 1d 3f
       0.4735832 0.52722067 0.7825879 0.6158387
000030 65 ee 3e 3e c3 8e e8 3e d8 98 2c 3f a6 8e 02 3f
       0.18645628 0.4542142 0.6742072 0.50998914
000040 4c 8b 0a 3f 8e d2 f1 3e 1d 4d 05 3f cd 4a 41 3f
       0.541188 0.47230953 0.5207079 0.7550476
000050 82 ba eb 3e 30 03 f4 3e d2 4a 95 3e c5 d9 b1 3e
       0.46040732 0.47658682 0.29158646 0.34736457
000060 6d 3c 80 3e 42 8b df 3e b0 dc a5 3e 8f 76 e2 3e
       0.250461 0.43660933 0.32394934 0.44231078
000070 41 54 34 3f 4d a5 11 3f 49 52 71 3e ed db dc 3e
       0.7044106 0.56892854 0.23566546 0.4313654
000080 a2 c5 d7 3e 03 ed df 3e f9 39 6c 3f 96 14 77 3e
       0.4214297 0.43735513 0.9227596 0.24128947
000090 82 d7 e1 3e f1 b3 87 3e 91 1a 38 3f c4 27 f1 3e
       0.44109732 0.26504472 0.7191554 0.4710065
0000a0 3c ca 19 3f 91 c8 3e 3f 5c 13 f1 3e 3b 1b 08 3f
       0.6007421 0.7452479 0.47085083 0.5316655
0000b0 1c 8f e1 3e 4b 73 d6 3e 56 1f 63 3f 5f 2b ba 3e
       0.44054496 0.41884837 0.8871969 0.36361215
0000c0 cb 24 29 3f e7 6d 9a 3e c3 4d 44 3f 0f af fd 3e
       0.66071767 0.30161974 0.76681155 0.49547622
0000d0 fb b4 1b 3f 55 ea f0 3e 90 fd 08 3f ce cf 0b 3f
       0.6082303 0.4705378 0.53511906 0.5461396
0000e0 59 2e 21 3f 98 d4 48 3e 98 d1 93 3e 61 30 36 3e
       0.62961346 0.19612348 0.28870845 0.17791893
0000f0 e1 44 76 3e cd 98 2a 3f 4f 07 1c 3f a3 7e 31 3f
       0.24049713 0.66639405 0.6094865 0.6933386
000100 a4 d9 02 3f f0 54 98 3e 61 4f a0 3e b2 9a bb 3e
       0.51113343 0.29752302 0.3131056 0.3664146
000110 ab c7 f2 3e b8 cf 16 3e ce 33 47 3f 48 24 da 3e
       0.4741796 0.14727676 0.7781342 0.42605805
000120 65 59 03 3f ae 41 93 3e 11 32 09 3f 14 1e 2b 3f
       0.5130828 0.28761047 0.5359202 0.6684277
000130 fb d9 04 3f 1d ce c9 3e df 02 15 3f b7 c5 ef 3e
       0.5189511 0.39415064 0.58207506 0.46830532
000140 79 12 16 3f 8f 9a c1 3e 40 1e cf 3e 79 41 11 3f
       0.5862194 0.3781323 0.40452766 0.5674053
000150 1e eb a4 3e 93 23 a3 3e db a0 5d 3e f2 e6 1c 3f
       0.3221063 0.31863078 0.21643393 0.61289895
000160 37 ce ef 3e 0e 8e fc 3e 43 e4 be 3e 41 e4 91 3e
       0.46837017 0.4932713 0.37283525 0.28494456
000170 08 63 d1 3e 02 bc 23 3f 76 d8 0d 3f c8 29 e8 3e
       0.40895867 0.6395875 0.5540842 0.45344377
000180 a8 c4 2f 3f fa 9b e7 3e e4 eb 05 3f 72 f5 66 3f
       0.6865945 0.45236188 0.52313066 0.9021827
000190 07 b7 8b 3e b5 2d fb 3e 88 42 1a 3f 7a d9 00 3f
       0.27288076 0.4905831 0.6025777 0.5033184
0001a0 36 67 00 3f f9 d1 d1 3e 16 45 a0 3e 99 5a ae 3e
       0.5015749 0.4098051 0.31302708 0.34053496
0001b0 68 3d a6 3e 43 d8 cd 3e 4c 21 2e 3f f1 9b f0 3e
       0.32468724 0.40204057 0.68019557 0.46993974
0001c0 c5 5b f0 3e 17 f3 97 3e 24 07 e5 3e 21 7b 02 3f
       0.46945015 0.2967765 0.4473201 0.5096913
0001d0 17 2a 1e 3e 96 7c b6 3e 94 f9 ea 3e 0a 77 d6 3e
       0.15445744 0.35641927 0.45893538 0.41887695
0001e0 87 2c 53 3f 8a bb 12 3f 25 21 07 3f 51 94 1e 3f
       0.8248982 0.5731741 0.5278495 0.6194506
0001f0 3a 8e 17 3f 4f ca 41 3f 67 c0 d3 3e 2f fc 04 3f
       0.59201396 0.75699323 0.4135773 0.519473
