timeseries/models/cnn.pth (torch, 188951 bytes, 21 tensors)

conv_stack.0.weight f4 [32, 100, 3]
00000000: e75c 45bd 3f17 033c e230 15bd cbf0 40bc
00000010: 321d fcbc 7eae d33c 5d17 373d d0d2 4b3c
00000020: 57ec 123d 2304 ddbc 4d7c 25bd 21b1 9a3c
00000030: 9978 1c3c 249d f5bc 0e19 f9bc d7b5 b1bb
00000040: 8230 bf3c c921 233d 6a90 033d 6d79 583c
00000050: 22de dfbc 03c5 543c 3218 c03c 265f 6e3c
00000060: caac 97bc 9744 4f3d 7955 973c fb47 a4bb
00000070: 9dac 29bd 2062 2d3d 322c b63c 7ba8 403d
00000080: 70f7 943c 5737 82bb c3df 263d 820c 523d
00000090: cf3b a93c 8499 4a3c 3fdc 2cbd b499 923c
000000a0: 30e3 e93a 4bf2 143b 92f9 26bd 7e71 0f3d
000000b0: 78aa 173d e47d c23c b0c8 3fbc 3d66 3fbd
000000c0: 6d23 59bd 4d27 253d 70b0 dcba 3a8c eebc
000000d0: 8e85 05bc 0b5e 183c c60f 0cbc f975 d039
000000e0: 8050 1fbd 2fd4 1f3d ae05 07bd 0793 4f3d
000000f0: 95c7 2bbd 0bbc 45bd 8bd8 7cbd a079 44bd
00000100: 218f 11bc 5abf 4b3d a191 053d ab0f 6dbd
00000110: 20c2 64bc 7c45 7f3d 1c7a 41bb 792f 033d
00000120: 67fc 43bd e9d1 063d 50ae fcbc a5b0 553d
00000130: 0378 4fbd c40a 24bd 082a 3f3d 1b03 d03c
00000140: aa8a e73c 7ab5 22bd 794f 373d 665b 92bc
00000150: 7b2c 283c 96d9 8cbc 295d 2a3d 4b1d 84bd
00000160: 0515 f7bc 9d98 f83c 78c4 7bbd 51d6 473c
00000170: c9a9 ebbc 8c91 113d 7df7 7b3d 9f38 d6b9
00000180: f0b4 cdbc 91fb d3bc 0b4a 56bd 67f9 6ebc
00000190: efd8 693d c39e 03bc 5a04 133c a121 68bd
000001a0: 0cc0 d43c 566d 3dbc 49c5 93ba c887 4f3d
000001b0: 4cad 81bd da4b 793c 5090 2b3d 8f1c 5fbd
000001c0: e108 f9bc c8a5 bb3a 254a 2f3d f314 67bc
000001d0: 917d 493c 058c 6abd 9112 25bd 8355 3cbd
000001e0: de6b 05bd 5a3e 2f3d 1d36 13bd db69 f43b
000001f0: 7275 28bd 9528 983c efb8 2ebd ad3c 543d
00000200: bb7a 35bd ca14 a8bc c6dc 193d 02ab 54bd
00000210: 873c 00bc 175c 083c 8f14 d23b b3f9 ddbb
00000220: de2c ca3b 643b c83c 143b 15bd bc91 05bd
00000230: 34d6 b0bb d293 733c 4fd7 1b3b 7731 df3c
00000240: 7762 62bc e7bf 2f3d a930 12bd eeef 2a3d
00000250: 8283 62ba 6e3e c7bc 9904 c73c 7c9b 16bc
00000260: 2c39 0dbc 6ceb 56bd ec81 b4bc 0ee9 213d
00000270: 5207 393d d9d6 803c 68ca a4bc c9c4 e13b
00000280: 21c7 f6bb 1a71 2fbd 8b5a d53c 0b25 9e3c
00000290: fd23 70bc bd2d c1bc 9fdf c93c d68b 483c
000002a0: d4c0 acbb c35d 323d ea38 263d 4a30 803b
000002b0: 6334 2d3d 41d1 0c3d 5128 3cbd c695 25bd
000002c0: 9448 9a3c 9ece eb3c 92e1 79bc 958a 213b
000002d0: 90fc 55bd 364c 5bbd d7b0 133c ea67 48bd
000002e0: 4c19 a0bb 831a 60bd ca74 2e3d 3565 223d
000002f0: 16b3 aebc 8032 003c eaa2 3f3d 0f82 c83c
00000300: b1f2 cf3c 238f 89bc 732d 663c 0fd1 8c3c
00000310: 19ca 073c 52ae e83c c036 653c 3330 27bd
00000320: 663c 5dbb 19c4 03bd 77ca c6bc e267 213c
00000330: 5d70 763d 92a2 833c b00a 21bd 33d5 53bd
00000340: 8e00 093d 33db 03bd 2db3 a23c c49c 093c
00000350: f270 97bb d81d 993c dbd7 17bd 7c45 283d
00000360: e69e cc3c 4ba5 19bd 4d65 e9bc f14a 4dbd
00000370: c5e1 a13c f757 3fbc 89ce 70bd 34b3 d0ba
00000380: 804a 01bd e39c 77bb 5812 2f3d b900 febc
00000390: 718e cabc b3db 2c3d 77b8 58bd ab61 ec3b
000003a0: 5664 de3c dd02 0d3d ffb9 65bd 85c6 f6bc
000003b0: 9ae2 ecba 0143 d23b 6692 a23c 31d1 1fbd
000003c0: 3f80 1c3b 6595 f2bc 7946 473b a71b 0d3d
000003d0: fb66 6a3d af09 30bd 256f 8b3c 38da 0fbd
000003e0: e732 42bd b5cd d5bc 5754 023d 505a 243d
000003f0: a1f6 82bd 98fb f93b e62e 4fba 1e0e 31bd
-0.0481843 0.008001148 -0.03642357 -0.0117761595 -0.03077564 0.02584004 0.044700015 0.012440398
0.035869922 -0.026979512 -0.040401746 0.01888329 0.009550237 -0.029982157 -0.030407455 -0.0054232883
0.02333856 0.039827142 0.032120146 0.013212544 -0.0273276 0.012986424 0.023449037 0.014549052
-0.01851501 0.05060252 0.018473374 -0.0050134636 -0.041424382 0.042329907 0.02223787 0.047035675
0.018184394 -0.003973882 0.04074074 0.05128146 0.020658402 0.012365703 -0.04220223 0.017895557
0.0017844196 0.0022727426 -0.040765353 0.035020344 0.037027806 0.02374167 -0.0117055625 -0.04672836
-0.0530123 0.040320683 -0.001683725 -0.0291196 -0.008149518 0.009299765 -0.008548683 0.00039760748
-0.03889513 0.039020713 -0.0329644 0.050677326 -0.041938383 -0.048275035 -0.06172995 -0.047967553
-0.008884222 0.049743034 0.032609586 -0.05787627 -0.013962299 0.062322125 -0.0029522246 0.032027695
-0.04784813 0.03291503 -0.030844837 0.052170414 -0.05065156 -0.04004933 0.046670943 0.025392106
0.028264362 -0.03972385 0.044753525 -0.017865848 0.010264511 -0.017193597 0.04159275 -0.064509
-0.03016139 0.03034621 -0.061466664 0.012197093 -0.028767483 0.035539195 0.06151532 -0.00040859447
-0.025110692 -0.025876792 -0.052316707 -0.014585829 0.05709165 -0.008033457 0.008973205 -0.056672696
0.025970481 -0.011561712 -0.0011274006 0.0506666 -0.06331882 0.015215838 0.041885674 -0.054470595
-0.030399742 0.0014316374 0.04279532 -0.014104116 0.012298004 -0.05726244 -0.04030091 -0.045979988
-0.032573573 0.042784072 -0.03594028 0.007458908 -0.04112763 0.018574039 -0.042656835 0.051815677
-0.044306498 -0.020517725 0.03756406 -0.0519209 -0.007826931 0.008322737 0.006411142 -0.006774151
0.0061698994 0.024442382 -0.036433294 -0.032609686 -0.0053966288 0.014866786 0.0023779457 0.027245266
-0.013817421 0.04290762 -0.035690937 0.04173272 -0.0008640812 -0.024321761 0.024294185 -0.009192344
-0.008619588 -0.05247061 -0.022034608 0.0395289 0.045172997 0.015727447 -0.020116046 0.0068899137
-0.0075310622 -0.04283247 0.02604415 0.019304773 -0.014657018 -0.02358138 0.024642764 0.012240371
-0.0052720103 0.04354645 0.04058162 0.0039120065 0.042286288 0.034379248 -0.045936886 -0.04042604
0.018833436 0.028785046 -0.015251534 0.0024649252 -0.052242815 -0.053539477 0.00901433 -0.048927225
-0.004885828 -0.054712784 0.042591847 0.0396473 -0.02132563 0.00782454 0.046786226 0.02447608
0.025384279 -0.016791886 0.014048922 0.01718953 0.00828793 0.028403435 0.013990104 -0.04081745
-0.0033757924 -0.032169435 -0.024266465 0.009851428 0.06016575 0.01606873 -0.039316833 -0.051716994
0.033447795 -0.032191467 0.019860828 0.008399192 -0.0046216184 0.018690988 -0.03707109 0.04108189
0.024978112 -0.03751115 -0.028490687 -0.050120298 0.019760976 -0.011678687 -0.058790717 -0.0015922547
-0.03156519 -0.003778272 0.042742103 -0.031006204 -0.024726124 0.04220171 -0.052910294 0.0072137914
0.027147453 0.03442656 -0.056085583 -0.030123958 -0.0018072904 0.006416679 0.019845199 -0.03901786
0.0023880152 -0.029612252 0.0030406995 0.0344502 0.057227116 -0.042977985 0.017020771 -0.03512022
-0.047411826 -0.026099065 0.031818714 0.04012519 -0.06394697 0.0076288693 -0.0007903412 -0.043226354

conv_stack.0.bias f4 [32]
00000000: f6e8 193d 6a2f 093d f431 9ebc 5ec2 dabb
00000010: d557 753d 58e6 13bd c571 f53c 042c a63b
00000020: 0805 853d aba4 bcbc 7a0f d33c d1d8 393d
00000030: e422 213d 78b4 ceba 97e8 c6bc 5d0d 8abc
00000040: b75c a7bd 67e9 593d fc9d 733d c647 6a3c
00000050: 7f0f 2d3d dccd 223d c86b 33bc 0257 99bc
00000060: cad7 a93c 05fc 0a3d 6746 d13c 13cc b8bc
00000070: e13b 5fbd b73f 89bc 80bb 6fbc 8078 f8bb
0.037575684 0.033492483 -0.019310929 -0.0066760024 0.059898216 -0.036108345 0.029961476 0.005071165
0.064951 -0.023027739 0.025764216 0.045372788 0.039339915 -0.0015770337 -0.02428083 -0.016852075
-0.08171981 0.053201105 0.059476838 0.014299339 0.042251106 0.039747104 -0.01095099 -0.018718246
0.020732779 0.03393175 0.025546266 -0.022558248 -0.054500464 -0.016754014 -0.014632106 -0.007582724

conv_stack.2.weight f4 [32]
00000000: 530f 803f 0149 803f ca26 7f3f 593d 7f3f
00000010: c341 7b3f 7d5c 803f ec2b 803f bb9b 7f3f
00000020: a84d 803f b492 7d3f b7b7 7f3f 8987 813f
00000030: ce36 803f 8590 803f e21d 803f fc79 7d3f
00000040: a278 7c3f 98d9 803f b7fa 803f ada2 803f
00000050: 9b9c 7e3f 861f 7f3f 8a05 803f 6376 803f
00000060: 66ce 7b3f 4a97 803f 1aa7 803f 861b 813f
00000070: 3b17 803f b88c 803f 55ac 7f3f 37e3 7f3f
1.0004677 1.0022279 0.9966856 0.99702984 0.9814722 1.0028225 1.0013404 0.99847
1.0023699 0.99051976 0.998897 1.0119487 1.0016725 1.0044104 1.000912 0.9901426
0.9862157 1.0066404 1.0076512 1.0049645 0.9945771 0.99657476 1.000169 1.0036129
0.98361814 1.004617 1.0050995 1.0086524 1.0007089 1.0042944 0.9987233 0.9995608

conv_stack.2.bias f4 [32]
00000000: 98d3 ebba b342 973b e498 013c c7ec 753b
00000010: 05ee e23c 3410 7f3c 9b14 41bc 9225 89bc
00000020: 119f cfbb d6a1 c83b 3ed1 baba 1d4f 753b
00000030: 457b c83c f823 303c ae2c 00bc 832f 3bbc
00000040: 16fe a73c e03d 6fbb a4a2 133c 2f8c 0abc
00000050: 2f51 2e3b cd35 debc b3fd a63b 9979 06bc
00000060: cfce eb3b 370b ca3a df92 18ba f6d7 02bc
00000070: 088a bbbc eb2e 863c ba59 1a3c 8482 65bc
-0.0017992137 0.0046161055 0.007909987 0.0037525163 0.027701387 0.015567828 -0.011784698 -0.016741548
-0.006336101 0.006122808 -0.0014253033 0.0037431188 0.024472842 0.010750763 -0.0078231525 -0.011424902
0.0205069 -0.0036505386 0.0090109445 -0.008456274 0.0026598682 -0.027125264 0.0050961613 -0.008207702
0.0071962844 0.0015414719 -0.00058202253 -0.007986059 -0.022892967 0.016379794 0.009420807 -0.014008168

conv_stack.2.running_mean f4 [32]
00000000: 33e7 933e f7e8 213e 5973 c03d 37ce 133e
00000010: fc02 5b3e e17d 283e e306 903e 05de d13d
00000020: d186 063e 8cd9 183e ce6d 8f3e 0369 263e
00000030: 501c 253e 727e 993e 619c 443e aaf9 303e
00000040: 9005 df3e a3a3 863e 31ff 533e 47e0 313e
00000050: 7dc1 993e 30e7 f43d 3449 533e 12b2 623e
00000060: f40e 553e b0b5 ed3d 9979 183e f70d e23d
00000070: 053e a33e 2c41 053e 16ed 873e e026 073e
0.28887329 0.15811525 0.09397001 0.14434133 0.21387857 0.16454269 0.28130254 0.10247425
0.13137366 0.14926738 0.28013462 0.16250996 0.16124082 0.29979283 0.19200279 0.1728274
0.4355893 0.2629672 0.20702817 0.17370711 0.30030432 0.11958158 0.20633394 0.22138241
0.20806485 0.1160692 0.14890136 0.1103782 0.31883255 0.13013142 0.2654807 0.13198423

conv_stack.2.running_var f4 [32]
00000000: 4d6c 8b3e 54ab db3d 0d59 1f3d c059 f73d
00000010: e613 2a3e 16b8 063e deb8 843e ba3d 363d
00000020: 20d6 273d d452 d23d 057a 863e 7166 c13d
00000030: 6bd7 a83d 4658 c43e bda5 1c3e 22f2 063e
00000040: 45cc 4e3f 13cb 9a3e 47f3 263e b2a5 123e
00000050: c0ce a53e 0d28 2f3d 5ff4 5e3e 3e3b 333e
00000060: 7c32 6e3e ddb0 353d 0301 b53d b83a 713d
00000070: d29c e73e 609e 9a3d 1c55 913e 360e af3d
0.27231064 0.107260376 0.038903285 0.12077665 0.16609153 0.1315616 0.25922292 0.04449246
0.04097569 0.102697045 0.2626497 0.09443367 0.08244213 0.38348597 0.15297599 0.13178304
0.8078044 0.30233058 0.1630374 0.1432102 0.323843 0.042762805 0.21772908 0.17503068
0.23261446 0.044358123 0.088380836 0.05889389 0.45236832 0.07549739 0.28385246 0.085476324

conv_stack.3.weight f4 [64, 32, 3]
00000000: b86f 773d 9d57 10bd 4c49 64bd 5f20 c03d
00000010: c582 5dbd 8d11 753d fdd2 14bd 1c0f 2cbb
00000020: 2b9a 1e3c 593f 2e3b c2d0 c53d 69e0 7d3d
00000030: 4c93 15bc f39d 54bd cc0f d03d c6bd 54bd
00000040: 0e56 2d3d b808 e8bc d15a 61bd 0863 c43d
00000050: 16ce d33b 50a0 8bbc 164b 27bd fe5c 90bc
00000060: 2e6f d3bb 1dca 6a3d bd7e d3bb 0ad7 5cbc
00000070: dd47 bd3c 24fa 13bc f083 7c3c d85f a13c
00000080: 8f68 66bd b3d1 c3bd 867a ae3d 9dd6 8b3c
00000090: c25c ae3d 3570 a0bd 5d35 bc3d 71a4 183c
000000a0: f9e6 c23d 9e57 37bc 384e 88bd 43f9 853c
000000b0: 4344 7fbd 4711 aebc fdd2 6a3c d5c4 313d
000000c0: 514a bbbd f2d9 c43d f884 b83d d3e9 c1bd
000000d0: 568a 013d dd57 a43c 1e4e b53d 813d b43c
000000e0: ca69 783d 9fdc 313d 70f7 803d 1702 0fbd
000000f0: 86e6 ebbc 0b60 783d 77b9 95bd 6264 91bd
00000100: ab9e bc3d 081f e9bd aed5 06bd 5789 ba3d
00000110: b6b6 15bd 4d40 25bd e2f4 9e3c 85ea 2d3d
00000120: e8d7 9a3d aaef 1b3c 9b92 a03c f7d0 723d
00000130: bdf5 993d d963 25bd db0c c2bd 095c 543d
00000140: d220 b83d e67f 92bc 017d 8ebd cca8 483d
00000150: 36cb c9bc 7332 daba 8dbe 59bd fe6d a5bc
00000160: a8a3 543c 9129 d43d 0e78 99bd e9f3 0abd
00000170: 12cb 893d 5d1d b4bc 79dd d1bd 77f5 bc3c
00000180: e9c7 a2bd f0e2 b83d 54ef 263a b28c e1bc
00000190: df90 b2bd 7b69 693d 5066 9bbd ab6a 32bd
000001a0: 9785 9cbd 831e 77bc 33db 2b3d ae09 c4bb
000001b0: 830e 1abd 832a 44bd ed59 9d3d b72f 88bd
000001c0: 4cda f6bb 645e 21bd 7043 9b3d 9552 febc
000001d0: 32b2 6b3c 91da b93d 348c 103d cb36 0c3d
000001e0: a9ec a93d 8d84 48bd edc4 273d 181c ff3b
000001f0: 5c76 d03c 2c42 833d 73c8 babd 6fcb 78bc
00000200: cac1 8b3d b79b 5a3d 5ebe 67bd aa25 ff3d
00000210: a9c6 f0bc 003c 77bb 0d6a 6a3d 5c17 c93d
00000220: 0e82 49bd 3702 ca3c 90af 483d 24cf 81bd
00000230: 11f7 a7bd d45b 883d ea28 cd3c f3db d2bb
00000240: 5bcf 5b3d 9f40 85bd 27bd 67bd 4f8d febc
00000250: e311 5cbd 60d5 b13d 9c0f 0abd 9bd7 373d
00000260: 64b0 11bd bffe 86bd 51dc b23d 97c0 e5bc
00000270: aaa1 15bd 0630 f7bc ccc5 7b3d dd57 583d
00000280: 86c9 27bd 69a1 1c3d 3364 3fbd 1924 ce3c
00000290: 9565 88bc ba70 163c 9aa6 a93d fa2d e5ba
000002a0: de94 c4bd 3825 33bd f178 b6bd ecee 8dbc
000002b0: 2f4b 95bd d06a 81bd 5808 033b 089d 863d
000002c0: 5b4e 8b3d 9e9f e7bc 7be6 c73b 58d2 9fbd
000002d0: f510 3dbd 7c72 9e3d 3d54 923c 0823 88bd
000002e0: 0358 9fbd 275e 3abb 7e96 3d3d 9f62 643d
000002f0: feb3 c93c 65e4 903d 569c 583d f6f1 3cbd
00000300: bf6d 8c3d f4dd 47bd cca9 c1bd 7ffa c5bc
00000310: c2b7 52bd 46e1 cf3d 6826 edbc e59a 9dbd
00000320: f85f 9dbd ccbe b8bc e30d 2f3d 0e3f c83d
00000330: 11b0 573d cb79 56bb 1f5c 76bd e708 d2bd
00000340: 384b 803d 1cd3 cc3c a4aa 67bd 7aea ad3d
00000350: 7bdf 353d f1e5 86bd 9fdf 91bb fc6b c7bd
00000360: 1a86 8f3d aa60 763d bfdd c83d 9470 963c
00000370: 6326 173d 6146 65bd 0c87 74bd ed72 37bc
00000380: adab c83d bb7e 8b3b 0f97 65bc 86d5 58bd
00000390: f0a8 873c 1d0f 833d 8be8 2cbd b99c a0bc
000003a0: afad 68bc a04f 2a3d a808 0c3d 2cb9 0d3d
000003b0: e56d ed3c 5edc a5bd 72a0 6cbc 2bba a13d
000003c0: fd98 83bc 3d3c 50bd 2950 90bd 3e8c 69bb
000003d0: 086e a23c 7ed9 bcbd 1980 c73d ce7c ccbc
000003e0: bea8 cfbd c0bd 24bd 50af 83bd 72cc 293d
000003f0: 3713 373d 4460 88bd 4455 34bd dc19 b8bd
0.060409278 -0.035239805 -0.055733964 0.09381174 -0.05407979 0.05983119 -0.036334027 -0.0026254123
0.009680311 0.002658805 0.09658958 0.061981592 -0.009129357 -0.051908445 0.10159263 -0.051938795
0.042318396 -0.02832447 -0.05501825 0.09589201 0.0064637763 -0.017044216 -0.040843092 -0.017622467
-0.0064524626 0.057321656 -0.0064543174 -0.013479004 0.023105556 -0.009031806 0.015412316 0.019699022
-0.05625206 -0.09561481 0.08519463 0.017070109 0.08513786 -0.07833902 0.09189866 0.00931655
0.09516711 -0.011190323 -0.06655544 0.016354209 -0.06232096 -0.021248473 0.01433253 0.043400604
-0.09145034 0.09611882 0.09009737 -0.094684266 0.031626068 0.020061428 0.0885279 0.022001984
0.060647763 0.04342329 0.06297195 -0.034914102 -0.028796446 0.06063847 -0.07310765 -0.070992246
0.09209951 -0.11382872 -0.032918625 0.09108227 -0.0365512 -0.040344525 0.019403879 0.042459983
0.07560712 0.00951759 0.019601157 0.059281316 0.07517574 -0.040378425 -0.09475108 0.051845584
0.08990635 -0.017883252 -0.06957436 0.048989102 -0.024633031 -0.0016647115 -0.05316024 -0.02019405
0.012978472 0.10359491 -0.07493602 -0.033924017 0.06728186 -0.021986658 -0.10247321 0.023066266
-0.07948286 0.0902766 0.000636806 -0.027532909 -0.08719038 0.05698536 -0.07587874 -0.043558758
-0.07642668 -0.015082958 0.04195709 -0.005982599 -0.037611496 -0.047892105 0.076831676 -0.06649726
-0.0075333472 -0.03939666 0.07581222 -0.031045238 0.014385747 0.09074891 0.035289958 0.034231942
0.082970925 -0.048954535 0.040959287 0.0077853315 0.025447063 0.06409106 -0.09120264 -0.015185221
0.06824072 0.053371157 -0.056578033 0.12458356 -0.029391604 -0.0037724972 0.057230044 0.098189086
-0.049196295 0.02465926 0.048995554 -0.06338337 -0.08201421 0.0665814 0.025043923 -0.0064349114
0.053664546 -0.06506466 -0.056576874 -0.03107324 -0.053727996 0.08683276 -0.033706293 0.04488335
-0.03556861 -0.06591558 0.08733428 -0.028045936 -0.036531128 -0.030174267 0.06146793 0.052818168
-0.040963672 0.03823987 -0.046726417 0.025163697 -0.01665 0.00918215 0.0828373 -0.0017485016
-0.09598707 -0.043736666 -0.089097865 -0.01732584 -0.07289731 -0.06319201 0.0019993987 0.0657292
0.068020545 -0.028274354 0.0061004735 -0.07803792 -0.04615875 0.0773668 0.017862434 -0.06647307
-0.07780459 -0.0028437467 0.0462861 0.055758115 0.02462196 0.07074813 0.05288347 -0.04612919
0.0685687 -0.048795655 -0.09456214 -0.024167297 -0.051444776 0.101503894 -0.028948978 -0.076955594
-0.0768432 -0.022551917 0.042737853 0.09777652 0.052658144 -0.0032726403 -0.060146447 -0.10255604
0.06264347 0.025003009 -0.05655922 0.084919885 0.04440258 -0.065868266 -0.0044517065 -0.09737393
0.07008 0.06015078 0.0980792 0.018364228 0.036901843 -0.05597532 -0.059699103 -0.011196834
0.097983696 0.004257051 -0.014013066 -0.052938007 0.016560048 0.06399367 -0.042213958 -0.019605981
-0.014201566 0.041579843 0.034187943 0.03460042 0.028983066 -0.08098672 -0.01444255 0.07896837
-0.016064161 -0.050838698 -0.07046539 -0.003563657 0.019827858 -0.09221171 0.097412296 -0.024961855
-0.10139607 -0.040220022 -0.064299226 0.04145474 0.04469606 -0.06658986 -0.044026628 -0.08989307

conv_stack.3.bias f4 [64]
00000000: a0e5 8dbd b6fa 75bd bffb b13d 7af7 7f3d
00000010: c362 1a3c ec52 a63d 733c 69bc 03dc 683c
00000020: dbbb 35bd 8ac1 c9bd 498e 823d ff52 7dbd
00000030: d5dc fb3b bb6a b53d f209 ccbd 5926 533d
00000040: b023 2fbd 8636 07bd 0e47 113b 4f86 a23d
00000050: 3f22 9fbc 31c0 5dbd b951 c6bd ad68 c33c
00000060: cd26 853d 6afd 443c 55ab 953d 8bee ddbc
00000070: ea55 da3d c9e8 3a3c 539d 873c 1bbf cd3d
00000080: 2081 9a3d c674 23bc f5a3 a1bd 7b56 e5bc
00000090: 94fc b9bb 6984 443d 20a0 e43d 5475 96bc
000000a0: 11c3 643d af79 953d beb8 d1bc 7686 d3bb
000000b0: 3db5 8d3d 5973 13bd da86 4e3d e9c6 4a3d
000000c0: d7bc debd 55e2 713d f879 82bc ad71 233d
000000d0: b2b5 28bd 6519 06bd 2086 dfbb abe1 93bd
000000e0: b2bd d73d cc10 aa3d dfb9 b2bd b346 a93d
000000f0: 091d 003d 0408 84bb a3cb 9abd 6c2a e73c
-0.06928563 -0.06005355 0.08690595 0.06249187 0.009422961 0.08121285 -0.014235604 0.014212611
-0.044368606 -0.09851368 0.06374795 -0.06184673 0.0076862373 0.08858248 -0.099628344 0.051550243
-0.042758644 -0.033010982 0.0022167596 0.079357736 -0.01942551 -0.054138366 -0.09683556 0.023853624
0.06501541 0.012023309 0.073080696 -0.027091285 0.10660918 0.011408039 0.01655451 0.10046216
0.0754416 -0.009976571 -0.078926004 -0.027995339 -0.0056758616 0.04797784 0.11163354 -0.018366493
0.055850092 0.072986 -0.025600787 -0.006455238 0.06919334 -0.035998676 0.050421573 0.0495061
-0.10875862 0.059053738 -0.0159273 0.03990333 -0.041188903 -0.03273906 -0.006821409 -0.07220777
0.105342284 0.08303985 -0.08726858 0.08265438 0.03127769 -0.004029276 -0.07558372 0.02821847

conv_stack.5.weight f4 [64]
00000000: f5e9 7f3f 3375 7f3f e1bb 7f3f 158a 7f3f
00000010: cbbb 7f3f 38d6 7c3f 872d 813f bcb3 7f3f
00000020: d353 7f3f 8928 803f 1f6b 813f 7b31 803f
00000030: 8a19 7d3f ef62 803f 6c8e 7f3f bc94 7d3f
00000040: 9735 803f b13d 7f3f e370 803f e5c7 813f
00000050: 75c0 803f 119e 803f ce6e 803f d65e 7f3f
00000060: 4dc4 7e3f 9237 803f 6195 803f 5c05 803f
00000070: cf38 7f3f 68a9 7c3f cdd6 7a3f ae81 7c3f
00000080: 46ba 803f aa29 7b3f 2200 803f eb78 813f
00000090: b2af 7f3f 603e 7d3f 4cf3 803f b899 803f
000000a0: c2a8 803f 1146 823f 0157 803f 463a 803f
000000b0: 6614 7c3f ecb2 7f3f b69d 7f3f 7560 803f
000000c0: 28e0 7f3f cfc5 813f 4235 803f 606e 7f3f
000000d0: 54ca 7d3f 5e91 7f3f f3eb 803f 1832 803f
000000e0: 88f4 7d3f bc1f 7f3f 057b 813f 0989 7e3f
000000f0: 4a77 7e3f f17b 7f3f 8306 7f3f 8d1e 803f
0.99966365 0.99788207 0.99896055 0.9982007 0.99895924 0.9876437 1.0092019 0.9988363
0.9973728 1.001237 1.0110816 1.00151 0.98867095 1.0030192 0.99826694 0.99055076
1.0016354 0.9970351 1.003445 1.0139128 1.0058733 1.0048238 1.0033815 0.99754083
0.9951828 1.0016959 1.0045587 1.0001636 0.9969606 0.98695993 0.9798401 0.98635375
1.0056846 0.9811045 1.000004 1.0115026 0.99877465 0.989233 1.0074248 1.0046911
1.0051501 1.0177633 1.0026551 1.0017784 0.98468626 0.9988239 0.9985002 1.0029436
0.9995141 1.0138491 1.0016253 0.99777794 0.99136853 0.9983119 1.0072006 1.0015287
0.9920125 0.996578 1.0115668 0.9942785 0.9940077 0.99798495 0.9961931 1.0009323

conv_stack.5.bias f4 [64]
00000000: 1d61 ae3b 6417 ad3b ae14 e53b f7e9 603c
00000010: 2bc6 74bc 1268 97bc 608b 05bc 77b2 df39
00000020: 5f66 933b 1980 f63a 6676 f2bb e5a1 11bc
00000030: 29ed ac3c c47b 0e3c 4bbf 1e39 dbfa ae3b
00000040: 1699 cfba 977b 3ebc 5274 9e3c e603 ffba
00000050: 2d90 053c e8ad 2dbc 3fc7 5a3c 7e4e 00bc
00000060: e5b3 4b38 1bc0 9d3a 1c5c 86bb 7d09 36bc
00000070: 2ebc 13bb e72d 52bc 96be 903b 21ba e4bb
00000080: c2d1 6b3b cf7d d2bb 134b 86bc 88e7 e3bb
00000090: 94a0 bbbb 146f b03c bafa 77bc 67f8 0abd
000000a0: e524 4fbb 0839 92bc b955 e5bb b0e1 393b
000000b0: eaac dd3a 3709 02bc fd05 133d 7602 4ebb
000000c0: 73f1 c0b9 75fc 4b3b ec67 8ebc e406 6cbc
000000d0: aaca 583c 2728 c5bb 465d 5dbb 24a9 22bc
000000e0: 23d5 50bb ba8b f6bb 4168 74bc 0025 00bc
000000f0: 4559 71bc 39c3 633b cd2d bd3b 15ec 973c
0.0053216354 0.0052823294 0.0069909906 0.013727657 -0.014939825 -0.018482242 -0.008150905 0.0004266684
0.0044982876 0.0018806487 -0.007399368 -0.008888696 0.02110918 0.0086965 0.00015139316 0.005339963
-0.001583847 -0.011626146 0.019342575 -0.0019456118 0.00815205 -0.0106005445 0.013353168 -0.007831214
4.856651e-05 0.0012035401 -0.0041003358 -0.011110661 -0.0022542584 -0.012828327 0.004417251 -0.006980196
0.003598318 -0.006423689 -0.01639322 -0.006955091 -0.0057259295 0.021537341 -0.015135461 -0.0339283
-0.0031607684 -0.01784946 -0.0069987443 0.002836328 0.0016912494 -0.007936767 0.035894383 -0.0031434572
-0.00036800987 0.0031125818 -0.017383538 -0.01440594 0.013231913 -0.0060167494 -0.003377752 -0.009928022
-0.003186532 -0.007523981 -0.014917434 -0.0078213215 -0.014730756 0.0034753813 0.005773282 0.01854519

conv_stack.5.running_mean f4 [64]
00000000: e37e 293e 8eae 113e 8870 3b3e 205b 503e
00000010: d972 273e dd8d 3c3e 3fb9 c33d 5c7a 093e
00000020: 8380 093e bb16 b63d f41a 343e f5cb cb3d
00000030: c31a 143e e8b1 283e 0109 b73d 83fb 513e
00000040: 5fcc 143e c198 f33d b4fb 073e 3cd2 623e
00000050: 807f a13e a774 fd3d 4733 c83d 9f9a 263e
00000060: 7bb7 873e 9901 423e 85ed 7a3e abfb ca3d
00000070: b649 ad3e 9aba f53d da17 213e 99ed 0f3e
00000080: f672 273e 544c 413e 7bf7 553e 272b 243e
00000090: 8169 7e3e f211 763e 7d6a 663e 509a b63e
000000a0: d692 0d3e 5632 843e 1ddb 283e 8915 d83d
000000b0: 01e0 653e 5f24 d53d 3e29 883e 7fff 143e
000000c0: 2db2 c93d 57f3 513e d1c9 f73d 4a46 363e
000000d0: b744 f63d aa8f ca3d c076 8b3d df9c 643d
000000e0: 92cc 163e 6e0d 613e 8d88 813d 2097 793e
000000f0: b196 1c3e 8623 013e 786c c03d d810 383e
0.1655231 0.14226744 0.18304646 0.20347261 0.16352405 0.18413492 0.09556817 0.13425583
0.1342793 0.08891054 0.17588407 0.09951011 0.14463334 0.16474116 0.08937264 0.205061
0.14531086 0.1189437 0.13279611 0.2215051 0.31542587 0.12375765 0.097754054 0.16269921
0.26507172 0.18945922 0.24504669 0.09911283 0.338453 0.11998482 0.15731755 0.1405548
0.16352448 0.18876773 0.20895188 0.16032086 0.24844934 0.24030283 0.2250156 0.35664606
0.13825545 0.25819653 0.16489835 0.105509825 0.22448732 0.10407328 0.26593965 0.14550589
0.098484375 0.20502983 0.1209904 0.1780025 0.12024825 0.09890683 0.06809759 0.055813666
0.14726475 0.2197778 0.06324873 0.24374056 0.15291859 0.12611207 0.09395689 0.17975175

conv_stack.5.running_var f4 [64]
00000000: 2a44 3b3e 4b09 023e 0bdf d13d a0dc e23d
00000010: ccf8 d83d 0e78 a93d 0d34 7f3d 2f71 a23d
00000020: 272e 5e3d 7d56 413d 6f9f df3d 7e62 4f3d
00000030: f9e2 ad3d a64c 7d3d 3204 773d 97fa 6e3e
00000040: d71a ca3d 8486 c63d b03c 9a3d 5dd8 cc3d
00000050: 3cc1 b83e fde0 733d f41d d23d 76fa 463e
00000060: 15b7 903e 9662 d13d 2373 283e f549 403d
00000070: 6cab 823e ef36 823d c7c0 2a3d 2a6b d83c
00000080: cbe5 413d 3515 1d3e 2b09 6e3e be13 c03d
00000090: 07ac 6c3e 663e 413e 3dc8 8e3d b662 cb3e
000000a0: daad 533d 6cba 353e 68e2 083e ab70 f23d
000000b0: d4b7 473e 987f 273d 80b6 413e 0e65 b53d
000000c0: a4e5 c73d 9432 073e e7fe a03d 08a6 183e
000000d0: cffd 183e 5480 843d dfd1 e03c b2e7 173d
000000e0: 4bf0 733d 4a8a 0d3e 0093 e43c 91ac 3a3e
000000f0: 2632 ad3d 26d8 8c3d 148e 763d 76c8 c53d
0.18287721 0.12698857 0.1024762 0.11077237 0.10594329 0.08274852 0.0623055 0.07931744
0.054243233 0.047201622 0.109190814 0.05063104 0.08490557 0.061840676 0.060306735 0.2333778
0.098684005 0.096936256 0.075311065 0.100022055 0.36084926 0.059540737 0.10259619 0.19431481
0.2826468 0.10223882 0.16450171 0.04694553 0.2552141 0.06358134 0.041687753 0.026418287
0.04733829 0.15340121 0.23245685 0.093787655 0.23112498 0.1887146 0.06971786 0.39723748
0.05167947 0.17746896 0.13367617 0.11837896 0.19503719 0.040893167 0.18917274 0.08857165
0.09760597 0.13202888 0.07861119 0.14907086 0.1494057 0.06469789 0.027443824 0.037086196
0.059555333 0.13822284 0.027902126 0.18229891 0.08456831 0.068771645 0.06019409 0.096573755

conv_stack.6.weight f4 [128, 64, 3]
00000000: 7fe2 35bc 2eef 08bd 09bd 163d 0129 1f3d
00000010: 1a77 83bc 6093 ef3a c498 743d a4c8 693d
00000020: 7e75 b23b d792 98bd 76e3 f7bc 351b 13bc
00000030: a1d4 08bd f198 80bd 4722 aebc a18e 263d
00000040: 5c7b 1a3c 6653 5abd ad91 8f3d 878c 223d
00000050: 8af4 713b 9093 2dbd ef9a 133d bf33 c03c
00000060: fbfa 3f3d b5d6 02bd 700b 093d 9dab 6f3d
00000070: 053a 9e3d cc04 dabc cb74 10bd 1db4 5f3d
00000080: 9bcc e0bc 1916 9ebc fb49 453d dfe2 2cbd
00000090: 70ac 4f3d 427b 04bd 65b5 3f3c 6972 8fbd
000000a0: d0c9 0fbd 5a5d 82bc e2cf 033d 10fd fcbb
000000b0: 89b1 a23c d227 4dbd b9fc 4cbd bd8a 273d
000000c0: f708 983d 1956 8c3c b718 1c3d b21d 8b3d
000000d0: c283 4abd 3146 183d 77bb f6bb f4e7 903d
000000e0: b93b 7abd cac8 9b3d e9c3 f8bc bfd0 a3bc
000000f0: c388 6cbd 0496 683d ebb5 72bd 472c 4e3b
00000100: a9fc 813b be17 823d 05ae 5e3a 9fc7 86bd
00000110: b15e 903c 3c3e 143d c429 98bc 2fea 343d
00000120: 0b05 793d aa91 63bd 2d80 1cb9 8f21 04bd
00000130: 46e8 cdbc ce4e 70bd d5d0 80bd bc19 783d
00000140: f0f0 a73c 59ef 45bd aa73 c03c 745f f9bc
00000150: 7bca 213b 4715 27bd 878a 0bbb 4765 65bc
00000160: 00d4 8e3c 4da9 e33c 6359 f33a f38d 28bd
00000170: 797f 42bd 73db 12bc b957 1fbd 7856 443d
00000180: 48b2 803d 5edb 433c f848 a63c a49e 763d
00000190: 53c0 96bc 9124 553c 8819 16bd c4d4 ef3c
000001a0: d971 fe3b 8161 e13c 34b5 03bc dbd0 14bd
000001b0: 265f 7e3d 227f 563c b3ea c0bc 8b72 763d
000001c0: 548c 903c 26bb 3cbd 1a25 cb3a da47 233d
000001d0: b66c 7bbd 3423 503d 130c 923c 8f90 8dbd
000001e0: fec0 633d a197 d1bc de7e ebbc f99b 493d
000001f0: 0761 373d 3333 20bd f048 07bb e6fc 1c3d
00000200: efc8 aa3c 1786 193d 674d 563d b726 e4bb
00000210: 6816 01bd ca99 8dbc f4eb 32bd a9f5 943b
00000220: be50 54bd 52f5 4c3c 7e7d ec3c ce48 243c
00000230: ccd1 4f3d 1107 55bd e594 053d b566 5c3d
00000240: b2ad a6bc c07b 81bd 3691 7cbd a89e ff3b
00000250: 51d1 f0bc 5d73 c33c 9a98 e43c fa67 a0bd
00000260: 5d9e e3bc 1f4e 4cbd 6757 0c3c 46af e33c
00000270: 02ad b4bc 3fdf a93c d17b 41bd d88d e3bc
00000280: 8e85 a2bc de08 6dbd 200a 3fbd 3b5c 843c
00000290: 96c0 5b3d f386 11bd 29ca 5ebd b803 f53c
000002a0: d7be 60bc 6039 ab3c 0ec0 dcb9 d37d 72bc
000002b0: 21e4 143c 7b68 183d 80b8 a03d 1bff 903d
000002c0: b240 103c 14f4 013d c4e7 22bd 1777 f4bc
000002d0: 6235 2b3d a4fb 113d efb0 6cbd 73bd 5bbd
000002e0: c1fe 4b3c 9399 0abc a3a4 dfbc 034f 773d
000002f0: e6c9 23bc d4dc f7bc b218 ddbc 58d7 fe3c
00000300: 33b6 ffbc c9fd 72bd 85c8 dcbc ebd5 46bc
00000310: a67a 0a3d 77b8 0bbd 9cf7 e3bc 1456 1e3d
00000320: 74da 42bd cbd1 81bd f1b5 6abd 152e 833d
00000330: 6bf5 cabc 0d52 a83d 2e12 17bc 326d 9abd
00000340: c45b 473d 587e 8a3b 64d9 303d 8468 28bd
00000350: 4222 113d a32d 753a b006 c43c 96e2 9c3b
00000360: 1d7f c53c bab7 28bd 079b 82bd d172 d83c
00000370: 45b4 773c e8f8 363c 8bb7 183d 2245 493d
00000380: 04eb 4ebb 18a1 3ebd ce7e 863c 6f72 85bd
00000390: e797 e73c 5f22 093d 2e6b 43bd 30dd bc3d
000003a0: 966a 693d 6b4c 9abc a403 afbc 8ef3 84bd
000003b0: bdba b2bc cf7b 3d3d 0603 b4bb fbdc 123d
000003c0: 8ffd 42bd cb64 383d 534b 92bd bbf0 8dbd
000003d0: 5036 98bc f0fe 72bc 548e 9ebc 3360 08bd
000003e0: 1e56 69bd ef0f 623d d4b7 8ebd a094 89bd
000003f0: ea31 593d d33f 3cbc 9760 34bd a586 583d
-0.011101364 -0.033431225 0.03680137 0.038857464 -0.016048003 0.0018278174 0.059716 0.05707611
0.005446135 -0.074498825 -0.030259829 -0.008978655 -0.033405904 -0.06279171 -0.02125658 0.040663365
0.009428825 -0.05330219 0.07010207 0.0396848 0.0036919438 -0.042377055 0.036036428 0.023462174
0.046870213 -0.03194304 0.033458173 0.058513273 0.0772591 -0.026613615 -0.035267632 0.05461513
-0.027441313 -0.019297646 0.048166256 -0.04220855 0.05070156 -0.03234411 0.011700963 -0.07004244
-0.035104573 -0.015913654 0.032180674 -0.007720597 0.019860046 -0.050086804 -0.050045703 0.040903796
0.07423585 0.017130898 0.038109507 0.06792773 -0.04944206 0.037176315 -0.007529672 0.070754915
-0.061092112 0.07606657 -0.030366855 -0.019996999 -0.057747614 0.05678369 -0.05925552 0.0031459497
0.003966887 0.06352185 0.0008494559 -0.065810435 0.017623277 0.036192164 -0.018574603 0.044168647
0.060795825 -0.055558838 -0.00014925069 -0.032258566 -0.02513517 -0.058668904 -0.062898315 0.060571417
0.02050063 -0.048323963 0.023492653 -0.030441023 0.0024687338 -0.040791776 -0.0021292286 -0.014001197
0.017435074 0.02779069 0.0018566068 -0.041151 -0.04748485 -0.008963454 -0.03890202 0.047934026
0.062840044 0.011954157 0.020298466 0.060209885 -0.018402254 0.013009206 -0.036645442 0.02927626
0.0077650365 0.027512314 -0.008038808 -0.036331993 0.06210246 0.013091834 -0.023549413 0.06016783
0.017645039 -0.046076916 0.0015498728 0.039863445 -0.06138297 0.050814822 0.017828023 -0.06912338
0.055603974 -0.025584998 -0.028747018 0.049221013 0.044770267 -0.039111327 -0.002064284 0.03832712
0.020847766 0.037481394 0.05231991 -0.006962623 -0.03151551 -0.017285246 -0.043682054 0.0045458865
-0.051834814 0.012509661 0.028868433 0.010027124 0.050737187 -0.052008692 0.0326127 0.053808887
-0.020346496 -0.063224316 -0.06166192 0.0078008957 -0.029396685 0.02385872 0.027904797 -0.07832332
-0.027785474 -0.04987919 0.00856576 0.027793538 -0.022055153 0.020736335 -0.04723722 -0.027777597
-0.019839074 -0.057869785 -0.046640515 0.01615726 0.05365046 -0.03552909 -0.054392014 0.029909
-0.013717375 0.020901382 -0.00042104762 -0.014800507 0.009087593 0.037209015 0.078476906 0.070799075
0.008804487 0.03172691 -0.03977181 -0.029841943 0.041798957 0.035640374 -0.057785925 -0.05364747
0.012450875 -0.0084594665 -0.027300185 0.060378086 -0.009996867 -0.030256666 -0.026989315 0.031108543
-0.031214809 -0.05932406 -0.026951084 -0.012135963 0.033808373 -0.034111466 -0.02782803 0.03865631
-0.047571614 -0.06338843 -0.05730242 0.06405274 -0.024775228 0.08218775 -0.009220643 -0.075403586
0.0486715 0.004226487 0.04317607 -0.0411153 0.03543306 0.00093528087 0.02392897 0.0047877533
0.024108464 -0.04119084 -0.06377225 0.026421936 0.015118663 0.011167742 0.037284415 0.049138196
-0.0031573186 -0.04654035 0.016417887 -0.06515967 0.028270675 0.033480044 -0.047709636 0.09221876
0.056986414 -0.018835267 -0.02136404 -0.06491767 -0.02181756 0.04626065 -0.0054935245 0.035855275
-0.047605094 0.045018 -0.07143273 -0.06930681 -0.018580586 -0.01483129 -0.019354977 -0.033294868
-0.056966893 0.055190977 -0.06968656 -0.06717801 0.053026117 -0.011489826 -0.044037428 0.052862782

conv_stack.6.bias f4 [128]
00000000: 4d71 643d 202f 9e3b 2f78 953d 77b4 753c
00000010: a779 45bd 4442 c03b a3a1 83bd 33b7 673c
00000020: a8de d0bb 7e29 433d 1078 003d 5805 1cbc
00000030: c01a f3bb e8ad 28bc cf2b 5e3c 1f00 6abb
00000040: 0065 8d3d ae56 3dbd 8923 ecba 3bfc 533d
00000050: 4749 fe3c 0a23 5c3d 581d b8bd 2f9c 1fbd
00000060: e457 843d 8c85 4c3d df97 883d bf80 21bd
00000070: 5bf6 78bd 81b2 403d e922 bb3c ad8c b9bc
00000080: 4661 41bd 4481 34bd 2de2 7c3d a1f3 73bc
00000090: 755a d93c 132a 213d 23c9 6f3d 5ea1 143d
000000a0: f75c 0bbd 77a3 ccbc 33ec 3c3c 789c a5bb
000000b0: 3769 63bd f45f 163d 35b8 adbc 4f13 cd3c
000000c0: 769d 27bd b83b 2b3d 10b9 373d 3acf 703d
000000d0: 45ab a9bb 7abf a83b 7a35 21bd 47b0 a9bb
000000e0: dce2 243d 1be6 69ba 0d65 1d3d 0a46 8ebd
000000f0: 225f d7bb 4cc2 56bd 40c3 7b3d ff58 f33c
00000100: f4e0 a93d 441d 533d d83d ae3d 2612 ce3c
00000110: fecc babc 4b48 bc3c 8286 323d dd0a 78bd
00000120: b795 643c d0e4 53bd 6a34 2e3d aa99 95bc
00000130: 13ef 8fbd 321a 8ebd eeba 2cbc 21f5 0dbc
00000140: 6631 84bc d53e 5a3d b5c5 953d bfae 923d
00000150: 0360 253d 7124 3abd 181d 1bbd 3663 b3bb
00000160: f291 0c3d 9a27 18bd 45bf c33d 7635 893d
00000170: a0b8 683d 1867 5f3b 189b 4ebc 43a3 0abd
00000180: 620d e93c c8d2 5ebc 736b 9a3d e9e0 8a3d
00000190: 24fb 083d 8a66 143d f59f 1cbd 6da1 7bbd
000001a0: da89 5fbc f1d6 88bd 18ca 19bd a156 10bd
000001b0: c51e 0ebd cd7f 9e3c 5c2a fa3c f47f 823d
000001c0: 341f b4bc 678a 8fbd b081 873a 1ecc b9bc
000001d0: bb13 8d3d aaeb 89bc 924c 073d e1b5 a9bc
000001e0: be89 21bc 5375 073c 9bbf 7dbd b8e9 81bd
000001f0: 90ce 193c 9519 7b3c bb3e 3b3d 0a62 9cbd
0.055772115 0.004827395 0.07298314 0.014996639 -0.04821172 0.0058672745 -0.06427314 0.014142799
-0.006374199 0.047646992 0.0313645 -0.009522758 -0.0074189603 -0.010295369 0.0135602495 -0.0035705639
0.0690403 -0.046225242 -0.0018015961 0.051754218 0.0310408 0.053744353 -0.08989972 -0.038967308
0.06462076 0.049932048 0.06669592 -0.039429422 -0.060781818 0.047045235 0.022843795 -0.022650087
-0.047211908 -0.04406859 0.061739136 -0.014889629 0.026532391 0.039346766 0.05854143 0.036286704
-0.034024205 -0.02498029 0.011530924 -0.005054053 -0.055520263 0.0367126 -0.021206 0.025033621
-0.04092165 0.041805 0.044854224 0.058791377 -0.0051778876 0.005149779 -0.03935764 -0.0051784846
0.040255412 -0.0008922533 0.038426448 -0.06946953 -0.00657262 -0.05243139 0.0614655 0.029705523
0.082948595 0.05154158 0.085078895 0.025155138 -0.022802826 0.02298369 0.043585308 -0.060557235
0.01395171 -0.051731884 0.042530455 -0.01826175 -0.07028022 -0.0693859 -0.010542614 -0.0086644
-0.016136836 0.053282578 0.073131 0.071622364 0.040374767 -0.04544491 -0.037869543 -0.0054744733
0.03431887 -0.037147142 0.09557966 0.0669965 0.056816697 0.0034088548 -0.012610219 -0.033847105
0.028448764 -0.013600059 0.075400256 0.067811795 0.03344263 0.0362306 -0.038238484 -0.061433244
-0.013643706 -0.06681622 -0.037546247 -0.035238866 -0.034697313 0.01934805 0.030537777 0.06372061
-0.021987535 -0.0700882 0.0010338333 -0.022680338 0.06888529 -0.016836006 0.033032008 -0.02071661
-0.0098595 0.008267718 -0.061950307 -0.063434064 0.009387627 0.015325923 0.04571412 -0.07635887

conv_stack.8.weight f4 [128]
00000000: e991 803f 980e 803f ca04 803f 8784 803f
00000010: d379 7f3f acb7 7e3f e4e1 803f c63a 803f
00000020: 7813 813f 1d54 7e3f 0008 803f a15c 803f
00000030: e62a 803f f3b7 803f feba 803f 2537 813f
00000040: 1ca7 7f3f 01f4 7f3f 39ba 803f 57b5 7e3f
00000050: 7656 7d3f 5b39 813f 642c 7c3f fe56 803f
00000060: 390c 7f3f ca7d 7c3f 37a2 7f3f beed 7e3f
00000070: 2308 813f 3232 803f f2fc 7e3f 1df3 803f
00000080: f681 803f c672 803f a0c3 803f 2c09 813f
00000090: b059 7c3f 9238 7f3f 89aa 803f 2b25 7f3f
000000a0: 556a 803f e2dd 7c3f 884e 7f3f 681b 803f
000000b0: 786f 803f e0c7 7f3f ecbc 7f3f 00cf 7c3f
000000c0: 9945 803f 3c80 803f 04df 7e3f 09a2 7f3f
000000d0: d510 7f3f 4c6d 803f 3c4c 803f 5556 803f
000000e0: ccef 813f 4196 803f 090d 813f e924 7f3f
000000f0: 72b5 803f 19f7 7f3f 2319 803f 6d4f 7f3f
00000100: 2f17 7e3f fe8a 7e3f c724 803f 47d9 7f3f
00000110: b447 803f cf41 813f c4a4 803f b16b 823f
00000120: ae91 7e3f 6748 803f cc0b 803f f1a0 803f
00000130: 74a7 7e3f fd4c 803f e339 803f 3cc7 803f
00000140: 6f46 7f3f 3d16 7d3f a905 803f 9015 7d3f
00000150: cb68 803f 8872 7f3f 6f35 803f 9a03 803f
00000160: 214e 7f3f 1765 803f 5008 813f 6370 7d3f
00000170: 78ac 7f3f 5e32 803f 0bbf 823f 1ab9 803f
00000180: 0020 803f d0d4 803f 44a8 803f c415 813f
00000190: be1a 803f aa12 813f 1aa0 7e3f 75f2 7f3f
000001a0: a157 803f 10f9 7f3f d5ab 7f3f 5916 803f
000001b0: bb0e 803f c1de 7f3f 248a 7f3f 9818 7e3f
000001c0: 4a82 813f 74a8 803f e7dd 803f b46e 823f
000001d0: b434 803f a637 813f 4367 7f3f 8cb7 7e3f
000001e0: 6955 7f3f 14f2 7f3f 1ecd 7f3f e2d3 7f3f
000001f0: de1a 803f 2189 7f3f 5102 803f 421a 823f
1.0044528 1.0004454 1.0001462 1.0040444 0.99795264 0.9949901 1.0068936 1.0017936
1.0084066 0.99347097 1.0002441 1.0028268 1.0013092 1.0056137 1.0057065 1.0094954
0.99864364 0.99981695 1.0056831 0.9949545 0.98960054 1.0095628 0.98505235 1.0026548
0.99628025 0.9862944 0.99856895 0.99581516 1.0080608 1.0015318 0.99604714 1.0074192
1.0039661 1.0035026 1.00597 1.0080924 0.9857435 0.99695694 1.0052043 0.9966609
1.003245 0.98776066 0.99729204 1.0008364 1.0034018 0.9991436 0.99897647 0.98753357
1.002124 1.0039134 0.99559045 0.9985662 0.9963506 1.0033355 1.0023265 1.0026346
1.0151305 1.0045854 1.0082103 0.99665695 1.0055373 0.99986416 1.0007671 0.9973057
0.99254125 0.99430835 1.0011224 0.99940914 1.0021882 1.0098208 1.0050282 1.0189115
0.9944104 1.0022095 1.00036 1.0049115 0.99474263 1.0023495 1.0017666 1.0060802
0.9971685 0.9886206 1.0001727 0.98861027 1.003198 0.99784136 1.0016307 1.0001099
0.9972859 1.003085 1.0080662 0.98999614 0.9987254 1.0015371 1.0214552 1.0056489
1.0009766 1.0064945 1.005135 1.0084767 1.0008161 1.0083821 0.99463046 0.99979335
1.0026742 0.99989414 0.9987157 1.000682 1.0004495 0.9994927 0.9982016 0.9925628
1.0117886 1.0051408 1.0067719 1.0190034 1.0016084 1.0095108 0.9976694 0.9949882
0.997397 0.99978757 0.9992236 0.9993268 1.0008199 0.9981862 1.0000707 1.0164263

conv_stack.8.bias f4 [128]
00000000: 5fef 1e3b 2259 dab9 ee82 543b 9706 b3bb
00000010: 71cc d4bb c1e6 533b b956 db3b 0bd7 d8bb
00000020: e7f6 103c 646d b93b f318 cdbb b51f 963b
00000030: 339f 10bc 27cc bf3b dd36 dc3b 676f e3ba
00000040: c159 a0bb a97f 8abb 0b20 d73b a3dd bfbb
00000050: b593 a1bb b7f1 943b a4c3 c6bb e770 5e3b
00000060: 8011 fbbb 286a cebb cc6b bfbb 18ce a3bb
00000070: a545 003c 9fab c6bb 8a74 d9bb cf55 d9bb
00000080: 5161 22bc a19a e33b 307c bd3b 4ef6 47b8
00000090: 4bf2 afbb 4d28 a73b 79be c7bb 8741 0f3c
000000a0: 1c24 bebb ff8c 973b 1aad 823b 1805 1ebc
000000b0: 3113 cc3b 7a29 d7bb fd9d eb3b eef6 a839
000000c0: ab3a 963b cc1a a53b 4a03 5f3b 4993 39bb
000000d0: 9d81 643a 013f 40bb a0df acbb c105 1abc
000000e0: 3d3a 1dbb da1f 1b3b bedb ab3a 9a5a 15bc
000000f0: 8d5d 8c3a 41ef 88ba b881 5a3b c568 193a
00000100: f19f b53b abfa fbba 3e01 4e3b 342d ac3b
00000110: 2348 d1bb 6d18 f6bb 19df ba3b efd7 3dbb
00000120: 8eac e2bb 551f b63b 6ac2 19bb e466 e0bb
00000130: a00d 41bb 8f77 7a3b 98e9 49bb 7d48 5ebb
00000140: 4a33 b2b9 9f21 96bb f34e 023c f69b 8e3a
00000150: b96a 0a3c 985e ea3b 9b87 0cbb 975e b33a
00000160: 5bee 3ebb 6ef3 e53a e673 f93b 71f1 e9ba
00000170: 57d2 0b3c fcd2 b1bb 5fc3 b43b 2fff 563b
00000180: 70e4 2f3c ba27 91bb ab47 44ba 4baf 2c3b
00000190: 9b67 37bb 8c7a c7bb e69b 0539 d4a0 fcba
000001a0: c654 e9bb 1981 88bb 54b9 a13b 954c b13b
000001b0: d598 bfbb 74f1 983b 225e 1fbc 545d 95bb
000001c0: 3632 f8bb 1ddf a3bb 95fa 7cbb b6ee 023a
000001d0: fa02 963b 86dc a63b 4108 cebb 7aab 2ebc
000001e0: 7ba7 d1ba cfea 73bb 016e 16bc 7772 8d3b
000001f0: 9735 94ba 17a5 a6bb b813 043b ba3f c639
0.0024251563 -0.0004164661 0.0032426673 -0.005463432 -0.006494098 0.0032333585 0.0066936878 -0.006617432
0.008847929 0.0056587923 -0.0062590777 0.0045814165 -0.008827019 0.0058531943 0.0067204074 -0.0017351926
-0.004893512 -0.004226644 0.006565099 -0.0058552786 -0.004930938 0.004545416 -0.0060658026 0.0033941807
-0.0076619983 -0.006299276 -0.005841708 -0.0049989335 0.007829105 -0.0060629393 -0.006636207 -0.0066325436
-0.009910897 0.0069459234 0.0057826266 -4.7674686e-05 -0.0053694597 0.00510124 -0.006095704 0.00874365
-0.0058026444 0.0046249623 0.0039879205 -0.009644769 0.0062278737 -0.0065662237 0.0071904645 0.00032227434
0.0045846305 0.005038595 0.003402906 -0.0028316549 0.00087168236 -0.0029334428 -0.0052756816 -0.009400786
-0.0023991012 0.0023670108 0.0013111753 -0.009115839 0.0010709033 -0.001044728 0.0033341479 0.00058520987
0.005542748 -0.0019224485 0.0031433846 0.005254412 -0.006386773 -0.007510236 0.005702865 -0.0028967818
-0.006917543 0.0055579343 -0.0023461827 -0.006848203 -0.0029457584 0.0038218235 -0.0030809399 -0.0033917718
-0.0003398902 -0.0045816447 0.007953393 0.001088022 0.008448296 0.0071523897 -0.0021443132 0.0013684806
-0.002913377 0.0017543861 0.007612693 -0.0017848444 0.008534036 -0.0054267626 0.005516454 0.003280591
0.010735616 -0.0044297846 -0.0007487486 0.00263496 -0.0027985338 -0.006087607 0.00012741945 -0.0019274005
-0.0071207015 -0.0041657803 0.004935423 0.0054107406 -0.0058470764 0.0046674553 -0.009727033 -0.0045582447
-0.007574345 -0.0050009624 -0.0038601507 0.0004994677 0.0045779916 0.0050922064 -0.006287605 -0.010661
-0.0015995348 -0.0037218814 -0.0091815 0.004316624 -0.0011307475 -0.005085598 0.0020153355 0.00037812983

conv_stack.8.running_mean f4 [128]
00000000: 0b28 443e b278 1a3e 475f 7f3e 34ce 2f3e
00000010: 4d54 af3d d292 053e efbb b83d 2018 453e
00000020: 0224 0e3e a420 9b3e 5247 e23d 9462 ca3d
00000030: 2f31 8e3e d8e9 183e d8b3 153e 4b29 143e
00000040: 1eec 503e a647 f13d 42a8 e53d 3663 163e
00000050: 3b5b 853e 1078 283e dcd7 333e ebaa f13d
00000060: f35a 9f3e 4b6f e93d 313f 003e e5b1 953e
00000070: 775a 293e 257b 063e 01d1 573e 58bc b83d
00000080: 24f4 bf3d e914 193e 115f 733e d2dd 043e
00000090: 8951 2e3e 2afa ac3e 39bd 4e3e 0ee3 073e
000000a0: 969c 053e 8786 e43d f049 023e e7dc e73d
000000b0: bea2 0f3e 372d 243e 2c86 313e b861 473e
000000c0: f8d3 2a3e 8e4f 353e 64e9 1c3e e712 6d3e
000000d0: d919 4b3e 8aeb 8a3e 0bfc 4c3e 82e4 ef3d
000000e0: dfc4 4c3e 4799 f33d 4cf5 153e a05c 753d
000000f0: 480c 153e 4115 963d 8766 423e bbdf 1a3e
00000100: 9e1f 183e 4b3c 393e bba8 593e e04c 0d3e
00000110: 0de3 8e3d 907d 2e3e 19a8 413e 02bd dd3d
00000120: 4664 3e3e 9b62 f03d 33bb 3e3e f1d7 713d
00000130: ecee fe3c c592 bb3d 9e61 0b3e 2a7e 0e3e
00000140: 8e74 6a3e 9c92 2b3e d428 be3d 3c1e 543e
00000150: 96f0 273e 53ae 283e ee8d cb3d d823 793e
00000160: 8ab0 603e 705b 2b3e 6c22 c03e 404c 563e
00000170: e9c7 0a3e a413 fa3d 34f0 d13d df5d 203e
00000180: b767 723e 0d84 333e 4f03 123e 04a6 6e3e
00000190: 902e 913e a719 dc3d c10c 093e 4338 ee3d
000001a0: 1e1a 3a3e 86a8 6e3d a00c 1e3e a422 d73d
000001b0: 2d43 db3d 1c6f 213e 7844 1c3e 1599 113e
000001c0: fbc1 3e3e eccb 373e 725e c43d b97e e33d
000001d0: d57d 313e d62a 0c3e 44db 1b3e f15c 9b3e
000001e0: d9c7 763e 291d 723e 2c16 053e 39a7 aa3d
000001f0: 291c 743e 7b4d 893e 74b5 583e 9f4b a33d
0.191559 0.15085104 0.24938689 0.17168504 0.08561001 0.13044289 0.090202205 0.19247484
0.13880923 0.3029834 0.110487595 0.098820835 0.277719 0.14932954 0.14619386 0.14468877
0.20402572 0.11781244 0.11213733 0.14686283 0.26046166 0.1645205 0.17562813 0.11800178
0.31124076 0.113981806 0.12524106 0.29237285 0.16538416 0.13132913 0.21075822 0.09020299
0.09372738 0.14949383 0.23766734 0.12975243 0.1702329 0.3378461 0.2018937 0.13270208
0.13048014 0.111584716 0.12723517 0.11321431 0.14026925 0.16032873 0.17336339 0.1947087
0.16682422 0.17706129 0.15323406 0.23151742 0.19834079 0.27132827 0.20018022 0.11713506
0.19996975 0.1189447 0.14644355 0.059902787 0.14555466 0.073282726 0.18984424 0.15124409
0.14855811 0.18089406 0.21255772 0.13798857 0.069769 0.17040086 0.1891178 0.10827066
0.18592939 0.117375575 0.18626098 0.05904383 0.031119786 0.091588534 0.13611457 0.13915315
0.22896025 0.16755146 0.09285131 0.20714658 0.1640037 0.1647275 0.0993918 0.2433008
0.21942344 0.167341 0.37526262 0.20927525 0.13552822 0.122107774 0.10250893 0.15660809
0.23672377 0.17530842 0.14259075 0.23305517 0.28355837 0.1074708 0.13383771 0.11631825
0.18174025 0.058266185 0.15434504 0.10504654 0.10706172 0.15765041 0.15260494 0.14218552
0.18628685 0.17948884 0.095883265 0.11108155 0.17333157 0.13688216 0.15220362 0.30344346
0.24099673 0.23643936 0.12996739 0.083326764 0.23838867 0.26816925 0.21162969 0.07973408

conv_stack.8.running_var f4 [128]
00000000: e4c1 f83d 66b9 c23d b40f 403e 6391 1e3e
00000010: af0c 4c3d 5d9f 9e3d 5f85 8d3d 4ad4 363e
00000020: 7277 9a3d f769 053f a869 8b3d 4420 273d
00000030: 4bfc 963e 8da4 693d 2626 d13d 7b32 9a3d
00000040: 5598 d03d df69 9e3d e85f 5e3d 4c80 943d
00000050: a37c 733e 1665 903d 1c60 ba3e 4352 873d
00000060: b76a 893e c806 613d e22e 143d 90fe a73e
00000070: 8b5c 153e 14b4 933d 4852 bf3d e90e 4f3d
00000080: a6ba 923d 7799 963d b33a 183e 5da6 a13d
00000090: d173 fd3d 7eff f73e 7a3a 033e b70e 633d
000000a0: d601 c63d d45d 543d 1f4c ae3d 9d7e a03d
000000b0: 881f c33d 4fd5 b53d c3b0 073e 2658 133e
000000c0: bc88 d63d ca53 c63d 7c51 aa3d 6fc1 7b3e
000000d0: 1200 593e 5c4f 6f3e 41af 283e 368a b13d
000000e0: babb fa3d 6470 8c3d 3dc6 b13d cc60 303d
000000f0: 4247 ee3d 0e74 543d 2916 053e bb32 9a3d
00000100: 46e8 563d 60e7 843d a980 8b3d d085 943d
00000110: d170 6a3d 51ee fb3d f350 3a3e bdf4 9a3d
00000120: 8611 333e 7c3a 043e 5d16 353e 2f36 2f3d
00000130: 270b f73c 01cd 813d c387 b23d b29e 5a3d
00000140: 3044 483e c974 c33d 4de1 333d 8f78 cf3d
00000150: 0fb1 993d 2215 5b3e 7eba 823d 67c3 823e
00000160: be9b 503e 1b3e 143e 8566 c13e 0420 a63d
00000170: 7457 413d 37d5 863d 6dc0 913d b424 183e
00000180: 0dc5 383e 8eea 833d ce7e 543d 250e 543e
00000190: 3811 ab3e 8ecc 683d ae6e b83d 1342 953d
000001a0: c1d2 143e 71b4 413d d407 dc3d 6614 673d
000001b0: 7517 8c3d 95de 973d e02a 6b3d 2f01 8a3d
000001c0: 919e ff3d f443 423e 79a2 623d d390 a03d
000001d0: 51a2 6f3d 095b 093e e16d b03d 4b43 1f3f
000001e0: 7dac 6d3e 99ce 4b3e fc17 d13d ce0e 8c3d
000001f0: fdc2 5a3e ae7a 2d3e b8bc d83d 4e2a 9e3d
0.12146357 0.09508018 0.1875599 0.15485148 0.049816784 0.0774524 0.06910204 0.1785442
0.07542314 0.52114815 0.06807262 0.040802255 0.2948936 0.057041693 0.10212354 0.0752916
0.10185305 0.07735037 0.054290682 0.07251033 0.23778014 0.070505306 0.3640145 0.06607487
0.2683923 0.054938108 0.036177523 0.32811403 0.14586084 0.072120816 0.09341866 0.05055133
0.071645066 0.0735349 0.14866142 0.078930594 0.12375606 0.48437113 0.12815276 0.055433955
0.09668319 0.051847294 0.08510613 0.078366496 0.095274985 0.08878576 0.13251023 0.14389095
0.10475299 0.0968395 0.08316323 0.24585508 0.21191433 0.23370117 0.16473104 0.0866894
0.12242837 0.06857374 0.08680389 0.043061063 0.11634685 0.05186849 0.12996735 0.07529207
0.052467607 0.06489444 0.06811649 0.07252085 0.057236496 0.123013146 0.18194942 0.075662114
0.17487153 0.12912935 0.17684312 0.042776283 0.030156685 0.063379295 0.08717301 0.053374
0.19557261 0.095437594 0.043916035 0.101304166 0.07504474 0.2139478 0.06383227 0.25539705
0.20371911 0.14476816 0.3777353 0.08111575 0.047202542 0.06583636 0.071167804 0.14857751
0.18043919 0.06441222 0.051878743 0.2070852 0.33411574 0.056835704 0.090054855 0.07287993
0.14533521 0.047291223 0.107436806 0.056415938 0.068404116 0.07415501 0.057413936 0.06738507
0.12481416 0.18971235 0.055330727 0.07840123 0.058504406 0.13413633 0.08614708 0.62212056
0.2321033 0.1990303 0.10209653 0.06838761 0.21363445 0.1694133 0.1058287 0.07722913
