timeseries/models/fnn.pth (torch, 5008 bytes, 7 tensors)

net.0.weight f4 [24, 5]
0	0xbdc25c41	-0.09490252
1	0x3cfa81d1	0.03057948
2	0x3f069b3c	0.5258062
3	0xbbbee5a3	-0.0058257147
4	0x3d4bea93	0.049784254
5	0x3e8b5595	0.2721373
6	0xbe6a9782	-0.22909358
7	0xbec125a9	-0.37724045
8	0x3d95214d	0.07281742
9	0xbdf00bbf	-0.117209904
10	0x3e8946f8	0.26811957
11	0x3eab9491	0.33511785
12	0x3f3b8f92	0.73265946
13	0x3c142645	0.009042327
14	0xbbc5ba2c	-0.0060341563
15	0x3e84e43a	0.25955373
16	0xbe6138a3	-0.21994261
17	0x3ebc5535	0.36783758
18	0xbef31977	-0.47480366
19	0x3de177ec	0.110092014
20	0x3d52a064	0.05142249
21	0x3f01582c	0.50525165
22	0x3e3fb62f	0.18721841
23	0xbeb5f755	-0.35540262
24	0x3e273f50	0.16332746
25	0x3db65b01	0.08904076
26	0x3df3d575	0.11905948
27	0x3e513ecc	0.20434111
28	0x3e2df9a3	0.1698976
29	0x3ef22f06	0.473015
30	0x3e474353	0.19459276
31	0xbeef78ca	-0.46771842
32	0x3e074964	0.1321159
33	0x3c873b7f	0.016507862
34	0xbd83bb04	-0.06432155
35	0xbe221379	-0.1582774
36	0xbe16aec6	-0.14715108
37	0xbf17d306	-0.5930637
38	0x3c699519	0.014256739
39	0x3b17e4c4	0.0023177126
40	0x3ddcf02e	0.10787998
41	0x3ed2922f	0.41127154
42	0x3d5bb5bd	0.053640116
43	0x3eae5a04	0.3405305
44	0xbef0faa9	-0.4706624
45	0x3ea16328	0.31520963
46	0x3ed0a34d	0.4074959
47	0xbe26f693	-0.16304998
48	0x3d1c2f6e	0.03813117
49	0x3e0c8c49	0.1372539
50	0x3e8a5aaa	0.27022296
51	0x3dc9ae9d	0.09847758
52	0x3ea60389	0.32424572
53	0x3d67bbe9	0.05657569
54	0xbe91e0c4	-0.28491795
55	0x3f031703	0.5120699
56	0xbf127e8f	-0.57224363
57	0xbe331af1	-0.17490746
58	0x3dee47f2	0.11634816
59	0x3d046c39	0.03232977
60	0xbeea2e77	-0.45738575
61	0x3f0c3ade	0.54777324
62	0x3e227636	0.15865406
63	0xbe23968b	-0.15975396
64	0xbce7046f	-0.028200356
65	0xbc9528a9	-0.018207865
66	0x3e77ba6a	0.24192205
67	0xbf1c3ebb	-0.6103322
68	0xbeb28e60	-0.34874249
69	0x3eb66fc2	0.3563214
70	0xbdd74a1b	-0.10512181
71	0x3edc295d	0.43000308
72	0xbf0df794	-0.554559
73	0xbd71e096	-0.059052072
74	0xbe8957ad	-0.26824704
75	0xbe88cc1a	-0.26718217
76	0x3e6e8735	0.23293765
77	0xbecb6648	-0.39726472
78	0x3c86e55b	0.016466787
79	0x3e07f3ce	0.13276598
80	0xbd91c03a	-0.071167424
81	0xbe7c7027	-0.24652158
82	0x3e8efb4b	0.27926096
83	0x3c895968	0.016766265
84	0xbed82285	-0.42213836
85	0xbe6967ea	-0.22793546
86	0x3edc43bc	0.43020427
87	0x3cbd5402	0.023111347
88	0x3cd9fb18	0.026608989
89	0xbc69f9d1	-0.014280752
90	0xbeb050de	-0.34436697
91	0x3f126eba	0.57200205
92	0x3e886735	0.2664124
93	0x3dbcec6f	0.09224784
94	0xbecb8390	-0.39748812
95	0x3e31dcd6	0.17369398
96	0x3ed9a984	0.42512143
97	0x3d869564	0.06571463
98	0x3d2d6b9e	0.04233896
99	0x3e506b1d	0.2035336
100	0xbe057b59	-0.13035335
101	0xbf038050	-0.51367664
102	0xbef79a18	-0.48359752
103	0x3dc892bf	0.097936146
104	0xbd4be018	-0.04977426
105	0xbdb13659	-0.08652944
106	0xbe2e2aba	-0.17008486
107	0xbc03ad14	-0.0080368705
108	0x3f0c111e	0.5471362
109	0x3d5731fe	0.05253791
110	0x3dca1dd2	0.09868969
111	0xbde903a8	-0.113776505
112	0x3ef1e606	0.47245806
113	0xbd100cec	-0.035168573
114	0x3cc17ead	0.023619974
115	0x3db970fc	0.09054753
116	0xbeddadb1	-0.4329658
117	0x3ee36713	0.44414577
118	0x3d75236a	0.059848227
119	0x3e6dba95	0.23215707

net.0.bias f4 [24]
0	0xbed84518	-0.42240214
1	0xbee88bb3	-0.45419082
2	0xbb05df3a	-0.0020427243
3	0x3df594e4	0.11991289
4	0x3dadd32e	0.08487545
5	0xbc63cb00	-0.013903379
6	0x3e423941	0.18967153
7	0xbf188e52	-0.59592164
8	0x3cb5c411	0.022188218
9	0x3ee16ede	0.44029897
10	0xbef08b62	-0.4698134
11	0x3ede5999	0.43427733
12	0xbec1912b	-0.37806067
13	0xbe89de50	-0.26927423
14	0x3e1ba2f7	0.15198885
15	0x3dce0bff	0.10060882
16	0xbc8a8869	-0.016910749
17	0xbe386a57	-0.18009315
18	0x3e9889ec	0.29792726
19	0xbdb29b1b	-0.0872099
20	0x3d22f05a	0.03978
21	0xbe8ad911	-0.27118734
22	0xbda14b63	-0.07875707
23	0xbe30d5a3	-0.17268996

net.2.weight f4 [12, 24]
0	0x3d958ee9	0.073026486
1	0x3e6a101f	0.22857712
2	0xbea2e262	-0.3181334
3	0x3cdef7ab	0.027217707
4	0x3e1982e5	0.14991339
5	0xbd9a1d87	-0.07525163
6	0x3c0fb991	0.00877227
7	0x3e7fae12	0.24968746
8	0x3e17b3b6	0.14814648
9	0xbd0b00d6	-0.033936344
10	0xbdce8bc1	-0.1008525
11	0x3e6a813d	0.22900863
12	0xbd7c82eb	-0.06164829
13	0x3de51c3b	0.11187025
14	0x3c7044e8	0.014664866
15	0xbd9068d6	-0.07051246
16	0xbdaaf673	-0.08347788
17	0x3e2c52b9	0.16828431
18	0xbdffd47b	-0.12491699
19	0xbd752a56	-0.059854828
20	0x3e8c9636	0.27458352
21	0x3e3597f1	0.17733742
22	0xbd7c3460	-0.061573386
23	0x3e8855e8	0.2662804
24	0xbe81aa74	-0.25325358
25	0x3dfed7d6	0.12443511
26	0x3e7ffbfc	0.24998468
27	0x3db13df4	0.08654395
28	0xbd938477	-0.07203
29	0x3defdaaa	0.11711629
30	0xbd81af49	-0.06332261
31	0xbee82310	-0.4533925
32	0x3e3f894f	0.18704723
33	0x3e72d048	0.23712265
34	0x3ce92ef3	0.02846477
35	0x3d1e86e5	0.038702864
36	0x3e688661	0.22707511
37	0x3de9ffa3	0.11425712
38	0x3d800f37	0.06252902
39	0x3e801719	0.25017622
40	0xbe202867	-0.15640412
41	0xbdf0f10c	-0.11764726
42	0x3dc0ec03	0.09420016
43	0x3e056d43	0.13029961
44	0x3cd831d1	0.026390942
45	0xbe18e70b	-0.14931886
46	0x3db6ea5f	0.089314215
47	0x3c423e50	0.011855677
48	0x3cdc425b	0.02688711
49	0x3dcfb399	0.101416774
50	0x3d504a10	0.05085188
51	0x3cdca172	0.026932452
52	0xbde6d7c5	-0.112716235
53	0xbe3bc000	-0.18334961
54	0xbda5daec	-0.08098397
55	0xbee1962a	-0.4405988
56	0x3d547fc3	0.051879656
57	0x3e762582	0.24037746
58	0xbe26448d	-0.16237088
59	0xbd890ab4	-0.066914946
60	0x3e62ca99	0.22147597
61	0x3cecce7d	0.028907055
62	0x3e8d9230	0.27650595
63	0x3e288baf	0.16459535
64	0x3db729b7	0.08943503
65	0x3cb38478	0.021913752
66	0x3dd1a436	0.10236399
67	0xbd864a9e	-0.06557201
68	0x3e3a8b60	0.1821723
69	0xbd382f65	-0.044967074
70	0xbd0f4d2d	-0.03498571
71	0xbd97109a	-0.07376213
72	0xbe20f49e	-0.15718314
73	0x3e6306c6	0.22170553
74	0x3e9e4cc4	0.30917943
75	0x3e1233b3	0.14277534
76	0x3e35ad0f	0.17741798
77	0x3e265849	0.16244616
78	0x3d87dccf	0.06633913
79	0xbf29d411	-0.6633921
80	0x3e5e038e	0.21681044
81	0x3eac5ebb	0.33666024
82	0xbd28297b	-0.041055184
83	0xbdc97b1d	-0.09837935
84	0x3dcf35ce	0.10117684
85	0x3eaba182	0.33521658
86	0x3d7f6bbb	0.0623586
87	0xbbb54fbf	-0.005533188
88	0x3d61f6f4	0.055167153
89	0x3e89d6b0	0.26921606
90	0x3e422889	0.18960775
91	0x3daac784	0.08338836
92	0x3da893d0	0.08231318
93	0x3ebcfd2d	0.36911908
94	0xbd664aa7	-0.056223538
95	0xbe16b7d3	-0.14718561
96	0x3dc196eb	0.094526134
97	0xbd09f352	-0.033679314
98	0xbdd45de4	-0.10369471
99	0x3e77325f	0.24140309
100	0x3d8aec1c	0.067833155
101	0x3e6234c0	0.22090435
102	0x3e8077d5	0.25091425
103	0x3ecd8f63	0.40148458
104	0x3cfac706	0.03061248
105	0xbd756d44	-0.059918657
106	0x3d935e1f	0.071956865
107	0x3e8952fa	0.2682112
108	0xbdc3f96d	-0.095690586
109	0x3db8173f	0.08988809
110	0xbd812fdf	-0.06307959
111	0xbdf68e11	-0.12038816
112	0x3d44152d	0.047871757
113	0xbe9071be	-0.28211778
114	0x3e214ae0	0.15751219
115	0xbc976065	-0.018478582
116	0x3d956dc7	0.07296329
117	0x3d71e601	0.05905724
118	0x3e875ee4	0.26439583
119	0x3e6ee707	0.23330317
120	0xbdbda692	-0.092602864
121	0x3dba1a70	0.09087074
122	0x3d2f82fe	0.042849533
123	0xbd729340	-0.05922246
124	0x3e53c66d	0.20681162
125	0x3e4b7b74	0.19871312
126	0xbc4fef88	-0.012691386
127	0xbeff41e7	-0.49854967
128	0x3e5117ea	0.20419279
129	0x3e07b78d	0.13253613
130	0xbe44135c	-0.1914801
131	0x3dbaf842	0.09129383
132	0x3e0a3eca	0.13500515
133	0x3e1ffde7	0.156242
134	0x3ea0bbf2	0.3139339
135	0x3e92e176	0.28687638
136	0x3e120233	0.14258651
137	0x3e944db5	0.28965536
138	0x3b13ab1c	0.002253241
139	0x3e9305b7	0.28715298
140	0xbdc32009	-0.095275946
141	0x3e4237f5	0.18966658
142	0x3d9b0688	0.07569605
143	0xbe18f5d7	-0.1493753
144	0x3d32754d	0.043568898
145	0x3e82d766	0.2555496
146	0x3ac62a0f	0.0015118736
147	0x3d6ca408	0.05777362
148	0x3e824c18	0.2544868
149	0x3ddca56c	0.10773739
150	0x3e8f187e	0.27948374
151	0x3ea8369d	0.32854167
152	0x3d04336f	0.032275613
153	0xbe7ddaff	-0.24790572
154	0xbdeb7ac0	-0.11498022
155	0x3c35928b	0.011082302
156	0x3d00dc6f	0.03146022
157	0x3e63fa9c	0.22263569
158	0xbe0447d1	-0.12918021
159	0xbd5b18d3	-0.05349047
160	0x3e546b3b	0.2074403
161	0xbe00698f	-0.12540267
162	0x3e15a852	0.1461499
163	0xbe03cc21	-0.12870838
164	0x3e5c28b7	0.21499906
165	0x3cc72f99	0.024314689
166	0x3e9036de	0.2816686
167	0x3e8768eb	0.26447234
168	0x3d546552	0.05185444
169	0x3db55741	0.08854533
170	0x3eab91ab	0.33509573
171	0x3d7410e8	0.059586436
172	0x3e665abf	0.22495554
173	0x3e6b9e17	0.23009525
174	0xbddf2389	-0.1089545
175	0xbec754fd	-0.38932028
176	0xbd43006d	-0.047607828
177	0xbc3bc3fd	-0.0114603015
178	0xbbdefa75	-0.006804759
179	0xbe072d46	-0.13200864
180	0x3e82af3d	0.2552432
181	0x3dbcb859	0.09214849
182	0xbc92bbe0	-0.017911851
183	0x3d468e43	0.048475515
184	0x3e37bbca	0.1794273
185	0xbda81e90	-0.08208954
186	0x3e043e2a	0.12914339
187	0xbcfb3c7e	-0.030668493
188	0x3c352cd7	0.011058054
189	0xbe2d0f29	-0.16900314
190	0x3b10e926	0.0022111624
191	0xbbcef68a	-0.006316011
192	0x3dbfe75b	0.093702994
193	0x3c3a0720	0.011354238
194	0xbe4e18fc	-0.20126718
195	0x3e1614ce	0.14656374
196	0x3e0fce92	0.14043644
197	0xbe66bf06	-0.22533807
198	0xbe77f035	-0.24212725
199	0x3e01a5b1	0.12660863
200	0xbe5438c6	-0.20724782
201	0xbe33d488	-0.17561543
202	0xbd9ac6bd	-0.075574376
203	0x3dd433b9	0.10361428
204	0xbe24324c	-0.16034812
205	0xbde71882	-0.11283971
206	0xbcd4c6ef	-0.025973765
207	0x3e3f6e80	0.18694496
208	0xbe7b0e87	-0.2451726
209	0x3bf11154	0.007356802
210	0xbc4f07af	-0.012636109
211	0xbd04695b	-0.032327037
212	0xbe31ba59	-0.17356242
213	0x3e21358d	0.15743084
214	0x3cc158c6	0.0236019
215	0x3d360388	0.04443696
216	0xbdba62c8	-0.09100872
217	0x3e2c8c8a	0.16850486
218	0x3d293aba	0.04131577
219	0x3dbff6f0	0.093732715
220	0xbdef136d	-0.11673627
221	0xbe479428	-0.19490111
222	0x3e1aa92c	0.15103596
223	0x3e836bbc	0.25668132
224	0xbe6f3553	-0.23360185
225	0xbec04de4	-0.37559426
226	0x3d9e6408	0.07733923
227	0x3d838700	0.064222336
228	0x3da1abc6	0.07894091
229	0x3e9d42bd	0.3071498
230	0x3dd0ba22	0.10191752
231	0x3d1807eb	0.037116926
232	0xbc43e951	-0.011957482
233	0x3db9b77d	0.09068201
234	0x3cd175a6	0.025568794
235	0xbe0052d1	-0.12531592
236	0xbe7662f9	-0.24061193
237	0x3d6ee2fe	0.058321945
238	0xbb2e748c	-0.002661976
239	0xbc61ecad	-0.013789338
240	0xbf179f05	-0.5922702
241	0x3e573d53	0.21019487
242	0x3c29617c	0.0103381835
243	0x3d9a0f58	0.07522458
244	0xbcbf1187	-0.023323787
245	0xbd5729f0	-0.05253023
246	0x3e3bc471	0.18336655
247	0xbde2c1fd	-0.110721566
248	0xbd723378	-0.059131116
249	0x3e86c7ef	0.26324412
250	0xbdb0b2a1	-0.08627821
251	0xbe390912	-0.18069866
252	0x3e15d60b	0.14632432
253	0xbc8c64e8	-0.01713796
254	0xbe1abebf	-0.15111826
255	0xbe8a0351	-0.26955655

net.2.bias f4 [12]
0	0x3e6d3b36	0.23167118
1	0x3db46dc2	0.08809997
2	0xbd813bc9	-0.06310231
3	0xbc248cc0	-0.010043323
4	0x3e1c0cd9	0.15239276
5	0x3d04a275	0.032381494
6	0x3e09ff2f	0.13476251
7	0xbd729f35	-0.059233863
8	0xbc176e6e	-0.009242637
9	0x3d4832a5	0.048876423
10	0x3d24ae9d	0.040205587
11	0x3dff9560	0.12479663

net.4.weight f4 [6, 12]
0	0xbeb5afbe	-0.35485643
1	0x3dcccd3e	0.10000084
2	0x3eb0f9e2	0.34565645
3	0x3e3607cf	0.17776416
4	0xbec1be6c	-0.37840593
5	0x3ea8712e	0.3289885
6	0xbef08058	-0.4697292
7	0x3e971c98	0.29514003
8	0x3d213b17	0.039362993
9	0xbec95af1	-0.39327195
10	0x3f1a332d	0.6023434
11	0xbeb60041	-0.3554707
12	0x3d8d620d	0.06903467
13	0x3cb65ac2	0.022260074
14	0xbdcad768	-0.09904367
15	0x3dfceb0e	0.123495206
16	0x3e8b5d91	0.27219823
17	0xbeb294f5	-0.3487927
18	0xbd8d1fd5	-0.06890837
19	0xbe7a6e5a	-0.24456158
20	0x3e023062	0.12713769
21	0x3e8afb0b	0.27144656
22	0xbf025b06	-0.5092014
23	0x3e05bc86	0.13060197
24	0xbec2a6c7	-0.38017866
25	0x3e9c9c18	0.3058784
26	0x3e4be9db	0.19913428
27	0x3de1b81b	0.110214435
28	0xbec5543c	-0.38540828
29	0x3e6ac1c7	0.22925483
30	0xbe37830c	-0.17921084
31	0x3e55f316	0.20893511
32	0xbeaced7f	-0.33774945
33	0x3e1ba578	0.1519984
34	0x3edfa96a	0.4368394
35	0xbdaf2491	-0.08551896
36	0x3ecbdaa0	0.39815235
37	0xbb3f9898	-0.002923524
38	0xbd542425	-0.051792283
39	0xbed24223	-0.41066083
40	0x3dfee1e9	0.12445433
41	0xbea421b8	-0.32056975
42	0x3d91a812	0.07112135
43	0xbe862c65	-0.26205745
44	0xbe424c5f	-0.18974446
45	0xbc6dbd57	-0.014510474
46	0xbf0d0b78	-0.55095625
47	0x3d7f9905	0.06240179
48	0xbdca6571	-0.0988263
49	0xba8be75e	-0.0010673811
50	0x3ec707ae	0.38873047
51	0x3e8e1de6	0.27757186
52	0xbe9c075c	-0.30474365
53	0x3e922d52	0.28550202
54	0xbee64c77	-0.44980213
55	0x3e9579a7	0.29194376
56	0x3d6e01fa	0.058107354
57	0xbe479bcd	-0.19493027
58	0x3f090c71	0.5353461
59	0xbe38e683	-0.18056683
60	0x3e1b7fed	0.15185519
61	0xbeab089e	-0.33405012
62	0xbdf16c69	-0.11788256
63	0x3e2725bb	0.16322987
64	0xbd8710d6	-0.06595008
65	0x3b318acd	0.0027090788
66	0x3e7d9a8c	0.24765986
67	0xbeb0c529	-0.3452542
68	0xbe3c4f8c	-0.1838972
69	0xbe017045	-0.12640484
70	0xbea5c78d	-0.32378808
71	0x3e700237	0.23438345

net.4.bias f4 [6]
0	0xbdd6c595	-0.104869045
1	0x3e0a6412	0.13514736
2	0x3e09f112	0.13470867
3	0xbcda336c	-0.026635848
4	0xbe219f9f	-0.15783547
5	0x3de593e7	0.11209851

net.5.weight f4 [1, 6]
0	0x3e872b4b	0.26400217
1	0xbddefd0e	-0.1088811
2	0x3ea56730	0.32305288
3	0xbe7c7175	-0.24652655
4	0x3ec274aa	0.37979633
5	0xbe6b029d	-0.22950216
