timeseries/models/fnn.pth (torch, 5200 bytes, 7 tensors)

linear_relu_stack.0.weight f4 [24, 5]
0.24697909 -0.3691693 -0.37649247 -0.06545012 -0.30957738 0.57628715 -0.10662808 0.08498778
0.108308144 0.42182538 -0.6708536 0.16277434 0.3417777 -0.19357231 0.042787228 -0.20224243
-0.07059046 0.44862673 0.24851957 -0.44040737 -0.29582796 -0.18604912 -0.30135116 0.30310974
-0.043537572 0.4867932 -0.25814837 0.027025426 -0.1702004 -0.3229393 -0.17509177 0.18211307
0.6850874 0.023960322 -0.37832198 0.38982272 0.022954777 0.3167104 -0.057526123 0.255927
0.027751124 -0.13913387 -0.39478445 0.36363268 0.020003395 0.14383969 -0.49094588 -0.2617421
0.019077703 -0.041332014 0.47771364 0.16107479 -0.56035 -0.23295246 -0.04093403 -0.42162415
-0.2338827 0.4832991 0.22658482 0.018996745 0.031448856 0.022128792 -0.46632606 -0.017952902
0.0019815078 -0.50833863 0.17829762 -0.4440754 0.021172645 -0.16465685 -0.5199325 0.15532432
-0.22716582 0.09373621 -0.32901126 -0.39680558 -0.039019216 0.09089019 -0.22778857 -0.020356532
-0.4527717 0.13381512 -0.026563069 0.0972552 0.25749713 -0.6621146 -0.17501254 -0.3320668
-0.0808808 -0.014057267 -0.29415983 -0.31705153 -0.5779463 0.045179546 -0.014167461 -0.30310318
0.4404563 0.07079296 -0.08382851 0.41872588 0.44575956 -0.33192673 -0.039122965 0.23447715
-0.39304137 0.5500453 0.32336327 0.2995056 0.105007 -0.0076720286 -0.57312316 0.16072232
-0.22980991 -0.32466614 -0.06513436 -0.45029184 0.34382 0.39430183 0.29006332 0.3060818
00000000: 16e8 7c3e c203 bdbe 9fc3 c0be b60a 86bd
00000010: ed80 9ebe 8e87 133f d35f dabd 130e ae3d
00000020: a9d0 dd3d 7ff9 d73e 10bd 2bbf 51ae 263e
00000030: 7dfd ae3e d237 46be a941 2f3d a418 4fbe
00000040: bb91 90bd 67b2 e53e ea7b 7e3e 137d e1be
00000050: c376 97be a983 3ebe b34a 9abe 3331 9b3e
00000060: 7454 32bd f53c f93e 062c 84be 6d64 dd3c
00000070: 0349 2ebe 4d58 a5be 424b 33be d97b 3a3e
00000080: e361 2f3f 7048 c43c 6bb3 c1be d896 c73e
00000090: a80b bc3c de27 a23e 83a0 6bbd dd08 833e
000000a0: 5356 e33c 1c79 0ebe 3021 cabe 102e ba3e
000000b0: 29de a33c b64a 133e 425d fbbe 0f03 86be
000000c0: d848 9c3c c24b 29bd e296 f43e caf0 243e
000000d0: 1973 0fbf 178b 6ebe 71aa 27bd 1fdf d7be
000000e0: f27e 6fbe fb72 f73e da05 683e 109f 9b3c
000000f0: 84d0 003d 7147 b53c 4ac2 eebe f711 93bc
00000100: 2fdc 013b 7b22 02bf a793 363e da5d e3be
00000110: 4172 ad3c ce9b 28be 4c1a 05bf 570d 1f3e
00000120: 289e 68be c5f8 bf3d 2a74 a8be 1a2a cbbe
00000130: 9dd2 1fbd a324 ba3d 6841 69be bec2 a6bc
00000140: b1d1 e7be d506 093e cb9a d9bc bc2d c73d
00000150: aad6 833e 5880 29bf 7d36 33be a904 aabe
00000160: d5a4 a5bd 7450 66bc 1e9c 96be 9454 a2be
00000170: 4af4 13bf 300e 393d a31e 68bc 5730 9bbe
00000180: 7d83 e13e e6fb 903d 48ae abbd 3d63 d63e
00000190: 993a e43e 4df2 a9be 673f 20bd c71a 703e
000001a0: b83c c9be c5cf 0c3f df8f a53e cc58 993e
000001b0: e90d d73d a465 fbbb 33b8 12bf 6494 243e
000001c0: 4a53 6bbe a43a a6be 2a65 85bd a78c e6be
000001d0: 2d09 b03e eee1 c93e 2e83 943e c1b6 9c3e

linear_relu_stack.0.bias f4 [24]
0.441464 -0.23506017 -0.16524047 0.3703147 -0.2612701 0.25741047 0.0035731287 -0.11869673
-0.07221846 0.16920933 -0.31179616 0.31172812 -0.4487268 0.585155 0.26778767 0.43292406
-0.2724284 0.3733446 -0.6377526 -0.060300805 -0.109289676 -0.24614497 0.38912743 -0.35798678
00000000: 9207 e23e 9db3 70be cc34 29be e399 bd3e
00000010: 32c5 85be 4ecb 833e 272b 6a3b 4517 f3bd
00000020: 46e7 93bd 3645 2d3e bfa3 9fbe d49a 9f3e
00000030: 85bf e5be b8cc 153f 771b 893e 39a8 dd3e
00000040: bc7b 8bbe 0627 bf3e c143 23bf fafd 76bd
00000050: 44d3 dfbd 6d0d 7cbe b63b c73e 0b4a b7be

linear_relu_stack.2.weight f4 [12, 24]
-0.040029496 -0.18733633 -0.19202574 -0.15700105 -0.16308644 -0.015827045 -0.03017281 0.053515136
0.04097131 -0.18011734 -0.05085185 0.09143701 0.015770301 -0.13818894 0.0084208995 -0.19295761
-0.14266847 0.1166836 0.10806498 0.04834044 -0.11173975 0.048263162 -0.13681051 0.060142815
-0.12560079 -0.08195086 -0.146184 -0.018756261 -0.19399004 0.14670259 -0.2455092 -0.089841336
0.20256634 -0.118284434 -0.10612844 -0.24695462 -0.25338772 -0.27828464 -0.24348941 -0.22637883
-0.084373556 -0.04015187 -0.1376697 0.1558853 0.16292113 -0.16490328 -0.109096296 0.08545769
-0.00095414335 0.3470259 0.08788873 0.17938639 -0.2465957 -0.04968759 0.13406026 0.29537088
-0.17838153 0.14548329 0.08565754 -0.07993975 -0.5157236 -0.08910614 0.0139949415 0.056519344
-0.20858617 -0.034404125 -0.22157416 -0.1916871 0.19776878 0.33349687 0.058313202 -0.15848196
0.01237397 -0.034433227 0.18918937 0.100501776 0.03663137 0.09935976 0.19163994 0.26920366
-0.27815977 -0.16300753 -0.004363297 0.20594338 -0.23018718 -0.14134392 -0.26070878 -0.061678644
-0.11415393 0.1299743 0.14398398 0.07351231 -0.101956084 0.26078257 0.007988618 -0.01691691
0.19049601 0.26164448 0.10020929 0.016903551 0.23916037 -0.06472784 -0.1709145 0.10897726
0.11239507 0.18511026 0.35376972 -0.1685641 -0.18602316 -0.02196908 -0.077922516 -0.2161949
-0.21536854 -0.017141335 -0.1736284 0.14980727 0.23606855 0.23661621 0.1463356 0.12853298
-0.07593305 0.014288773 -0.017673409 0.16644652 0.11366979 -0.24463218 -0.076816656 -0.091818094
-0.012295905 0.10378836 0.08857643 0.24468957 0.27816993 0.25522748 -0.025890648 0.28912213
0.0016487349 0.32388395 0.2175052 0.15040721 0.12491523 -0.024715813 0.096090235 0.09146371
-0.062195033 0.17626794 -0.08304562 0.05766341 -0.21143866 -0.14323908 -0.19896251 -0.08626392
-0.15912412 0.003070092 0.107970595 -0.07968025 -0.16721296 -0.19148867 -0.1729706 0.037776023
0.05355801 -0.04963325 0.072166316 0.0780157 -0.13274221 -0.12585145 -0.014137298 -0.109865956
0.11573791 0.025715314 -0.0784072 0.08570835 0.1477894 0.15831697 0.013403068 0.32826078
0.13484384 0.27020374 0.18809451 -0.26346987 -0.21564075 -0.032697525 -0.04996908 -0.12877212
0.093032405 0.03165074 -0.41719884 -0.044844944 0.17992945 0.1813198 0.20748235 -0.032872327
-0.07960474 -0.06684931 0.3000619 0.2809451 0.1565098 0.17506368 0.036088035 0.025031636
0.12523077 0.0724472 0.08111738 0.13717179 0.3479841 0.15379925 0.29299635 0.058871202
0.047322482 0.16244572 0.39472762 0.02771901 -0.19587538 -0.16314785 0.05214377 0.18607351
0.023635294 0.006717018 -0.20468292 0.013636397 0.099965915 0.08666243 0.1599703 0.12208161
0.09945396 0.29037276 0.16565987 0.08807053 -0.10974625 0.17931418 -0.15554954 -0.026073545
0.11331305 -0.038186077 -0.28633466 0.039244633 -0.00418613 0.14568125 -0.052154373 -0.13884349
0.1518645 0.0667288 0.21200296 0.15984012 0.29314435 -0.0513749 -0.17311706 -0.03259251
0.13077217 0.05886155 0.030989416 0.3243525 0.11248631 0.20557123 0.26928675 0.049885582
00000000: f8f5 23bd 18d5 3fbe 65a2 44be e2c4 20be
00000010: 2200 27be b8a7 81bc f82c f7bc b032 5b3d
00000020: 88d1 273d ae70 38be 084a 50bd 5443 bb3d
00000030: b830 813c 6781 0dbe d0f7 093c ae96 45be
00000040: af17 12be d0f7 ee3d 2c51 dd3d a000 463d
00000050: cfd7 e4bd 98af 453d 0e18 0cbe 5058 763d
00000060: 7e9d 00be dad5 a7bd 42b1 15be bba6 99bc
00000070: 53a5 46be 3439 163e c466 7bbe bcfe b7bd
00000080: 8d6d 4f3e 1c3f f2bd de59 d9bd ace1 7cbe
00000090: 09bc 81be 537b 8ebe 4a55 79be dacf 67be
000000a0: 0bcc acbd 4a76 24bd 49f9 0cbe 65a0 1f3e
000000b0: ccd4 263e 68dc 28be e16d dfbd 7104 af3d
000000c0: 7a1f 7aba 61ad b13e 02ff b33d 11b1 373e
000000d0: 9583 7cbe 3785 4bbd 1847 093e da3a 973e
000000e0: a6a9 36be 92f9 143e 386d af3d 74b7 a3bd
000000f0: 7606 04bf 487d b6bd 0a4b 653c d480 673d
00000100: 9d97 55be 57eb 0cbd 56e4 62be a049 44be
00000110: e683 4a3e 1ac0 aa3e d3d9 6e3d 1849 22be
00000120: 31bc 4a3c db09 0dbd dcba 413e e0d3 cd3d
00000130: c70a 163d 217d cb3d 433d 443e 10d5 893e
00000140: f56a 8ebe 72eb 26be fdf9 8ebb d2e2 523e
00000150: 30b6 6bbe 76bc 10be 9f7b 85be bfa2 7cbd
00000160: 89c9 e9bd fc17 053e 8970 133e 9f8d 963d
00000170: 5ace d0bd 4b85 853e b1e2 023c 5595 8abc
00000180: 6311 433e 44f6 853e 873a cd3d 5179 8a3c
00000190: 75e6 743e 0890 84bd 3604 2fbe 782f df3d
000001a0: 632f e63d 8b8d 3d3e 4e21 b53e 119c 2cbe
000001b0: db7c 3ebe 80f8 b3bc d795 9fbd 3262 5dbe
000001c0: 9289 5cbe fc6b 8cbc a5cb 31be 1467 193e
000001d0: f4bb 713e 854b 723e 00d9 153e 269e 033e
000001e0: c982 9bbd 751b 6a3c d3c7 90bc f570 2a3e
000001f0: b5cb e83d dc80 7abe 0d52 9dbd 200b bcbd
00000200: c374 49bc fe8e d43d 8f67 b53d e78f 7a3e
00000210: 4a6c 8e3e 2dad 823e a018 d4bc d107 943e
00000220: 5d1a d83a 1ed4 a53e afb9 5e3e 5904 1a3e
00000230: 8ed3 ff3d d178 cabc f5ca c43d 5351 bb3d
00000240: 38c0 7ebd 957f 343e d213 aabd 7830 6c3d
00000250: 6083 58be 44ad 12be d4bc 4bbe 23ab b0bd
00000260: 6ff1 22be 9933 493b b01f dd3d 662f a3bd
00000270: e039 2bbe 9b15 44be 341f 31be 08bb 1a3d
00000280: a55f 5b3d 3c4c 4bbd efcb 933d b2c6 9f3d
00000290: 93ed 07be 34df 00be 20a0 67bc 6701 e1bd
000002a0: ff07 ed3d eca8 d23c f493 a0bd dc87 af3d
000002b0: 1b56 173e d81d 223e 8b98 5b3c cc11 a83e
000002c0: 8114 0a3e 2558 8a3e d99b 403e 86e5 86be
000002d0: eed0 5cbe d7ed 05bd 61ac 4cbd d7dc 03be
000002e0: c687 be3d 35a4 013d 169b d5be 55af 37bd
000002f0: 6d3f 383e e6ab 393e 4176 543e 22a5 06bd
00000300: cf07 a3bd 4be8 88bd b7a1 993e 09d8 8f3e
00000310: 1b44 203e e543 333e 0cd1 133d 250f cd3c
00000320: 7f3c 003e 335f 943d de20 a63d c376 0c3e
00000330: f92a b23e 8d7d 1d3e 9e03 963e ee22 713d
00000340: 38d5 413d 2c58 263e bd19 ca3e fa12 e33c
00000350: 8e93 48be 3b10 27be b594 553d 0e8a 3e3e
00000360: ce9e c13c 6e1a dc3b 6698 51be 326b 5f3c
00000370: eeba cc3d 127c b13d 41cf 233e ec05 fa3d
00000380: 85ae cb3d bdab 943e bea2 293e 525e b43d
00000390: a4c2 e0bd 239e 373e 6148 1fbe 3098 d5bc
000003a0: ac10 e83d 0169 1cbd 759a 92be fbbe 203d
000003b0: ce2b 89bb 772d 153e d39f 55bd fd2c 0ebe
000003c0: 5e82 1b3e 1ca9 883d 4e17 593e 21ad 233e
000003d0: 0417 963e 7d6e 52bd 9945 31be b97f 05bd
000003e0: 24e9 053e cf18 713d 84dd fd3c 8811 a63e
000003f0: 395f e63d 4481 523e f4df 893e d354 4c3d

linear_relu_stack.2.bias f4 [12]
-0.1731048 0.044041425 -0.07411776 -0.34720922 0.05133332 0.32585564 -0.17965533 0.098617986
0.12818114 0.219189 -0.010991317 0.18848099
00000000: 6242 31be c864 343d 0dcb 97bd 68c5 b1be
00000010: e342 523d 8dd6 a63e 91f7 37be 3af8 c93d
00000020: eb41 033e 1573 603e ed14 34bc 2901 413e

linear_relu_stack.4.weight f4 [6, 12]
-0.113694444 0.109590225 -0.28857052 0.3177761 -0.36789748 -0.052537397 0.09016861 -0.34722495
0.4260532 -0.14369516 0.27671936 -0.23404379 -0.0798471 0.19833389 0.051486388 -0.46425495
0.25776115 -0.36135337 -0.20924118 -0.023903295 -0.085889876 0.26389813 -0.21766068 0.3001513
-0.19424604 -0.20479067 0.31797427 -0.32128102 0.037584886 -0.14631703 -0.18030602 0.20977321
-0.14353547 -0.038192786 -0.3690049 0.35808071 -0.22311732 0.0020076204 -0.0063195177 0.3854945
-0.055204816 0.22907259 0.00459855 -0.25596088 0.31401 -0.27564555 0.07266096 -0.3680773
-0.07723151 0.23376928 0.11528124 0.019394014 -0.07847673 0.018560784 0.0073309178 0.05511596
0.069860645 0.14863463 0.4351922 -0.049424108 0.20743749 -0.13466378 0.23272577 -0.49815235
0.04815165 -0.18338563 -0.2282086 0.2829356 0.060041748 0.3113455 0.0836335 0.20394707
00000000: a2d8 e8bd d770 e03d 84bf 93be 8db3 a23e
00000010: 0f5d bcbe 7431 57bd 52aa b83d 78c7 b1be
00000020: a523 da3e d324 13be 29ae 8d3e 2da9 6fbe
00000030: e086 a3bd 0a18 4b3e 64e3 523d d3b2 edbe
00000040: 45f9 833e 4f03 b9be 5243 56be d8d0 c3bc
00000050: 08e7 afbd a81d 873e 71e2 5ebe 6ead 993e
00000060: 6fe8 46be a5b4 51be 86cd a23e f27e a4be
00000070: 9cf2 193d 22d4 15be 24a2 38be cace 563e
00000080: f6fa 12be 0a70 1cbd 36ee bcbe 5b56 b73e
00000090: de78 64be 4892 033b f513 cfbb 895f c53e
000000a0: 721e 62bd 0192 6a3e 6faf 963b 4e0d 83be
000000b0: ebc5 a03e 6a21 8dbe 45cf 943d a174 bcbe
000000c0: 8e2b 9ebd 3761 6f3e 9218 ec3d 32e0 9e3c
000000d0: 68b8 a0bd c90c 983c 3238 f03b 46c1 613d
000000e0: 1913 8f3d ad33 183e 83d1 de3e ef70 4abd
000000f0: 7e6a 543e 4de5 09be aa4f 6e3e d30d ffbe
00000100: aa3a 453d 71c9 3bbe 84af 69be efdc 903e
00000110: 56ee 753d ad68 9f3e 0a48 ab3d 80d7 503e

linear_relu_stack.4.bias f4 [6]
0.03766769 0.028788416 -0.25601086 -0.1755767 0.1161908 0.032269634
00000000: 7049 1a3d afd5 eb3c db13 83be 61ca 33be
00000010: 71f5 ed3d 2a2d 043d

linear_relu_stack.5.weight f4 [1, 6]
-0.31188083 0.281832 0.1894987 -0.36247468 -0.22605498 0.39077368
00000000: d8ae 9fbe 494c 903e f20b 423e 4896 b9be
00000010: f57a 67be 7d13 c83e
