timeseries/models/fnn.pth (torch, 5200 bytes, 7 tensors)

linear_relu_stack.0.weight f4 [24, 5]
00000000: d570 603e 7e83 cd3e 500f 8d3c 1fa6 b9bd
00000010: df66 bebd a1a5 9abd 5d94 903e efd7 d03e
00000020: 9e36 923e ca87 983c 3644 d1be 2059 32be
00000030: 50d7 4c3e 489e bcbd d95d 793c 7260 a5be
00000040: 6d6a 51be da96 92bd c159 15bd e09b a53e
00000050: e1d9 e1ba 3521 453e 608c 22bf cd1d aa3d
00000060: 2033 dabe 9184 5b3e 8944 2dbd 2838 9f3e
00000070: b339 25be b586 0aba 3a3d 873e 15d7 f6be
00000080: 5451 babe dfe0 703e 57cd 303e 0e7a a6be
00000090: 3bf8 2d3e 83dc 84be 69e5 a1be 02bb 2abe
000000a0: a204 673c 73f0 703c 8e67 d03e 58e7 3bbd
000000b0: be48 033b 29c8 333e b715 a5bd 32d7 febe
000000c0: 2c0c abbe a04c 953c e2cc 3d3e 699a e73e
000000d0: fc65 4c3e c7b2 7b3a 0c4a a33e d02b 40be
000000e0: 0e78 183f 9d4e b33e a43c 46be e149 c9bd
000000f0: 8856 d0be a11a eb3c 05a9 b03d c4f3 923d
00000100: 6ebe a4be 0d32 223e 34fd b7be 1aa5 af3e
00000110: 1555 a23d 1522 443e 1b74 07be aade b1be
00000120: e95e 143f c51e 793e c343 633e 40dc 033e
00000130: 4bd2 57be c0a1 183f d2cf 00be 1dc5 9a3e
00000140: 9504 d4bb 9619 9e3d f346 82bf e937 af3d
00000150: 1923 3c3c 3887 c63d 1575 f83d 860d 273f
00000160: 1ac8 3a3c 7a3a e03c 42d7 e5be ce80 263d
00000170: 1b0e 713e 08c2 503e c7e1 cc3c 89a2 8e3e
00000180: ed95 bb3e f7a4 a23d d7d8 113c 3ab0 d8be
00000190: 586f aebe 4d03 863e d38f b9bd 3a26 0dbe
000001a0: 256a 773e 8dd4 a83c fa59 183d d59c 2abe
000001b0: 179b 3dbd 0050 f53e 763e 59be a07b ffbe
000001c0: aea2 49be 5fc5 613b 05e6 cebe 9db9 443e
000001d0: e052 eebe 16df 58be 6a04 253e d635 47be
0.21918042 0.40139383 0.017219216 -0.09064888 -0.09296965 -0.075511225 0.28238192 0.40789744
0.28557295 0.018619437 -0.40872353 -0.17416811 0.2000401 -0.09209877 0.015220129 -0.32300144
-0.20450754 -0.07157679 -0.03646255 0.32345486 -0.0017231071 0.19250949 -0.63495445 0.08306465
-0.4261713 0.21437289 -0.04230169 0.3109753 -0.16135292 -0.0005284355 0.264139 -0.4821097
-0.36390173 0.23523282 0.17265831 -0.32514995 0.16989224 -0.25949487 -0.3162034 -0.166729
0.014100226 0.014705765 0.40704006 -0.045874923 0.0020032371 0.17556824 -0.080607824 -0.49773556
-0.33407724 0.018225014 0.18535188 0.45234993 0.19960779 0.000960153 0.3189243 -0.18766713
0.5955819 0.35020915 -0.1935907 -0.098285444 -0.40691018 0.028699221 0.08625988 0.07175401
-0.32176536 0.15839405 -0.35935366 0.3430565 0.07926384 0.19153626 -0.13227884 -0.34740192
0.5795732 0.24328144 0.22193818 0.12876987 -0.21076314 0.5962181 -0.12579277 0.3022851
-0.006470273 0.07719724 -1.0177902 0.08555586 0.011482977 0.0969376 0.121317066 0.6525501
0.011400247 0.027371634 -0.4489079 0.04065018 0.23540537 0.20386517 0.025010003 0.2785838
0.36637822 0.07941621 0.008901796 -0.4232195 -0.34069324 0.26174393 -0.090606354 -0.13784114
0.24161585 0.020609165 0.037195183 -0.16661389 -0.046290483 0.47912598 -0.21215233 -0.49899006
-0.19690964 0.0034449918 -0.40409866 0.19211431 -0.46547604 -0.2117885 0.16114965 -0.1945413

linear_relu_stack.0.bias f4 [24]
00000000: 6186 0d3f 568e 6c3d 3587 613d 0b64 7b3e
00000010: b967 1ebf ff19 053f 8728 b73d 57e6 57be
00000020: dadd ff3e c0b3 bfbd 8323 a23d c1af d33b
00000030: f617 a93d b84d fc3e abf4 bb3d 7246 e43e
00000040: 19ca f7be 6952 e4be 056c 18be 3f44 cb3e
00000050: 207a 87bd eccd f3bc 36aa dabd 70d5 d13e
0.5528317 0.05775293 0.055060584 0.24549882 -0.6187702 0.5199279 0.08943277 -0.21083961
0.49973947 -0.093604565 0.079169296 0.0064601605 0.08256523 0.49278045 0.09177526 0.44584996
-0.48396376 -0.44594124 -0.14884956 0.39700505 -0.0661509 -0.029761277 -0.106769964 0.40983152

linear_relu_stack.2.weight f4 [12, 24]
00000000: c59b 98be 1111 ae3a 410b c3bc 80e1 23bd
00000010: 308e 223e a162 2ebd 8369 0a3e 3ade 6b3b
00000020: 44df aa3c 94fe 10bd b197 acbd ca26 1a3e
00000030: 7524 2ebe 3b7f 413e 9470 b7bd 34b2 2b3e
00000040: 906c a13e f0ab 05bf 8da6 533e 11d0 863d
00000050: 2958 203e bec6 7c3d 824f a43e 95e2 6f3e
00000060: 6c7e c33c b4dc 10bd 602d 403e d88a 1a3e
00000070: b3f7 f83d 5082 913e 2f32 9dbd 5dd3 d3bd
00000080: 3581 b8bd d891 353e ccf8 6a3d acc5 55bd
00000090: f5ee 6a3c 6370 423e d63e 55bd e8b1 e43a
000000a0: 6e59 96bd 1961 c0be 4876 2b3e 1929 5cbe
000000b0: c3c2 933d 9566 4f3c 5571 ae3e 659e 933e
000000c0: 836a a2bc 884c b43d 6d43 d1bb f7b3 7a3e
000000d0: 569d d73d 93b4 283c 08b6 afbd 86da a63d
000000e0: 8bad a3bd 47c2 a3bd 53aa 2a3d 8afc b83d
000000f0: 4a3f e43d 227d c0bd 9c95 3b3e 604a 983d
00000100: c23c b23d e813 bdbe 8ab7 473e 2680 1a3e
00000110: 78f3 533e 8cde ff3d 1346 de3d 81e5 14bd
00000120: a98d 7abd 6050 7a3e 7ccf 1cbe 9ba2 4d3e
00000130: ae9e c43d be0f a3bd 3cdb 323c 77d4 1b3e
00000140: 4b0a 733e 0315 b83d 82a0 283e 9080 963d
00000150: 3c8d d53d 6ede 84bc 3e9f 273e fff2 6bbd
00000160: 4279 f93e 2608 22be 9371 493e 26af 01bc
00000170: bbe4 2bbd a6ba 713e 8efa c23b 6ef6 c6bd
00000180: 0d57 8b3d 43e4 0e3e a25d b2bd d3ae 803d
00000190: 621d 253c 21ec ae3e dc12 1b3e f9e9 473d
000001a0: dc4f 723b 8897 863e 6f3d b3bd b563 7cbd
000001b0: f698 823d 6a4a 5e3e 586c cb3c c3d1 bd3d
000001c0: ff50 aebe 9ce0 56bd 6330 693d 4e5e 98be
000001d0: c165 ebbb 7532 d83d cfef c23e 1dd3 213e
000001e0: 4bf0 3dbe d46c 3fbb ba6c 0e3d d55c 283e
000001f0: 1614 d93d 6949 823e bfc0 083e 94e7 ec3d
00000200: bdb3 6d3c 8e02 f53d f6f5 bfbe 6a93 42bd
00000210: ca40 9e3d 55a0 8ebd ddf3 0b3e 3ebe 973d
00000220: 8a7e dabe 1194 e73e 3e43 833d 69de 37bc
00000230: f6a2 1abe e4da 163e 9988 073e 1ba2 5abc
00000240: 55bc 233c 96c6 d63d 15ed d0bd 810e 58be
00000250: df85 973e 0cda 69bd 8601 3fbe c0cf 7c3d
00000260: 8ce8 453e 9c0d f13d 3b32 7d3e 7db6 1f3e
00000270: 970b d63d 836c 8c3e adc0 e2bd 6f51 78be
00000280: 5cad d63e 1869 fabe efb8 dabd 85c5 52bc
00000290: 7e62 903d e4ff 123e 2a93 723e 80c9 c0bd
000002a0: cad0 ef3d 929c 853d 46a9 443e 926f 863e
000002b0: f80b a4bd 0082 f63d 5b10 ac3d 9a13 5c3e
000002c0: c7ab 713e b9b9 f63d ec91 a0be 2352 98be
000002d0: 479e 343d 8c1f 0f3e fc56 983d 7676 e43d
000002e0: ed73 37be 1442 cb3e dbfe 833e 5106 bbbd
000002f0: b120 b03d c6df 67be 13ec 593d 9d09 373e
00000300: 42c6 3f3e 0914 763e b497 3f3e 34eb 373d
00000310: ba09 bd3e 42c5 c23c cff3 053e 6e61 bb3d
00000320: 14ba 3f3e 9501 fe3d d936 0e3f 9d9d 953e
00000330: ad48 72bd 8364 a5bd 06d0 dd3c 17ec 03be
00000340: 272f ce3e 6059 3fbe a4cb 653e ca10 c03d
00000350: 06aa c53c f746 ce3c dc43 8bbe 9d70 72bd
00000360: d5ef 28bc 9f7d 27be 0d63 7c3d 4f2e febd
00000370: 0e65 93bd face 0bbe bedc 94bd 8783 fd3c
00000380: 0dc0 2fbe e36b 16be 0a32 5ebe a82c 04be
00000390: 905b b53c 911c b33d f072 90bd 8674 083e
000003a0: 8fe3 c43d 0f8a bd3d 1d70 8fbd e601 853c
000003b0: 5d68 993c a9e0 afbd d4c1 813c 8f97 4abd
000003c0: fb52 6c3e 9ca6 093e ed83 babb 1ec9 3bbd
000003d0: cbd4 343e c4b5 56bd da12 033c 0717 343e
000003e0: 4b24 183e 7707 b93d 1575 e03e 32f7 e03d
000003f0: 0590 d53d d4a0 78bd 47cd 07be aa9f dabd
-0.29806343 0.0013280233 -0.023809077 -0.040009975 0.15874553 -0.04257453 0.13516812 0.0035990612
0.020858414 -0.035399035 -0.0842737 0.1505386 -0.17006095 0.18896191 -0.089570194 0.16767198
0.3152814 -0.5221548 0.20669003 0.06582654 0.1565863 0.061712973 0.3209191 0.23426278
0.023863994 -0.03536673 0.18767309 0.15092027 0.1215662 0.28419733 -0.076755874 -0.10343049
-0.09009019 0.17731416 0.057366177 -0.052190468 0.014339198 0.18988185 -0.05206188 0.001744804
-0.07341276 -0.3757408 0.1674434 -0.21500053 0.07214882 0.012658735 0.3407084 0.28831783
-0.01982618 0.0880366 -0.0063862116 0.24482714 0.10528056 0.0102969585 -0.085796416 0.08147149
-0.07992085 -0.0799604 0.04166634 0.09032543 0.11144884 -0.09398867 0.1831879 0.07436061
0.08702995 -0.3692925 0.19503608 0.15087947 0.20698345 0.12493619 0.10853209 -0.036351684
-0.061170254 0.24444723 -0.15313524 0.2008156 0.09600578 -0.07961987 0.010916527 0.15217768
0.23734395 0.08988383 0.16467479 0.0734874 0.10427329 -0.016219344 0.1636934 -0.057604786
0.48725325 -0.15823421 0.19672231 -0.007915294 -0.04196618 0.23606357 0.0059502786 -0.097149715
0.06803713 0.13954262 -0.08709265 0.06283345 0.010077806 0.34164527 0.15143913 0.048807118
0.003697387 0.26287484 -0.08751952 -0.061618526 0.06376831 0.21708074 0.024831936 0.092685245
-0.3404617 -0.052460298 0.05693091 -0.2975945 -0.007183761 0.10556499 0.38073584 0.1580319
-0.18548696 -0.0029209154 0.03477166 0.16441663 0.10599534 0.25446633 0.13354777 0.115676075
0.014508185 0.11963378 -0.3749234 -0.047503866 0.07727201 -0.06964175 0.13667245 0.07409333
-0.42674667 0.45230153 0.0640931 -0.01122246 -0.15101227 0.14731938 0.13235702 -0.013344313
0.009993632 0.10487096 -0.1020147 -0.21099283 0.29594323 -0.05709271 -0.18652925 0.061721563
0.19326991 0.11770174 0.24726193 0.15596958 0.10451429 0.27426538 -0.11071906 -0.24249814
0.41929138 -0.48908305 -0.106798045 -0.012864475 0.07050036 0.14355427 0.23688951 -0.09413433
0.11709745 0.06524004 0.19205198 0.26256996 -0.08010095 0.12036514 0.08401557 0.21491852
0.23600684 0.120471425 -0.3136133 -0.29750165 0.044096258 0.13976878 0.07438466 0.11155407
-0.17915316 0.3969885 0.25780377 -0.09132064 0.085999854 -0.22643957 0.053203654 0.17874761
0.18727973 0.2403108 0.18710214 0.04490204 0.36921483 0.0237757 0.13081287 0.091494426
0.18723327 0.124026455 0.5555244 0.29221812 -0.05915134 -0.08075812 0.027076732 -0.1288303
0.4027035 -0.18686438 0.22440964 0.09378202 0.024128925 0.025180323 -0.2720021 -0.059189428
-0.010311087 -0.16356514 0.0616179 -0.124111764 -0.07197009 -0.13653174 -0.07268666 0.030946506
-0.17163105 -0.14689593 -0.21698776 -0.1290766 0.022138387 0.08745683 -0.070531726 0.133257
0.09613716 0.09254848 -0.07003806 0.016236257 0.018726522 -0.085877724 0.015839495 -0.049460944
0.2307853 0.13442463 -0.0056919963 -0.045846097 0.17659299 -0.05241944 0.0080001 0.17586909
0.14857595 0.09034627 0.43839327 0.10984649 0.1042786 -0.060700253 -0.13261901 -0.10674985

linear_relu_stack.2.bias f4 [12]
00000000: bbf9 42be f0b9 03bc a28d 803e df09 2a3e
00000010: 124d f33c 7141 8b3d 7de6 8cbe 4350 233d
00000020: 1bde 583d 97f4 47be e1fb a13d 12b7 6ebe
-0.19040577 -0.008039936 0.25108057 0.16605328 0.029699836 0.06799591 -0.275196 0.039871465
0.05294619 -0.19526897 0.0790937 -0.23312023

linear_relu_stack.4.weight f4 [6, 12]
00000000: 4886 a43e 0246 5f3e b683 28be d543 81be
00000010: ab08 dc3d ce4d 263e 507b a6be 9162 913e
00000020: 3a4a 23be b9b3 4fbd e25c c1be ce58 783f
00000030: 7cb3 123e 9ac0 1ebe 1602 113e fe28 b2be
00000040: 4992 c1bd 2e28 cb3c 7540 edbe b896 adbc
00000050: f0fa ac3d c83a 75be e8be 0d3e 221b 553f
00000060: cd5f a43e 4579 433e f075 86be 381f c4be
00000070: f00d c13e a41e a63e 2e1b 26be 7fab 8bbd
00000080: d38e 89be 17fb f6bc b1da d13d 301e 763f
00000090: 5f62 b83d a590 633d ad85 8abe 4378 95bd
000000a0: aee9 1a3d 28a7 813e 08bd 763c d9d5 b53e
000000b0: e083 abbe 437f 813c 1130 4cbd 9158 103f
000000c0: bde9 ac3e 4cf5 c23d 5282 92be ee64 303e
000000d0: 3024 883e 2cb7 15be 2754 a5be a05c bc3e
000000e0: 2b02 083e 6b7b 63be 2431 c1be 9473 663f
000000f0: 4768 3a3e f03f 073e a0e1 99be 997a eabd
00000100: 1988 e4bd f27f 513e 5128 b1be 8975 6f3e
00000110: 4ef3 dbbe 7701 423d 3452 a9be c483 103f
0.32133698 0.2180405 -0.16456494 -0.25247064 0.10743841 0.16240618 -0.32515955 0.28395513
-0.15946284 -0.050708506 -0.37766176 0.97010505 0.1432628 -0.15503159 0.14160952 -0.347969
-0.0945173 0.024799433 -0.4633824 -0.021190032 0.084463 -0.23948205 0.13842356 0.83244526
0.3210434 0.1908923 -0.26261854 -0.38305068 0.37705946 0.32445252 -0.16221306 -0.0681982
-0.2686678 -0.030149026 0.1024679 0.9613981 0.09003138 0.055557866 -0.27055112 -0.07298329
0.03782051 0.25322843 0.015059717 0.35514715 -0.3349905 0.015807753 -0.049850527 0.5638514
0.33772078 0.09519443 -0.28615052 0.17226002 0.2659011 -0.14620656 -0.32290766 0.36789417
0.13282077 -0.22215049 -0.37732804 0.9002011 0.18203841 0.13207984 -0.3005495 -0.11449165
-0.11158771 0.20458964 -0.3460107 0.2338468 -0.42959064 0.04736468 -0.33070529 0.5645106

linear_relu_stack.4.bias f4 [6]
00000000: f820 afbd 0151 5c3d 35f5 69bd 589e 493e
00000010: 0dbd 50be 8e24 ca3c
-0.0855121 0.05378819 -0.057118613 0.1968931 -0.20384617 0.024675634

linear_relu_stack.5.weight f4 [1, 6]
00000000: c146 96be 2c74 0ebe 00e1 dabe 6a98 bcbe
00000010: 8576 e7be 569b dcbe
-0.29350856 -0.13911504 -0.42749786 -0.36835033 -0.4520761 -0.43087262
