timeseries/models/fnn.pth (torch, 188951 bytes, 21 tensors)

conv_stack.0.weight f4 [32, 100, 3]
000000 7b 76 de bc a4 0d 4b bd ff 24 d5 bc 36 b8 65 3c
       -0.027156105 -0.049573556 -0.026018618 0.01402097
000010 23 51 61 3d 32 01 8e 3c de 58 6c 3c 5b ea f2 3b
       0.05500902 0.017334554 0.014425484 0.0074131913
000020 66 78 04 3d dc b5 a4 bc 85 e5 bd bc b9 e7 20 bd
       0.032341383 -0.020106249 -0.023180733 -0.039283488
000030 3c 4f 1b 3c 80 59 87 3d a3 b3 5c bc bc 05 08 3d
       0.00947934 0.06608868 -0.013470563 0.033208594
000040 f0 7b 4a bd db 2b b0 3b 6e 94 11 3c a0 c5 7b 3c
       -0.049434602 0.0053763217 0.008885486 0.015366942
000050 cf 29 8d bd 6a e3 2a bd 5d 98 3a bc ab 99 fa 3c
       -0.0689274 -0.041720785 -0.011388865 0.030590853
000060 d2 cc da 3c 97 4c bf 3c 0f bc 1c bd 1e e0 2f 3d
       0.026708994 0.02335195 -0.038265284 0.042938344
000070 23 e1 10 3d 35 71 80 3a 0f 14 2c bc 5c 7d 9d bc
       0.035370957 0.0009799363 -0.010502829 -0.019224815
000080 04 a3 4f 3c 59 68 bb 3c 4f 6b f7 bc f8 26 68 bd
       0.012673143 0.022876905 -0.030202536 -0.05667779
000090 3f a3 80 bc d7 3f 87 3c ca 9c 00 3c bf cd 2e 39
       -0.015702842 0.016509933 0.007849881 0.0001667058
0000a0 bb 64 b6 bb 19 0a b8 bc 1e 14 d6 bc 24 8f 62 bd
       -0.005566207 -0.022465752 -0.02613264 -0.05531229
0000b0 a1 5d 12 3c 03 75 3b bd 00 f8 79 3c 8d e7 af 3d
       0.008933456 -0.045765888 0.015256882 0.08589087
0000c0 7f 35 68 3d bf 1c ef 3c 40 04 0d 3d 34 a5 6c 3c
       0.056691643 0.029188512 0.03442788 0.014443684
0000d0 be 36 23 3c b0 c6 32 3d 09 15 ef 3c 3d 6f cb 3c
       0.009961782 0.043646514 0.029184835 0.024833316
0000e0 86 5c 32 3d 24 e8 b4 3c ef 67 88 3c 24 57 cd bc
       0.04354527 0.02208335 0.016651122 -0.025065966
0000f0 27 3d e5 3c 2d 72 08 3d 33 70 f2 bc 58 50 a2 3b
       0.027983261 0.03331201 -0.029594516 0.0049534254
000100 18 1d dd 3c 71 0f 87 3d 88 7a 3f bd 9c 79 1e bc
       0.026991412 0.06594742 -0.046747714 -0.009672549
000110 33 92 6a 3d d2 fe f9 3c f8 10 07 3d c0 7f 54 3d
       0.057268333 0.030517016 0.032975167 0.051879644
000120 88 ed 27 3d 93 a6 25 bd e3 6c a9 bc 23 c0 c4 bb
       0.04099801 -0.04044206 -0.020681804 -0.00600435
000130 e5 5a 2a 3c 71 91 62 bd b2 b4 29 bd b3 ed b2 3c
       0.0103976475 -0.055314485 -0.04143209 0.02184186
000140 be f5 23 3d b0 39 29 bd 82 93 49 3d 36 6b 2d bd
       0.04002928 -0.04131478 0.04921294 -0.042338572
000150 17 fa 2d 3d f9 62 dd 3c bf aa 01 3c 1e d6 1f 3b
       0.042474832 0.027024733 0.007914244 0.0024389098
000160 be bc c0 bc 96 68 8a bd 73 9a 8d bc 6f 29 ea bb
       -0.0235275 -0.067582294 -0.017285561 -0.0071460526
000170 48 b6 6e bd 95 86 07 3b 73 7a 16 bd c9 c5 ef 3c
       -0.058279306 0.0020679582 -0.03673787 0.029269116
000180 7f d9 1e bc 07 87 c2 bc 1f 98 56 bd 79 d7 73 3c
       -0.00969541 -0.023746027 -0.052391168 0.014882916
000190 31 fd 12 3d 0f 91 5a bd ff f4 25 3d 3e ba 2e bd
       0.035885993 -0.053360995 0.04051685 -0.042658083
0001a0 81 55 55 bd 7e 64 97 3c 15 8b 82 bd 54 e3 7f bb
       -0.052083496 0.018480536 -0.06374184 -0.003904541
0001b0 f6 f3 37 3d d4 08 d0 3c 91 b9 59 bd a8 39 f8 3c
       0.044910394 0.025394835 -0.053155486 0.03030093
0001c0 7c 7f 26 3d 9f 56 ba bc 3d 33 52 bd 4a 38 08 bd
       0.040648922 -0.022746382 -0.051318396 -0.033256806
0001d0 cf 22 c5 3b 23 ad 25 bd 12 0a 3d bc 6e 3e 3f 3b
       0.0060161124 -0.04044832 -0.0115380455 0.0029181498
0001e0 a2 72 2f 3d c2 2c 4e ba 4e 31 04 bc ca 1b b8 3b
       0.04283393 -0.0007864946 -0.008068396 0.005618547
0001f0 66 37 6b 3c f2 74 85 3d a0 af cb 3b d2 82 25 3d
       0.01435647 0.06516446 0.0062160045 0.040407963
000200 e2 d5 95 3d 57 b6 72 3d 2e 8c b5 bc 85 29 56 ba
       0.073161855 0.059255924 -0.02216157 -0.0008169639
000210 7f d4 08 bd fb 6d 26 3c 8f 73 4f 3d 8c 37 33 b9
       -0.033405777 0.010158057 0.050647315 -0.00017091463
000220 34 6d 4f bd b1 98 1f bd a2 53 a3 3c 04 65 03 bd
       -0.050641254 -0.038963977 0.01993734 -0.032078758
000230 b0 6d 52 3d 38 e2 cd 3b c8 73 0f 3c 54 62 ef 3c
       0.051374137 0.006283071 0.008755632 0.029221691
000240 93 9a 53 3d f5 61 00 3b fa 15 f1 bb d9 c4 ef bb
       0.051661085 0.0019589637 -0.007357356 -0.0073171672
000250 12 25 57 3d 52 99 b2 bc 8f b9 cc 3c da 3d 44 3d
       0.052525587 -0.021801624 0.024990825 0.04791055
000260 1c 74 c6 3c 4b 9d 98 3c e4 f6 8c 3c db 48 84 bd
       0.024225287 0.01862969 0.01720757 -0.064592086
000270 8f 75 3f 3d 9f 72 b6 bc e2 cc e4 3c 44 43 70 bd
       0.046742972 -0.022271452 0.027929727 -0.0586579
000280 42 de 86 3c 40 2f 57 bd eb 09 44 bd 84 d3 b6 bc
       0.016463403 -0.052535295 -0.04786102 -0.022317655
000290 21 05 52 bd c1 fd 97 3c 6a a3 5a bc 77 df 9b bd
       -0.051274423 0.018553616 -0.013344625 -0.07610982
0002a0 42 63 5e bb 13 8a 20 3d a0 82 98 3c f7 9e c5 b9
       -0.0033933674 0.039194178 0.018616974 -0.00037693206
0002b0 47 83 9f bc 45 8a 75 bd aa 8a b3 bc 2d 95 63 bd
       -0.019471778 -0.059946317 -0.021916706 -0.055562187
0002c0 ee 2c 15 bd e1 19 e9 3c de 81 82 3c c1 d4 99 3c
       -0.0364198 0.028454723 0.015931066 0.018778207
0002d0 ea 46 52 3d 9a 24 68 bb 28 2a c0 3c a9 c6 46 bd
       0.05133716 -0.0035422207 0.023457602 -0.0485293
0002e0 5b 2b de 3c 30 04 87 3c 81 ae 8e 3c f0 43 b5 3b
       0.027120283 0.016481489 0.017417194 0.0055317804
0002f0 1e 8e 4c 3d a2 60 99 3b eb 51 43 3d 9c dd 99 bc
       0.04994022 0.004680709 0.047685545 -0.01878243
000300 c1 fa 1b 3d 6c 64 4b bc b5 a2 4d bb 14 3f 52 3d
       0.038080934 -0.012414079 -0.0031377499 0.051329687
000310 f9 65 3e 3d 34 02 8f 3c 79 94 25 bc 5d f3 e2 bc
       0.046483967 0.017457105 -0.010106199 -0.027703935
000320 02 03 5b bb fb 52 1b 3a e1 77 03 bd ce a0 fb bc
       -0.003341854 0.0005925146 -0.032096747 -0.030716326
000330 60 76 10 bd 19 10 5a bd d0 12 d6 3c 7c fb 20 3d
       -0.03526914 -0.05323801 0.026132017 0.039302334
000340 72 7c cc 3c 94 6f f3 bc 4c dd ba bc c9 7a 56 bd
       0.024961684 -0.02971629 -0.0228106 -0.05236319
000350 d6 22 ae bc 2f 27 bd 3c 03 1c 27 3d cc 5b 83 3c
       -0.021256845 0.023089973 0.0407982 0.016034983
000360 6f a8 da bc 01 3b 43 bd be 22 45 3d 89 b4 e3 3a
       -0.026691644 -0.047663692 0.048128836 0.0017372529
000370 1a 46 ba bb 27 19 49 3d 8d 4f 20 bd 0b 65 0a 3d
       -0.0056846263 0.049096253 -0.039138366 0.03378777
000380 35 81 ea ba 7b fb 21 bc 90 d1 5b bc b3 9c 8b 3c
       -0.001789129 -0.009886618 -0.013416663 0.017042493
000390 6e 13 63 bc 31 29 0b 3d f2 89 ce 3c ba 75 a3 bc
       -0.013859613 0.03397483 0.025212262 -0.019953597
0003a0 66 9c a0 3d 3e 41 66 bd 7d af 8e 3c 13 e6 66 3d
       0.07842331 -0.056214564 0.017417664 0.05637176
0003b0 63 51 91 bd 41 ac e7 bc 89 30 0d 3d d6 38 99 bc
       -0.070956014 -0.02828038 0.034470115 -0.01870386
0003c0 ea a8 98 3c 5e ca e1 3b b1 74 fb bc e5 bf 0b bd
       0.018635232 0.006890579 -0.030695291 -0.03411855
0003d0 2c 5b 7e bd 81 22 a4 bd db 2f 28 bd ac 34 e7 3b
       -0.062098667 -0.080143936 -0.041061264 0.0070558395
0003e0 48 cd c4 3b 64 86 66 b8 ca 15 06 bd d4 bc 95 bd
       0.0060059167 -5.4961434e-05 -0.032735623 -0.07311407
0003f0 17 23 11 3d 8b 68 b2 bc ac 06 67 bd 84 73 4e 3d
       0.035433855 -0.021778366 -0.056402847 0.050403133

conv_stack.0.bias f4 [32]
000000 fa eb e0 bc 64 3a 99 3b 91 de 3f bd 88 a7 98 3d
       -0.027456272 0.00467615 -0.046843115 0.07453829
000010 4e ba 34 bd 53 34 f7 3c 13 0f b5 3d 11 fc a1 3d
       -0.044122986 0.030176317 0.08840766 0.07909406
000020 89 e3 6b 3d 46 fb e6 3c b5 63 5b bc ea 7f 5e 3d
       0.05759004 0.028195988 -0.013390471 0.054321207
000030 5f 37 38 bd 3a 9e d6 bd 5c cb f1 3d 01 1c 59 3c
       -0.04497468 -0.10479398 0.11806366 0.013251306
000040 1d 1d 2d bc 52 f6 34 bd 3c 29 a9 3d 68 64 0c 3e
       -0.010566023 -0.04418022 0.08259818 0.13710177
000050 8a e5 1d 3e e7 20 02 bd 2a 0a b4 bd 4b 5d 8d bd
       0.15419593 -0.03176966 -0.08791001 -0.0690256
000060 bd 70 57 bd a2 cd 9b bd 1f 1f b1 3d 28 cc 42 3c
       -0.05259775 -0.07607581 0.08648514 0.011889495
000070 45 93 04 bd 83 be ee 3d 3f 78 7b bc 94 6a b8 3c
       -0.03236701 0.11657431 -0.015348493 0.022511758

conv_stack.2.weight f4 [32]
000000 fe e7 80 3f 81 65 78 3f d8 5e 7d 3f 38 b1 7f 3f
       1.0070798 0.9702988 0.98972845 0.9987979
000010 d0 25 7e 3f a0 ad 7c 3f 08 52 78 3f 2a 68 85 3f
       0.9927645 0.9870243 0.9700017 1.0422413
000020 4d 97 7f 3f 5a 66 7f 3f 6c fe 7c 3f d6 bb 80 3f
       0.9984024 0.9976555 0.98825717 1.0057323
000030 d3 43 7f 3f bf 1b 83 3f 9d 8e 7b 3f c5 3d 7c 3f
       0.99712867 1.0242842 0.98264486 0.9853175
000040 64 d3 7f 3f 5e 93 80 3f a0 01 7c 3f 9d 1b 81 3f
       0.9993193 1.0044973 0.9843998 1.0086552
000050 da a0 82 3f 41 62 81 3f 31 68 7a 3f 9a 3d 80 3f
       1.0205338 1.010811 0.97815233 1.0018799
000060 5b 60 7e 3f 46 ab 7a 3f 26 32 80 3f b6 f1 81 3f
       0.99365777 0.9791759 1.0015304 1.0151889
000070 9c 9c 80 3f a9 6b 80 3f 23 dd 7b 3f 31 34 81 3f
       1.0047793 1.0032855 0.983843 1.0094053

conv_stack.2.bias f4 [32]
000000 d7 48 4d bb 2c 82 98 3b 69 f7 af 3b 47 2a 68 3c
       -0.0031323934 0.0046541896 0.0053700698 0.014170236
000010 b8 a7 90 3b 7f 01 12 bd 57 8b 0f bd 4d 0a db b9
       0.004414525 -0.035645958 -0.035044994 -0.0004177861
000020 bc 25 45 bb 41 38 65 bc b0 21 1f 3b 6a de a4 3c
       -0.0030082306 -0.013990463 0.0024281554 0.020125587
000030 d5 26 2a 3b 1b 11 ea bb 68 9b a7 bd f2 44 c1 3b
       0.0025963087 -0.0071431524 -0.08183938 0.0058981115
000040 a6 9e 4e bc 67 20 7a 3b 71 a9 89 bc cc 2d 3b bb
       -0.012611067 0.0038166286 -0.016804429 -0.0028561233
000050 36 62 15 bb 5f ae 81 bb be 44 e1 3c 5e 9c 24 3c
       -0.0022794134 -0.003957554 0.0274986 0.0100470465
000060 14 55 a5 bb 8c 6d 09 bc 6e 4c 2e bb ff 56 1a bd
       -0.0050455425 -0.008387934 -0.0026595849 -0.037680622
000070 60 1c cd 3c 0e a7 8f 3b d4 47 5d 39 ad 2d ec bc
       0.025037944 0.004383928 0.0002110296 -0.028830374

conv_stack.2.running_mean f4 [32]
000000 0b dc a4 3e 19 b7 86 3e 97 2a 3b 3e 4d d8 b6 3e
       0.3219913 0.26311567 0.18277965 0.357119
000010 d0 71 ae 3e 04 ae 93 3e f7 84 df 3e 50 4c 35 3e
       0.34071207 0.288437 0.43656132 0.17704892
000020 b2 70 66 3e 3f 05 0b 3e 18 be 39 3e 3c fe c9 3e
       0.22503927 0.1357622 0.18138921 0.39451778
000030 fe 4b 85 3e 2c bc 15 3e 67 1d 64 3e 14 71 70 3e
       0.2603454 0.14622563 0.22276841 0.23480636
000040 ed 46 45 3e 32 ef 13 3e fc be e0 3e 70 06 8e 3e
       0.19265337 0.14446715 0.4389571 0.27739286
000050 4c 9d 42 3e 7f 3f c8 3d b6 c7 80 3e 66 bd ba 3e
       0.19005316 0.09777736 0.25152367 0.36472625
000060 8b 8b 31 3d 5c 51 ec 3d 9c aa a0 3e 3a d9 0a 3e
       0.04334597 0.115389556 0.31380165 0.13559428
000070 9a aa aa 3d 25 11 84 3e 67 5d 37 3f 40 a9 42 3e
       0.08333321 0.2579433 0.71626896 0.19009876

conv_stack.2.running_var f4 [32]
000000 3a 3f e4 3e 65 db 8d 3e 1d 63 5a 3e 1b f7 ba 3e
       0.44579488 0.27706447 0.21326871 0.36516652
000010 34 b1 06 3f 00 db 87 3e ce 65 11 3f 69 54 d8 3d
       0.5261414 0.2653427 0.56795967 0.10562975
000020 d3 5e 22 3e 71 2e 7e 3d 3b 9f 07 3e f2 3f 15 3f
       0.15856485 0.06205601 0.13244335 0.583007
000030 d2 c9 97 3e 5c 3d f9 3d b5 59 e1 3d 59 d3 7b 3e
       0.29646164 0.121699065 0.110034384 0.24592341
000040 f9 74 1d 3e 9c 2f bb 3d 10 cd 14 3f 47 30 4e 3e
       0.15376653 0.0913994 0.581254 0.20135604
000050 52 f2 4b 3d 51 24 33 3d 8f cf aa 3e c9 e3 29 3f
       0.04979164 0.043735806 0.3336148 0.663632
000060 b6 60 a1 3c fa c4 ae 3d 84 e9 a2 3e ca ad 7d 3d
       0.019699436 0.08533664 0.31818783 0.061933316
000070 61 dc 59 3d d3 b3 17 3e b3 68 f8 3f 78 69 f0 3d
       0.053188685 0.14814691 1.9406952 0.117388666

conv_stack.3.weight f4 [64, 32, 3]
000000 1f f0 5c bc 71 58 86 3d 18 7e 56 3d 81 e7 09 bd
       -0.013484984 0.065598376 0.052366346 -0.033668045
000010 c4 ec 75 bd 75 30 d4 3d 2e 49 9f bb f1 d4 d8 bd
       -0.06004025 0.10360805 -0.0048610186 -0.1058749
000020 c4 b7 bc 3d 6b 85 9c bc 47 a5 45 bd 38 8d cb 3d
       0.09214738 -0.019106587 -0.048253324 0.09939045
000030 5a 1a 93 bd 51 01 81 3d de f0 6c bd c9 39 a9 3d
       -0.071827605 0.06299079 -0.057846896 0.08262975
000040 82 b2 f6 3b 93 18 32 bc 43 08 c2 bd 2f c4 b8 bd
       0.007528604 -0.010870117 -0.09474232 -0.09021794
000050 be 77 9e bd 5b f8 f5 3c e9 8b b2 bd 23 6e a2 3c
       -0.07737683 0.030025652 -0.08718092 0.019827908
000060 20 53 db bc ed 3f 3e 3d 60 f2 af bc ae 35 b6 bb
       -0.026773036 0.046447683 -0.021477878 -0.0055605983
000070 10 9d 69 3d 63 37 cb 3c 52 4d 8f bd 79 a6 98 bd
       0.057034552 0.024806684 -0.069971696 -0.07453627
000080 0c 15 97 bc bf fc 5d bd c4 b8 81 bd 70 fe 5b 3d
       -0.018442653 -0.054196116 -0.06334069 0.053709447
000090 6b 10 88 bd fe 83 cc 3d 61 3f aa bd 53 52 b6 bd
       -0.066437565 0.09986113 -0.0831287 -0.08902421
0000a0 fd a0 67 3d 91 ad 1a bd b8 dc 30 bd 90 72 26 3d
       0.056550015 -0.037763182 -0.043179244 0.0406366
0000b0 e7 f5 5a bc a3 4e 85 bd f0 b8 a0 bd 44 4a f1 bd
       -0.013364292 -0.065091394 -0.07847774 -0.11781743
0000c0 25 5f 3e bd 8b 04 17 3d f7 e0 f4 3c be 9d 92 3c
       -0.046477456 0.036869567 0.029892428 0.017897483
0000d0 b7 67 06 bd 50 3d 38 3d 04 d0 8e 3d 2e 39 c6 3d
       -0.032813754 0.044980347 0.069732696 0.09678875
0000e0 8d 95 bc bd 3e 64 50 3d 53 d3 32 3c 90 81 23 bd
       -0.09208212 0.05087685 0.010914641 -0.039918482
0000f0 fc 5e 2e 3d 04 9c ed 3d 56 99 d3 bd a5 7d 53 3d
       0.042571053 0.11602023 -0.10331981 0.051633496
000100 d3 fb c9 bc c3 a4 e3 bb 1e bb 83 3d a1 9a 27 3d
       -0.024656212 -0.0069471314 0.06432174 0.04091895
000110 7c 4b df bc c0 3b 2d 3d d9 92 51 3c 83 4f c1 3c
       -0.027257673 0.04229331 0.012791359 0.023597484
000120 2d 25 8e bd 3b 1e c9 3d b8 eb 6a bc a7 56 ad bc
       -0.069406845 0.09820219 -0.014338426 -0.021159483
000130 4c 22 96 3d 13 04 8f bd 71 8c a8 bb e2 bd 55 bd
       0.0733076 -0.06983199 -0.005143695 -0.05218304
000140 55 53 66 bd 12 e3 bd 3d 15 1f 73 3d 3c 34 87 3d
       -0.056231815 0.09271826 0.059355814 0.0660176
000150 25 5c e5 3c ee 50 4e 3d a2 9f 83 bd e9 3c cd 3d
       0.02799804 0.05037015 -0.06426932 0.10021383
000160 70 e1 cb 3d 21 78 bb bc 3a 54 9a 3c 19 fa 68 bd
       0.09955108 -0.02288443 0.01883899 -0.056879137
000170 fe 0e 99 bb ee b2 9d bd 8b 48 d4 3d 2a f4 ad bc
       -0.0046709767 -0.07700144 0.10365399 -0.02123459
000180 8b 62 32 bd 2a fd 36 bd 74 dd 39 bc 82 74 60 3d
       -0.04355101 -0.04467503 -0.011344302 0.05479861
000190 e6 bc a3 3d 40 94 67 3d d3 82 ad 3d 83 8a 54 3d
       0.07995014 0.056537867 0.08472218 0.051889908
0001a0 8e f9 c6 3d ab 14 de 3c 60 41 24 3d 4e 25 dd bc
       0.097155675 0.027109465 0.04010141 -0.026995327
0001b0 5a 15 80 bd 26 26 90 bc 87 e7 25 bd 85 29 0d bd
       -0.062540725 -0.017596316 -0.040504005 -0.034463424
0001c0 8f 67 90 3d d7 95 c7 bd 88 50 cf bd 44 cf 61 3d
       0.07051002 -0.097453766 -0.10122782 0.055129305
0001d0 4d cb 6c 3d b3 a6 3a 3d 09 a4 0f bd 2d 48 85 3b
       0.05781107 0.045569133 -0.035068545 0.004067442
0001e0 59 94 bf 3c 0d 6a 10 3b 5c 8f 1d bc 1a 5e 29 bc
       0.023386167 0.0022035867 -0.009616699 -0.010337377
0001f0 11 ba 51 3d 9b f0 d3 3d a3 08 67 bd cd 9a 93 3b
       0.051202837 0.10348626 -0.05640472 0.0045045377
000200 04 f5 5a 3d 6d 4e f3 3d c6 6d c8 bd 93 d2 84 bd
       0.05345632 0.11880193 -0.097865626 -0.06485476
000210 7b a3 11 3c ea e5 92 3d aa c2 9d bd 96 63 4f 3d
       0.008889074 0.07172759 -0.07703145 0.050632082
000220 75 93 83 3d 23 98 01 be 8f a2 75 bd fb e1 bf 3c
       0.064246096 -0.12655692 -0.05996948 0.023423186
000230 8d 94 ad 3c 27 fd a9 bd ab 91 37 3d 31 13 54 bd
       0.021188999 -0.08300238 0.044816654 -0.051776115
000240 1b 0e 8e bd 74 68 c4 3d 80 37 cb 3b 61 ea c2 39
       -0.06936284 0.09590235 0.0062016845 0.0003717719
000250 2f ee a2 bd d2 e2 ad 3b a2 a1 76 bd 97 26 49 bd
       -0.07955586 0.00530658 -0.06021274 -0.049109068
000260 11 a1 da 3c ae 3d c4 bc 7e 31 d2 3d f3 c9 d8 3c
       0.02668813 -0.023955192 0.10263346 0.026463484
000270 1c 54 aa 3d 4c 93 4d 3d 47 f8 48 3c fb f7 6d 3d
       0.08316824 0.0501893 0.012266225 0.05809782
000280 89 2a c4 3d 00 1e 91 bc d6 17 4e 3d f9 51 5c bd
       0.095784254 -0.0177145 0.0503157 -0.053789113
000290 da 1f aa bd 6f 15 93 bd 25 f2 b7 bc 74 cf 45 3d
       -0.083068565 -0.071818225 -0.02245433 0.048293546
0002a0 51 49 5b 3c 2e b0 df bd 08 33 01 bd 8b 76 9d bd
       0.013384179 -0.109222755 -0.031542808 -0.07688626
0002b0 c0 ad 84 bd 1c 90 87 bd 66 85 b0 bd 11 82 9b bd
       -0.06478453 -0.066192836 -0.08619194 -0.075931676
0002c0 e5 29 ac 3d 6b 43 07 be b0 52 46 3d 4d 2a 20 3d
       0.08406428 -0.13209312 0.0484187 0.03910284
0002d0 c1 f3 f8 bb 46 c6 76 3d 3c 55 ce bd 8f 1d 68 bd
       -0.007597417 0.060247682 -0.10074851 -0.056668814
0002e0 00 24 e0 bc 55 5b 0a 3d c6 e2 14 bc e7 ef 16 3d
       -0.027360916 0.033778507 -0.00908727 0.036849882
0002f0 11 1f c7 3c 57 e3 e0 3c 0d a9 c4 bc 3f 93 9b bc
       0.024306806 0.027452154 -0.024006391 -0.01899111
000300 f7 71 7b bd ce 86 9d bd 40 c1 91 3c 59 99 cc 3d
       -0.061387982 -0.076917276 0.017792344 0.09990186
000310 53 ab 5d bd 09 40 76 bd 6e ea d4 3d 74 54 36 bd
       -0.054118466 -0.060119662 0.103962764 -0.044514135
000320 a1 72 d0 3c cb 57 6b bd d6 da 9d 3d 87 d2 7e 3d
       0.025445284 -0.057456773 0.07707755 0.062212493
000330 66 64 7d 3d f6 ac 6b bd e3 6c dd bc 70 ae 13 bd
       0.061863326 -0.057537995 -0.02702946 -0.03605503
000340 a0 d3 2f 3d ab 09 87 bd e0 97 d0 3d 91 29 f2 3c
       0.04292643 -0.06593641 0.10185218 0.029560836
000350 4b e4 d8 3c 08 af 8d bd 4a e5 20 bd b8 50 d9 bd
       0.026476046 -0.0691815 -0.039281167 -0.10611099
000360 01 f8 a9 3d 37 b5 c6 bd ee c9 30 bc 88 f9 38 bd
       0.08299256 -0.09702533 -0.010790331 -0.045159847
000370 f6 36 63 3d 33 3c 9a bd 2c fa 9d 3d 67 91 15 bd
       0.055472337 -0.07531013 0.07713732 -0.03651562
000380 ef e6 8d 3d 3c 19 c0 3d 8d c0 71 bc d0 5d 1c 3d
       0.06928813 0.09379813 -0.01475538 0.038175404
000390 b4 75 9b 3c b8 cc 97 bd 91 d8 b0 bb bd 60 85 3d
       0.018977024 -0.07412094 -0.0053969105 0.06512592
0003a0 10 8c 0d 3d 60 31 dd 3d 75 d3 97 bd 9d cc 92 3c
       0.034557402 0.10800433 -0.07413379 0.017919833
0003b0 3f 54 4b 3d a1 c9 d4 3d 65 1f a3 bd a7 78 b9 bc
       0.04964089 0.1039002 -0.079649724 -0.02264054
0003c0 d1 1b ae bc 03 1c 96 bc 5e bf a1 bb f7 86 bc 3b
       -0.021253498 -0.018323904 -0.004936143 0.0057533938
0003d0 87 e5 7c 3d 10 99 66 3d 51 bc 8a bb e1 0a 86 bc
       0.06174233 0.056298316 -0.004233875 -0.01636261
0003e0 b2 9e 90 bc 1d 25 a3 bd 99 3c 0f bc 2f 63 e5 bd
       -0.017653797 -0.07966063 -0.008742475 -0.112005584
0003f0 3e 88 9b bd eb 44 7d bd 48 2f 82 3d fe 71 84 3d
       -0.075943455 -0.061833303 0.063566744 0.06467055

conv_stack.3.bias f4 [64]
000000 41 69 d0 3d b0 b8 8e bd 40 c8 11 be 84 05 03 3d
       0.101763256 -0.0696882 -0.14236546 0.031987682
000010 ef ad 03 3e 1d 80 5e bd 87 e1 ce 3d d7 b5 b4 bc
       0.12859319 -0.054321397 0.1010161 -0.022059364
000020 b3 e6 b4 3c 33 91 2a 3d 2f 45 d2 bd 0a 76 c6 bc
       0.022082662 0.04164238 -0.10267102 -0.024226207
000030 ad 24 ba bd 66 75 d4 bd 29 ae a7 3d c8 87 f4 3d
       -0.090890266 -0.103739545 0.08187515 0.11939961
000040 c2 aa 7a 3d f1 cc 8d 3d 77 db b3 bc 31 5c 67 bd
       0.061198004 0.06923855 -0.021955235 -0.056484405
000050 0d 83 9c bd 62 00 0a 3e 49 66 8c bd 60 49 d0 bd
       -0.076421835 0.13476709 -0.06855447 -0.10170245
000060 bb 16 f0 3c 19 8a 03 3d fb ae a4 3d 50 bd 91 3d
       0.029307714 0.032114122 0.080411874 0.071161866
000070 79 bf c4 3d 04 98 85 bc e8 74 fc bd 37 e6 c3 bd
       0.09606833 -0.016307838 -0.123269856 -0.09565394
000080 81 6e 48 3d da b5 11 bd 62 c5 c0 3d 7c 3d a4 bd
       0.04893351 -0.035573818 0.09412648 -0.0801954
000090 4e 4b 69 3d 8c 41 1d 3d cd 2f 6b bc af 1e 02 3e
       0.05695658 0.03839259 -0.014354658 0.12707017
0000a0 b3 23 49 3d 2e 07 13 3d bd 41 92 bd 3e 70 98 3d
       0.04910631 0.03589552 -0.07141445 0.074432835
0000b0 f1 a3 f5 3c 22 30 ae 3c da 06 36 3d e4 a0 7b bd
       0.0299854 0.021263186 0.044440128 -0.061432734
0000c0 5e 2a ab bd 57 6e c6 bd 13 01 87 bc 98 79 fc bc
       -0.0835769 -0.096890144 -0.016480004 -0.0308197
0000d0 b3 29 e7 3d f5 d6 9c 3d ae 5d 7c bd 13 bd 30 bc
       0.1128725 0.07658187 -0.061612777 -0.010787266
0000e0 61 e3 a3 bd 11 4b 9c bd 9d 2b 00 3d 10 dd 18 3c
       -0.080023535 -0.07631505 0.031291593 0.009330049
0000f0 72 43 8f bd 11 82 2a 3d ba ff 16 3d d4 bf 9a bd
       -0.06995286 0.041627947 0.036864974 -0.075561196

conv_stack.5.weight f4 [64]
000000 dd c5 7e 3f b6 c2 7b 3f 7e 52 80 3f 81 d6 79 3f
       0.99520665 0.9834398 1.0025175 0.9759293
000010 2c 03 81 3f 98 19 81 3f a4 1a 7f 3f b2 fa 83 3f
       1.0079093 1.0085936 0.99650025 1.0310881
000020 25 73 7c 3f 3f a7 7d 3f 4a 76 83 3f 14 c5 80 3f
       0.98613197 0.9908332 1.0270474 1.0060143
000030 9e 34 81 3f 45 af 82 3f f0 93 7e 3f 17 20 79 3f
       1.0094182 1.0209738 0.99444485 0.9731459
000040 b2 6c 7f 3f b5 23 7b 3f 0f d0 7c 3f 0b fa 7e 3f
       0.9977523 0.9810136 0.9875497 0.99600285
000050 7f 3d 7c 3f b3 7b 7f 3f f6 11 84 3f 67 dc 7e 3f
       0.98531336 0.99798125 1.0317981 0.9955506
000060 63 45 7f 3f 3f 12 7e 3f 4e a3 81 3f ac 51 7e 3f
       0.9971525 0.9924659 1.0127962 0.9934337
000070 74 0e 80 3f 1b 79 7f 3f 8f 19 83 3f be aa 80 3f
       1.0004411 0.9979417 1.0242175 1.0052106
000080 ec 81 7e 3f c7 b0 76 3f 2c e8 7e 3f ed 5b 7e 3f
       0.99416995 0.9636349 0.99573016 0.9935902
000090 f1 0a 7c 3f d7 af 7e 3f 4d fd 7c 3f c7 bc 7d 3f
       0.98454195 0.9948706 0.98824006 0.99116176
0000a0 f9 80 81 3f 6c f9 7f 3f 8f ef 76 3f 4d 97 83 3f
       1.0117484 0.9998996 0.9645929 1.0280548
0000b0 ab b9 83 3f 0b 77 81 3f f2 58 80 3f 5e 81 7a 3f
       1.0291036 1.0114454 1.0027144 0.9785365
0000c0 e9 1d 7c 3f 2a dc 80 3f 0d bf 81 3f 49 9b 73 3f
       0.9848314 1.0067189 1.0136429 0.9515882
0000d0 e6 b8 7c 3f 03 e7 76 3f 95 8e 7d 3f 97 60 80 3f
       0.9871963 0.96446246 0.9904569 1.0029477
0000e0 60 fc 84 3f 32 d5 80 3f 50 96 80 3f c0 05 7e 3f
       1.0389519 1.0065062 1.0045872 0.99227524
0000f0 a9 9c 80 3f cb 6b 80 3f 2d 4c 7f 3f 3c 94 80 3f
       1.0047809 1.0032896 0.9972561 1.0045238

conv_stack.5.bias f4 [64]
000000 54 43 08 bc 38 7a 06 bd 49 fb 12 3c 33 8c 72 bc
       -0.0083168335 -0.0328314 0.008971044 -0.014803934
000010 c4 47 3e 39 82 09 a3 3c bd 1c ed bc f9 6f 54 bd
       0.00018146547 0.019901995 -0.028944368 -0.051864598
000020 80 73 41 3d 40 95 a1 3c ec 77 dc b9 0e b2 9e bc
       0.04722929 0.019724488 -0.0004205102 -0.019372012
000030 27 09 3a bb 07 b2 c1 3c 21 d3 eb 3c 57 1c 01 3d
       -0.0028386803 0.02364446 0.028787198 0.031521168
000040 54 15 d1 bc de cd 86 3c 98 e0 8c bc 05 8f c1 bc
       -0.025522865 0.016455587 -0.017196938 -0.023627767
000050 4a c6 f3 3a 4d 1a 78 3c f5 31 92 bc 0c c4 7b 3d
       0.0018598523 0.015142989 -0.017846087 0.06146626
000060 d4 1b 79 bc d0 62 0f 3d 93 8a e2 bb 60 04 ae 3b
       -0.015204389 0.035006344 -0.006913492 0.00531058
000070 7d 33 cc ba 76 b7 94 3a 87 30 b5 bc e2 61 ad 3c
       -0.001557931 0.001134618 -0.022117866 0.021164838
000080 2d cb d9 bc 5f 84 8d bb 4a ce 2a bd 46 96 d4 bb
       -0.02658614 -0.0043187584 -0.04170064 -0.0064876406
000090 1e 8e fb bb 2a 0b 58 bc 0c 29 82 3b 35 53 8a ba
       -0.007676854 -0.0131862555 0.0039721783 -0.0010553362
0000a0 d8 d2 14 bd 07 a0 c6 3c b6 a9 aa 3b c8 6d e5 bc
       -0.03633389 0.024246229 0.0052082194 -0.02800645
0000b0 39 8e bb bc 80 ba 10 ba a3 ac 8a 3c 5e fe 0a bd
       -0.022894965 -0.0005520955 0.016928023 -0.03393399
0000c0 0a 76 f3 3c 0a da 01 bd c0 5b a9 bc 11 58 a5 3c
       0.029719371 -0.03170208 -0.020673633 0.020183595
0000d0 be a7 17 3c e7 fd d7 3b ab e8 a0 bc f0 88 12 bc
       0.009256301 0.006591547 -0.019642195 -0.008943781
0000e0 2f 95 af 3b a5 60 8f bc 42 6a 9a bc fc ff 8e bc
       0.0053583602 -0.017502138 -0.018849496 -0.017456047
0000f0 f2 ad 88 bc 28 47 c1 bc 4b 22 0a 3d 5c cb a7 3c
       -0.016684506 -0.0235935 0.03372411 0.020482711

conv_stack.5.running_mean f4 [64]
000000 a4 db 62 3e b8 02 d2 3d b8 00 e6 3c d9 55 68 3e
       0.22154099 0.10254425 0.028076515 0.22688998
000010 2d ee 40 3e 7b c7 84 3d 13 d0 8e 3e a1 d7 e1 3d
       0.18840857 0.064833604 0.27893123 0.11027456
000020 88 2a 1d 3e 0b 80 39 3e 87 eb 49 3d 0e 98 4e 3e
       0.15348256 0.18115251 0.049296882 0.20175192
000030 d5 54 66 3d d4 ef 29 3d 97 fd 6c 3e ac c1 59 3e
       0.056233246 0.041488484 0.23143612 0.21265286
000040 2b 74 45 3e 64 97 42 3e f6 8e 1a 3e a8 c2 a0 3d
       0.19282596 0.19003063 0.15093598 0.07849628
000050 70 a9 4d 3e e1 cd 58 3e c0 c5 11 3e 44 65 a3 3d
       0.20084167 0.21172287 0.14235592 0.07978299
000060 fa 93 9a 3e b5 4a a5 3e fe 03 2a 3e 5c d8 39 3e
       0.30191022 0.3228356 0.16603085 0.18148941
000070 05 a3 2a 3e e8 28 48 3e 5c e1 71 3e 85 58 37 3e
       0.1666375 0.19546854 0.23621124 0.17904861
000080 46 ce 65 3e 80 32 8d 3e 01 31 a1 3e 62 a0 66 3e
       0.22441968 0.2757759 0.314827 0.22522119
000090 62 69 35 3e 2a 14 89 3e 7a 29 5f 3e be 10 39 3e
       0.17715982 0.26773196 0.21793166 0.18072793
0000a0 b9 d0 2e 3e d3 6f 1f 3e 7d dd be 3d a8 5b 7e 3e
       0.17071809 0.15570001 0.09319589 0.24839652
0000b0 de 80 02 3e 23 39 74 3e 48 2e 1b 3e 22 0d 41 3e
       0.12744471 0.23849921 0.15154374 0.18852666
0000c0 30 0a 18 3e 70 f6 df 3d ff 93 32 3e a4 21 8e 3e
       0.14847636 0.10935676 0.17439269 0.2776004
0000d0 3d b0 bb 3e de 24 4d 3e 52 16 8a 3d d6 33 60 3e
       0.36657897 0.20033595 0.067425385 0.21894774
0000e0 14 d6 1d 3d 56 a9 8e 3d 73 5a 44 3e 1d c5 2e 3e
       0.03853424 0.06965892 0.19175129 0.1706738
0000f0 e2 41 0b 3e 39 99 4f 3e 78 1e 0d 3e 37 71 f2 3d
       0.13599351 0.20273294 0.13781154 0.11838

conv_stack.5.running_var f4 [64]
000000 e1 a6 22 3e d6 21 7d 3d 1c 0d d6 3c e6 68 3b 3e
       0.15883972 0.061799847 0.026129298 0.18301734
000010 13 5c 7a 3d 67 2d 03 3d 52 73 71 3e 05 15 1b 3d
       0.061122965 0.03202572 0.23579147 0.037861843
000020 cc 0b a1 3d 12 47 0a 3e ec 00 1e 3d 94 a6 84 3e
       0.07863578 0.13503674 0.038575098 0.2590834
000030 86 df 0d 3d 2b 7f 26 3d df b5 ca 3d 84 da 82 3d
       0.034636997 0.04064862 0.098979704 0.06389335
000040 73 d1 e5 3d 41 2a c3 3d 72 ae 0d 3e 22 a7 ff 3c
       0.1122159 0.09529544 0.13836077 0.031207625
000050 ba c4 7c 3e 7f 2f 68 3d cb 64 cb 3d d2 78 60 3d
       0.2468442 0.05668592 0.09931334 0.054802723
000060 0c 1c 53 3e b6 85 be 3e 9d 4d 9d 3d b7 f7 16 3e
       0.20616168 0.37211388 0.07680819 0.14742933
000070 1e 29 a8 3d 78 0e 11 3e 37 50 61 3e bf c4 16 3e
       0.082109675 0.14165676 0.22003256 0.1472349
000080 5c d9 77 3e 97 e2 c5 3e b6 45 43 3e af 95 bd 3e
       0.2420401 0.38649437 0.19069561 0.37028262
000090 bb 25 7c 3d 57 51 65 3e 9e c3 3e 3e 95 96 61 3d
       0.06155942 0.2239431 0.1862931 0.055075247
0000a0 29 7c ad 3d 0d 4a 9c 3d 7d db e2 3d 95 f5 ea 3d
       0.08470947 0.076313116 0.1107702 0.11472622
0000b0 24 c0 5c 3d a4 1f 8f 3e 68 37 9b 3d 0c c4 68 3e
       0.053894177 0.27953827 0.07578927 0.22731036
0000c0 2f 56 de 3d ed df 07 3e 21 cf c0 3d 2e eb 87 3e
       0.10856282 0.13269015 0.09414507 0.26546615
0000d0 f7 be bd 3e 52 03 eb 3d 64 ae 45 3d 8c 3d 6e 3e
       0.37059757 0.11475243 0.048262015 0.23265666
0000e0 f2 93 da 3c 17 a6 38 3d 04 75 92 3d 80 92 b1 3d
       0.026681874 0.04508027 0.07151225 0.08670521
0000f0 b6 b7 ae 3d 5f de b8 3d e7 7f 45 3d d7 cd 9d 3d
       0.08531134 0.09026789 0.04821768 0.077052765

conv_stack.6.weight f4 [128, 64, 3]
000000 a7 56 34 bc f1 1c 32 bd 84 dc 8a 3d 9f 9c 6c 3d
       -0.011006988 -0.043484632 0.06780341 0.057766553
000010 fd 4f 96 3d 58 e7 17 3d 93 37 04 3d e0 e9 17 3d
       0.07339475 0.03708586 0.032279562 0.037088275
000020 1a 09 fe 3c 89 77 3c bd cd 46 17 bd 77 48 21 bd
       0.0310102 -0.046012435 -0.036932755 -0.03937575
000030 ec ab 87 3d 62 0b 03 bd 7c ac 2f 3d 1f d3 8d bd
       0.06624588 -0.031993277 0.042889103 -0.06925034
000040 0d 5c 26 bd 7c 3c bb bb 16 59 90 3d b5 a4 90 bd
       -0.04061513 -0.0057139974 0.07048242 -0.070626654
000050 92 c6 90 bc 2a 12 f0 bc 91 ab 07 3a 67 62 07 be
       -0.01767281 -0.029305536 0.00051754067 -0.13221131
000060 ed 1b 71 3d 1a 44 10 3d 7a 17 04 3c 9a 62 44 bd
       0.058864523 0.035221197 0.008062238 -0.047945596
000070 0e 2c 8f 3d d6 ab a4 bb 8e b2 ce 3c 0f f7 c8 3b
       0.06990825 -0.0050253673 0.025231626 0.0061329673
000080 f8 cb b8 bc 18 95 96 bd 20 14 3a bd b1 94 99 3d
       -0.022558197 -0.07352656 -0.04542935 0.07499064
000090 17 8f 82 3d de f9 70 3d a2 2a 94 bd c2 06 2f bd
       0.063749485 0.058832042 -0.07234694 -0.042731054
0000a0 a4 9d b4 bc 48 51 0b 3d 81 a1 27 3d 89 ec 70 bd
       -0.022047825 0.034013063 0.040925507 -0.058819328
0000b0 c2 43 85 3c f5 f2 b2 bd b0 6b d7 3c 23 95 22 3c
       0.016267661 -0.087377466 0.026296467 0.009923252
0000c0 c8 3a 83 3c 53 30 84 bd ff 10 4e 3d 34 8f 90 3d
       0.01601924 -0.064545296 0.050309177 0.07058564
0000d0 ad 1b d1 bc 61 30 0a 3d da 70 92 3c 83 bc e7 3c
       -0.025525892 0.033737544 0.017876077 0.028288132
0000e0 0c d9 05 bd f0 3d fb 3c 03 a7 e6 bc 87 1d 53 3d
       -0.032677695 0.030669183 -0.02815581 0.05154183
0000f0 0a 92 5d 3c da a9 d0 39 bc 84 84 bd 3c 68 e2 3b
       0.013523588 0.000397994 -0.064706296 0.0069093984
000100 ff a2 3b 3c e7 2c 01 3d 18 76 89 bd 63 6c a1 3c
       0.0114524355 0.031536963 -0.06711978 0.019705003
000110 5a 47 90 bd 1e a4 e6 3c 90 14 45 bd 34 e0 c7 ba
       -0.07044859 0.028154429 -0.048115313 -0.0015249313
000120 14 65 0a 3d c8 f9 16 bd 48 52 0b 3d 52 4f 40 bc
       0.0337878 -0.036859304 0.034014016 -0.011737661
000130 da 08 e4 bb 6a dd 8e bc 05 7e 76 3d 46 2c 7e bd
       -0.006959063 -0.017439563 0.060178775 -0.06205394
000140 67 24 02 3d ad 12 cc 3c 44 c6 ad 3d 20 18 2f bd
       0.031772997 0.024911249 0.08485082 -0.042747617
000150 67 88 6c 3d b3 de 0b 3d 2a dc bc bd 01 69 0a bd
       0.05774727 0.03414793 -0.092216805 -0.033791546
000160 11 98 3b 3d 41 0a ea 3b db 32 0b bd eb 9c 94 3c
       0.04579932 0.0071423356 -0.033984046 0.01814123
000170 9f de 5f bd a6 de dd bc f4 9c 37 bd 30 77 a9 3d
       -0.054655667 -0.027083706 -0.044827417 0.08274686
000180 b7 87 bb bc 3a 6a 02 3d 84 77 26 3d 20 13 12 bd
       -0.022891862 0.031839587 0.040641323 -0.03566277
000190 fe fe b0 bc a9 c8 44 bc d2 01 60 3d 24 00 6a bd
       -0.021605965 -0.012010732 0.054689236 -0.05712904
0001a0 46 10 6d bd 13 a0 00 bc d7 b8 55 3d 67 63 4a 3d
       -0.057876848 -0.007850665 0.05217823 0.049411204
0001b0 e3 08 67 3d 9f 8f 1f 3d d7 be 2c bc 93 dc 16 3d
       0.05640496 0.038955327 -0.010543547 0.03683145
0001c0 37 e9 91 3b bc 56 32 3d 08 01 45 3d 4d 89 34 bd
       0.00445285 0.043539748 0.048096687 -0.044076253
0001d0 9a 86 02 3b 21 54 10 bd a0 0b 9d bd 0c 5b ae bd
       0.0019916655 -0.03523648 -0.07668233 -0.085134596
0001e0 c5 fb 66 3d 6e ca 67 39 b6 79 90 bd 11 9b 1c bd
       0.05639245 0.00022105288 -0.070544645 -0.03823382
0001f0 6c 4b 91 bd 31 c4 25 3d f6 ad 91 bd 5c da 80 3d
       -0.07094464 0.040470306 -0.071132585 0.06291649
000200 ae 38 47 bd ca 3c 1f 3b 9d e5 4e 3d f0 b4 76 bd
       -0.04863804 0.0024297708 0.050511945 -0.06023115
000210 38 06 fa 3c d1 2e 4e 3a 24 97 18 3d 57 78 0d bd
       0.030520543 0.00078652526 0.037253514 -0.034538593
000220 fe d5 35 3c d4 13 b0 3c 0e fa 60 bd b2 ef ef 3c
       0.011098383 0.02149383 -0.05492597 0.0292891
000230 62 f3 bd 3c 4b 8f 42 bd 95 04 1b 3d 44 ac a6 bd
       0.023187343 -0.047499936 0.037846167 -0.08138326
000240 97 3d 36 3d 28 c2 6a 3d 35 4a 70 bd 5e 92 19 bd
       0.04449233 0.057314068 -0.05866452 -0.037493102
000250 47 b2 6c bd 80 d3 06 bd 61 8e 2b bd 2c 16 53 bc
       -0.057787206 -0.032916546 -0.04188383 -0.012883704
000260 f7 af d1 3d 13 64 6d bd f3 df fc bc ad 59 d5 bc
       0.10238641 -0.057956766 -0.030868506 -0.026043737
000270 b0 c1 0a 3d 59 2b 88 bc 6c 3a bd 3c 71 82 21 3d
       0.03387612 -0.016622232 0.023099147 0.03943104
000280 60 78 88 bd f5 c8 30 3c 97 87 35 bc 04 8d ba 3b
       -0.06663585 0.010790099 -0.01107969 0.00569308
000290 ed de dc 3c ed cb 33 bd ed 90 6e bb 74 eb 50 bc
       0.026961768 -0.04389565 -0.00364023 -0.012751449
0002a0 3b a6 1e 3d fa 31 4c 3d 12 40 e4 bc ed 2f a5 3c
       0.03873275 0.04985235 -0.027862582 0.020164454
0002b0 bd c2 91 bb 01 df d7 3c 55 0c 0b 3d a7 84 9e 3d
       -0.0044482634 0.026351454 0.033947308 0.07740145
0002c0 1c bf 57 3d 5d df 62 bd a3 45 82 3c c4 56 2d 3d
       0.05267249 -0.055388797 0.015902346 0.042319074
0002d0 60 dd 82 bd 3c b4 3b 3d 59 66 37 bd d6 62 26 3d
       -0.0638988 0.04582618 -0.04477534 0.0406216
0002e0 7a c8 8f bb fa b2 3c bd 46 e5 fa bb e5 ed 61 bd
       -0.0043879123 -0.046069123 -0.007656726 -0.055158515
0002f0 5a 0d 9e bd 18 4f 56 3c ce 8c 50 bd f0 0d 4f 3d
       -0.0771739 0.013080381 -0.05091553 0.0505504
000300 ed 91 3b bd f8 0f d8 bc a0 fc 2f 3d 24 c3 6b 3d
       -0.045793463 -0.026374802 0.04296553 0.057559147
000310 42 7f 83 3d a9 f9 34 3d c4 ef 4c bd 11 ff 4f 3d
       0.06420757 0.044183407 -0.050033346 0.05078036
000320 af 40 a3 3b 6e a9 4a bb 72 b6 96 3d ba 27 ab bd
       0.004982076 -0.0030923742 0.073590174 -0.083571866
000330 e1 9a 2d bd ed 92 75 bb 76 13 2d bd ad 59 ae bc
       -0.042384032 -0.0037471608 -0.042254888 -0.021282995
000340 f3 fb 4c bb 54 fa 27 bd 36 5c 8d 3c 48 e3 92 3c
       -0.0031278103 -0.041010216 0.017255884 0.017930642
000350 ca 81 d6 3b df bf a6 bc 5e 14 cc bb 4e 72 91 bd
       0.006546234 -0.020355163 -0.006228014 -0.0710188
000360 38 6f 06 3d b9 cd 10 bd ee af 4e 3d 66 20 dd bc
       0.03282091 -0.035352442 0.05046075 -0.026992988
000370 d2 da 06 3d a3 20 c6 3b 2e 17 8c 3d 41 65 26 bd
       0.032923527 0.006046371 0.06840359 -0.040623907
000380 f4 58 40 bc 8b 47 05 3d 26 df 12 bd b2 95 01 3d
       -0.011739958 0.03253893 -0.035857342 0.0316369
000390 2d 0c 5e 3d c5 d9 5c bd 73 2b 04 3c 04 b4 10 bd
       0.05421083 -0.05391862 0.008067 -0.035327926
0003a0 54 5e 1c bd b3 b1 a5 bd 94 4b 16 3d 62 6d c8 3c
       -0.038175896 -0.08090534 0.03669317 0.02446622
0003b0 b3 ce d5 bc e6 04 e5 3b a9 07 0e 3b 91 78 a5 bc
       -0.026099538 0.0069891093 0.0021672046 -0.020199092
0003c0 f7 be 0f bc e3 0b 39 bd 1b f1 0d 3d 6a 3b 30 3c
       -0.008773557 -0.04517735 0.034653764 0.010756353
0003d0 88 9f d2 3c df 7d 79 3d a8 f7 cc 3c 2f d6 8b bd
       0.025710836 0.060911056 0.025020435 -0.06827962
0003e0 48 40 94 bd 12 75 7e 3a 87 78 03 bd ce d4 60 bd
       -0.07238823 0.0009706776 -0.032097366 -0.054890446
0003f0 e0 39 51 bd 26 cd 2a 3d 9f 98 50 bd 7d ae 6f 3d
       -0.051080585 0.04169955 -0.0509268 0.058516014

conv_stack.6.bias f4 [128]
000000 01 ff c1 3c ea fb af bd df 4d 8c 3d 71 dd 8d 3d
       0.023681166 -0.08592971 0.0685079 0.06927002
000010 07 29 9e 3a 39 36 8f bd 61 61 80 3c 55 28 5d bd
       0.001206667 -0.06992764 0.015671434 -0.05399354
000020 ca 16 9f 3c 7d f6 e4 3c 12 e3 03 3c a6 74 56 3d
       0.019420046 0.027949566 0.008049743 0.05235734
000030 5f b7 11 3d 4e 60 24 3c 49 e2 84 3d 9c c8 46 3d
       0.035575267 0.010032726 0.06488473 0.04853116
000040 08 c0 62 3c 71 dd a3 3c 64 fe 07 3d 15 10 0c bd
       0.013839729 0.020003052 0.03320159 -0.034195025
000050 35 5f 3c 3d 1c c7 0e 3e 02 bf 2d bd 8b de 63 bc
       0.045989234 0.13943142 -0.042418487 -0.013908039
000060 f1 98 82 bc c2 58 55 bc a7 8a 39 3d 2a 15 25 bb
       -0.015942069 -0.01302165 0.045298245 -0.0025189617
000070 fa 1d c0 bb b3 99 39 3d 5b 92 b5 bc 9a f7 bf bd
       -0.0058629485 0.045312595 -0.022164514 -0.09373398
000080 31 1a 6a bd a0 e6 64 bd 77 bb 8b bb 0f 00 93 3c
       -0.057153884 -0.055884004 -0.004264291 0.017944364
000090 38 39 5a 3b 05 f9 1c 3d 13 89 94 3c 71 14 f4 3c
       0.0033298265 0.03832342 0.018131768 0.029794903
0000a0 b2 f3 35 3d 8f 34 66 3d 89 92 02 bc 3f dd d5 bc
       0.04442186 0.056202468 -0.007969507 -0.026106475
0000b0 05 24 81 bd 28 4e ab ba 8e c9 3d bd 1f 20 4a bd
       -0.06305698 -0.0013069557 -0.046334796 -0.04934704
0000c0 5d 8c bd bb 75 47 8a bd 57 3f 37 bc 89 24 99 bc
       -0.005784555 -0.067519106 -0.011184535 -0.01869418
0000d0 b8 8e 27 3d df 06 27 3d 02 e2 6f bd e2 8a 63 3d
       0.04090759 0.040778037 -0.058565147 0.05555237
0000e0 ed c1 aa 3d f7 d6 59 3d 84 93 b7 bd d8 e8 35 3d
       0.0833777 0.053183522 -0.08963683 0.04441151
0000f0 aa f2 33 bd ab b3 d2 3c 61 7b 96 3d 51 68 f3 3c
       -0.043932594 0.025720438 0.073477514 0.029712828
000100 61 ec ce 3b 73 7e 18 3d 5e 34 15 3c 44 fa 43 bd
       0.0063147997 0.037229966 0.009106724 -0.047846094
000110 ef 5c 10 3d 48 48 45 bb f2 d3 9d bd fc fc 56 bd
       0.03524488 -0.0030102897 -0.07706441 -0.05248736
000120 0c 34 3f bd 7c 71 73 3c 48 0c b5 3d cc a6 44 3d
       -0.046680495 0.0148586 0.08840233 0.048010632
000130 e8 30 08 bd 78 72 93 bd 8c 93 32 3d 18 39 3c bc
       -0.033249766 -0.071995676 0.043597743 -0.011488222
000140 8a 28 b6 bd 26 fb a0 3d 9d 5d 75 bd 5d 62 78 3c
       -0.08894451 0.07860403 -0.05990373 0.01516017
000150 9f e9 46 3d af c7 0d bd e2 fb b9 3c 32 e1 2b 3d
       0.048562642 -0.03461426 0.022703115 0.04196281
000160 02 e3 d4 3c ec 09 f7 3c eb fd 84 bd c4 28 49 bd
       0.025987152 0.030156098 -0.064937435 -0.049111143
000170 eb fe 10 bd 8c 66 70 3d a2 ad 02 bd 53 42 0a bb
       -0.03539936 0.058691546 -0.03190387 -0.0021096661
000180 74 b0 08 3d 0d ba 76 bd 79 43 37 bc f3 78 8b 3c
       0.033371404 -0.060236026 -0.01118552 0.017025447
000190 5c 03 0b bd f3 0b d3 bc 93 9f 75 3d 7a 8f 40 3c
       -0.03393875 -0.025762534 0.059966635 0.0117529575
0001a0 c6 50 2a 3d 43 6c ab bc df 80 23 3d 9b e7 02 3b
       0.041580938 -0.020925647 0.039917823 0.0019974473
0001b0 fd 33 41 bd 62 65 3f 3d 11 6a 03 bd 15 88 fa bc
       -0.04716872 0.046727546 -0.032083575 -0.030582467
0001c0 41 5b 25 3d 62 e9 3b 3d 8e 8a 07 3c 27 0f 64 3b
       0.04037023 0.045876868 0.00827278 0.003479907
0001d0 ad 0f 04 bc f5 19 86 bd 1c 88 96 bc 2e d1 9d 3d
       -0.008060378 -0.0654792 -0.018375449 0.077059135
0001e0 0a c3 91 3d 59 ce 1d bd 76 f5 c3 3d 7d 66 85 bc
       0.07117279 -0.038526867 0.09568302 -0.016284222
0001f0 85 dc 29 3d 02 9f 26 3d de 52 9c 3c 11 6e 6e 3d
       0.04147007 0.040678985 0.019082483 0.058210436

conv_stack.8.weight f4 [128]
000000 86 22 80 3f c5 09 7f 3f 56 6c 7c 3f df b4 7c 3f
       1.0010536 0.9962428 0.9860281 0.9871349
000010 f0 19 7d 3f 21 c8 7f 3f 00 8c 80 3f 0e 62 81 3f
       0.988677 0.9991475 1.0042725 1.0108049
000020 71 32 80 3f fd 10 81 3f a6 97 7c 3f 5e 86 7d 3f
       1.0015393 1.008331 0.986689 0.99033153
000030 3f 90 75 3f 08 84 7f 3f 7f 9e 7f 3f 34 34 81 3f
       0.9592323 0.9981084 0.9985122 1.0094056
000040 cc 2e 84 3f 29 19 80 3f 90 14 7e 3f e7 64 82 3f
       1.0326781 1.0007678 0.99250126 1.0187043
000050 0b 40 80 3f 67 e7 82 3f cf a8 80 3f 37 57 7c 3f
       1.0019544 1.0226868 1.0051516 0.9857058
000060 3f d9 80 3f 53 d6 7c 3f a5 82 80 3f 9e fc 7f 3f
       1.0066298 0.9876453 1.003987 0.9999484
000070 93 70 80 3f 43 eb 7c 3f be e6 80 3f 09 7a 7f 3f
       1.0034355 0.9879648 1.0070417 0.99795586
000080 70 36 7b 3f 35 d4 7f 3f ae 80 7f 3f 47 47 80 3f
       0.9812994 0.9993318 0.99805725 1.0021752
000090 5c 82 82 3f ec 0a 7f 3f 00 6f 7f 3f 93 f3 80 3f
       1.0196033 0.9962604 0.9977875 1.0074333
0000a0 39 ab 7e 3f a7 9d 81 3f 76 eb 83 3f 06 ef 7f 3f
       0.99480015 1.0126237 1.0306232 0.99974096
0000b0 a0 12 80 3f ab f7 7f 3f 72 a0 81 3f 55 1c 80 3f
       1.0005684 0.99987286 1.0127089 1.0008646
0000c0 e5 9e 7c 3f fd fe 82 3f fd e4 7e 3f 5c 20 7f 3f
       0.98679954 1.0234066 0.9956816 0.9965875
0000d0 15 79 81 3f 53 08 82 3f 28 41 7d 3f 0d c7 7e 3f
       1.0115076 1.015879 0.98927546 0.9952248
0000e0 22 13 7a 3f fb e8 80 3f e8 14 81 3f 8e a5 81 3f
       0.97685444 1.00711 1.0084505 1.0128648
0000f0 96 be 81 3f 3b ee 7c 3f 0c 26 7e 3f f2 14 79 3f
       1.0136287 0.9880101 0.99276805 0.97297585
000100 70 d2 83 3f 51 f1 7e 3f 1c b0 7f 3f 2c a6 7e 3f
       1.0298595 0.9958697 0.99878097 0.9947231
000110 91 2b 81 3f 86 22 81 3f 25 6b 80 3f c5 ff 7f 3f
       1.009142 1.0088661 1.0032698 0.9999965
000120 43 1c 7d 3f e0 14 7f 3f 0a a5 7f 3f d6 32 82 3f
       0.9887125 0.9964123 0.99861205 1.0171764
000130 ad bc 7e 3f f3 25 83 3f e0 41 81 3f 9f b5 7e 3f
       0.99506646 1.0245956 1.0098228 0.9949588
000140 67 56 80 3f ba 23 7d 3f 19 66 7c 3f ce 6e 7f 3f
       1.0026368 0.9888264 0.9859329 0.9977845
000150 1f 38 83 3f f1 af 81 3f a9 37 80 3f 8b 0b 7f 3f
       1.0251502 1.0131818 1.0016986 0.9962699
000160 b0 ad 80 3f e6 a2 7d 3f 50 d8 82 3f a9 13 7c 3f
       1.0053005 0.9907669 1.0222263 0.984675
000170 4a 93 7e 3f 4d 71 77 3f 96 14 7f 3f 2b 5f 7e 3f
       0.99443495 0.9665726 0.99640787 0.99363965
000180 6f 3a 80 3f 7f 13 7b 3f 7b 09 82 3f e4 85 7f 3f
       1.0017833 0.98076624 1.0159143 0.99813676
000190 05 84 80 3f 54 17 7e 3f 53 f4 79 3f 79 9e 7e 3f
       1.0040289 0.99254346 0.97638434 0.9946056
0001a0 71 b0 7f 3f 75 fe 80 3f 8c 4d 7a 3f 0e f2 7c 3f
       0.99878603 1.0077654 0.9777458 0.98806846
0001b0 6f d2 80 3f 55 5d 80 3f cf b7 80 3f ac 51 80 3f
       1.0064219 1.0028483 1.0056094 1.0024924
0001c0 53 7c 80 3f e8 33 82 3f fa e7 7f 3f cc 9a 81 3f
       1.0037941 1.017209 0.99963343 1.0125365
0001d0 11 83 80 3f 0c c0 80 3f 76 39 7d 3f c6 45 80 3f
       1.0039998 1.0058608 0.98915803 1.0021293
0001e0 90 8e 80 3f 0e 3d 81 3f e3 9f 80 3f a3 4a 7e 3f
       1.0043507 1.0096757 1.0048794 0.99332637
0001f0 2e e1 7f 3f c7 a8 84 3f ea 3e 80 3f 12 58 7e 3f
       0.9995297 1.0364007 1.00192 0.99353135

conv_stack.8.bias f4 [128]
000000 17 65 94 39 b4 55 ea 3b 72 02 9e 3a bd 19 ad bb
       0.00028304078 0.00715133 0.0012055172 -0.0052826093
000010 0a 94 2c bc 69 ba f7 bb c6 76 86 3b 1b fd 82 3b
       -0.010533342 -0.0075600636 0.0041035144 0.0039974577
000020 56 32 a2 39 00 62 cb bb 7c 9f 4b bc 97 86 92 3b
       0.0003093655 -0.006206751 -0.012428161 0.0044716108
000030 fe 70 23 bc 00 90 60 bc e7 d2 0f 3c 79 27 0f bc
       -0.00997567 -0.013706207 0.00877831 -0.008737438
000040 6b 70 f8 bb d7 1a d0 bb fd 8f 0c 3c 47 03 6f 3a
       -0.0075817606 -0.006350856 0.008579251 0.0009117615
000050 dc 0d 16 3b ff 6a 48 3c 72 ee 82 3a ec 8e 39 bc
       0.0022896444 0.012232541 0.0009989275 -0.011325579
000060 f9 ab ef 38 04 ec 52 bc 8c 71 af ba e7 42 02 39
       0.000114284405 -0.012873653 -0.001338528 0.00012422689
000070 16 82 c0 bb b2 96 18 bc 1a 15 c5 bb 20 ed dc bb
       -0.0058748825 -0.009313272 -0.0060144784 -0.0067421347
000080 91 c6 07 bc 33 01 97 bb c0 eb d5 3b f2 e3 1e 3b
       -0.008287088 -0.0046082973 0.0065283477 0.0024244753
000090 ba e9 6c bb 12 80 1c bb bd 0c 81 ba ff 91 a3 3b
       -0.0036150054 -0.0023880047 -0.0009845715 0.0049917693
0000a0 8d 41 af 3a 7c 3e 6e ba ab 71 11 bc 34 cb a8 3b
       0.0013370976 -0.00090882904 -0.008877198 0.005151177
0000b0 e3 b7 83 bb d9 4e 15 bb 30 e3 ab 3b 33 98 a6 bb
       -0.0040197237 -0.0022782593 0.0052455887 -0.0050840615
0000c0 af bd c9 bb 70 09 67 bb fd 40 f1 bb 84 e5 ce bb
       -0.0061566452 -0.0035253428 -0.0073624835 -0.0063139815
0000d0 cf da 95 3b 52 57 11 b9 c1 1b 80 bc 6f aa 99 3b
       0.004573203 -0.00013860807 -0.015638234 0.0046895067
0000e0 cc 8e 86 ba 74 a3 fa bb 4a fe c3 3a d6 91 ff bb
       -0.0010265945 -0.0076488797 0.0014953103 -0.0077993674
0000f0 8e 18 e5 bb 10 04 45 bc 44 76 e3 3a 00 bc 1e bc
       -0.0069914525 -0.012024894 0.0017353971 -0.009688377
000100 f7 07 50 bb b5 74 40 bb 91 d5 0a bc 86 91 aa bc
       -0.0031743029 -0.0029366438 -0.00847377 -0.020821344
000110 a3 b2 0a bb ca 77 28 ba 5f 79 9f bb 7b 82 49 3a
       -0.0021163605 -0.00064265414 -0.0048667635 0.00076869846
000120 51 65 8d 3c 09 16 02 bb 85 b2 77 3b 83 33 39 3b
       0.017260225 -0.001984956 0.0037795615 0.0028259463
000130 64 9a b9 bb 19 b8 71 3b fe 6f 45 bc bd 8f be bb
       -0.0056641567 0.0036883412 -0.012050627 -0.005815475
000140 9d ac 72 bb f4 59 d5 b9 b2 cd b0 b8 65 f2 77 bc
       -0.0037029155 -0.00040693546 -8.430648e-05 -0.015133475
000150 81 a1 9c 3a 3d a2 a2 3b f9 1f 1a bb e0 ea 4d bb
       0.0011949987 0.004963188 -0.0023517592 -0.0031420514
000160 e7 8a 55 3b 8c 75 27 bb 99 2f 3d bb 16 03 3e bc
       0.0032584013 -0.002555224 -0.0028867482 -0.011597415
000170 d8 21 98 bb 53 03 9d bc 08 ab 82 ba e5 75 1f bc
       -0.0046427064 -0.019166624 -0.0009969184 -0.009732698
000180 cd 47 9d bb a6 18 8d bc e6 1c 47 3b f3 ae 6e ba
       -0.004799819 -0.017223667 0.0030382215 -0.0009105049
000190 93 d2 ef ba 4c bf 93 bb 75 e5 b7 bb 11 e0 8c 3b
       -0.0018297009 -0.0045088883 -0.00561207 0.0042991717
0001a0 06 fc d9 bb 35 21 90 bb e9 e8 f1 bc 2c 20 3a 3b
       -0.006652358 -0.00439849 -0.029530006 0.0028400524
0001b0 b8 50 7c ba 03 69 37 38 6c 24 6b bb bb 7c a3 bb
       -0.0009625065 4.37284e-05 -0.0035879863 -0.0049892343
0001c0 a5 18 3a 3b 8c ef b4 39 fa 64 22 3c c1 6a 48 bb
       0.0028396037 0.00034510752 0.00991177 -0.0030581208
0001d0 ea 8e e0 3b 34 ee 07 bc 08 40 c3 ba 46 8b 9c bb
       0.006852974 -0.008296538 -0.0014896402 -0.004777345
0001e0 bc f4 10 3a c9 23 48 3b a8 88 28 bb db 69 9e 3b
       0.00055296323 0.0030538908 -0.002571622 0.0048343963
0001f0 f2 1a f7 bb 82 6e a2 3b be cd 0c bb 69 cd 59 38
       -0.007541054 0.004957021 -0.0021484937 5.1928135e-05

conv_stack.8.running_mean f4 [128]
000000 5f 14 24 3e 42 ef 14 3e eb bc 92 3e a4 27 87 3e
       0.16023396 0.14544395 0.28659758 0.2639743
000010 c7 c1 6e 3e aa b6 22 3e 88 a0 94 3e 1e b3 1f 3e
       0.23316108 0.15889993 0.29028726 0.15595672
000020 2a 79 c4 3e e7 fc b2 3d 48 85 3b 3e 98 7d 4b 3e
       0.3837369 0.087396435 0.18312562 0.19872129
000030 2a 33 23 3e 07 57 25 3e b1 ad 3f 3e ba d5 59 3e
       0.15937486 0.1614648 0.18718602 0.21272936
000040 06 4d a0 3d 82 be 55 3e b1 fa 87 3e 7c ab 1c 3e
       0.07827191 0.20873454 0.2655845 0.15299791
000050 f8 4d 68 3e 45 02 8a 3e 29 c1 7a 3e a1 65 6d 3e
       0.22685993 0.26954857 0.24487747 0.231833
000060 6c 52 a2 3e 6d e9 ef 3d 59 7d 70 3e a9 4d 3e 3e
       0.31703508 0.11714444 0.23485316 0.18584312
000070 24 75 a1 3e d6 69 8d 3e bc e6 41 3e 18 c9 35 3e
       0.31534684 0.2761981 0.18935674 0.17752492
000080 5d 9a 83 3e 61 63 47 3e 54 3c 31 3e f1 7d 20 3e
       0.25703707 0.19471504 0.1730817 0.15673043
000090 a6 e2 2a 3e ac 29 a6 3e 65 d8 4e 3e 9f 13 8d 3e
       0.16688022 0.32453668 0.20199735 0.27554032
0000a0 4b 58 a2 3e d4 91 37 3e 60 e4 8e 3e 7c 1a d7 3d
       0.31707987 0.17926723 0.2790861 0.10503098
0000b0 e9 c0 8c 3e 2e 62 48 3e fe 35 2c 3e c9 0d 4b 3e
       0.2749093 0.19568703 0.16817471 0.19829477
0000c0 87 2c 2e 3e 8b 7c 10 3e e2 e8 83 3e af b6 98 3e
       0.17009173 0.1411001 0.25763613 0.29826877
0000d0 68 87 93 3e f8 fe 47 3e 64 65 26 3e a9 a2 4b 3e
       0.28814244 0.19530857 0.16249615 0.19886269
0000e0 28 f9 42 3e 0e e3 52 3e d6 a2 19 3e e8 b0 3e 3e
       0.19040358 0.20594427 0.15003523 0.18622172
0000f0 44 9d 40 3e 2b 0c 44 3e 5c c1 95 3e a1 d9 04 3e
       0.18809992 0.19145267 0.29249084 0.12973644
000100 fc 91 e0 3d 73 e4 e7 3d ce 1a 37 3e 7a 89 ef 3d
       0.10965344 0.1132287 0.17881319 0.116961434
000110 21 50 ac 3e ff c9 02 3e fa 07 8c 3e 34 91 36 3e
       0.33654884 0.12772368 0.27349836 0.17828828
000120 ca 7b 29 3e 54 57 9e 3e d2 6c 8e 3e f6 1d 94 3e
       0.16551128 0.30926 0.27817398 0.28929108
000130 97 38 23 3e e0 55 03 3e 8e f8 34 3e 0d 90 1c 3e
       0.15939556 0.12825727 0.17672941 0.15289326
000140 c8 4f 03 3e fd 23 59 3e f9 c7 e5 3d d9 07 24 3e
       0.12823403 0.21205135 0.112197824 0.16018619
000150 17 ee 6d 3e 90 84 d0 3d 17 81 dc 3d a2 eb 0e 3e
       0.23235355 0.10181534 0.107668094 0.13957074
000160 10 88 ab 3e 36 81 42 3e 0a 87 f4 3d c6 3d 08 3e
       0.33502245 0.18994603 0.11939819 0.13304815
000170 a5 7e 39 3e 8f 2d 77 3e 97 c7 11 3e 11 e5 ef 3d
       0.18114717 0.24138473 0.14236294 0.11713613
000180 51 b7 b1 3e 38 e3 78 3d 7d 36 5c 3e fe 1c 2f 3e
       0.34710172 0.060763568 0.2150516 0.17100903
000190 0c 68 f4 3d e9 28 41 3e 7e 8f cd 3e ff cf 41 3e
       0.11933908 0.18863262 0.40148538 0.18927
0001a0 a1 a7 f7 3d 26 e7 21 3e 9f e7 6a 3e c1 27 33 3e
       0.120925196 0.15810832 0.22939919 0.17495634
0001b0 e8 a6 3c 3e 7f cc 76 3e d6 95 3b 3e a8 cc 49 3e
       0.18423045 0.24101447 0.18318877 0.19706976
0001c0 e5 eb 3c 3e 52 17 46 3e 77 a0 63 3e 09 fb 37 3e
       0.18449362 0.19344833 0.22229181 0.17966856
0001d0 f1 7c 4b 3e 85 e0 2b 3e fa 27 7d 3e 37 a9 56 3e
       0.1987188 0.16784866 0.24722281 0.20962988
0001e0 4c db c0 3e 2e b5 00 3e 31 f4 4a 3e de c7 7e 3e
       0.3766731 0.12569115 0.19819714 0.24880931
0001f0 01 56 7a 3e 15 ef 19 3e 9e bb 3c 3e 4f c9 aa 3e
       0.2444687 0.15032609 0.18430945 0.3335671
