timeseries/models/fnn.pth (torch, 5200 bytes, 7 tensors)

linear_relu_stack.0.weight f4 [24, 5]
00000000: e821 8f3e 81f5 22bf 725c 4d3c 68ed 313d
00000010: e310 13be cb9b 94be dcb7 e93e b553 783d
00000020: 368e a33d c800 adbe 6b39 0ebd adce e93e
00000030: 97d1 b5be 371a 9dbc 53fc 623e 9b7f 06be
00000040: dfd2 753d 1d95 003f 7a2d a43d 5307 a9be
00000050: 55d9 d13d 72c4 fa3b 7f5b 3cbe 3878 8dbe
00000060: 3bcb 163e b8ec 9abe 2d46 fabc d17e 3c3e
00000070: 169c 7b3d c181 d33a cfea 533d 4434 003e
00000080: c349 1cbf d5b3 c63d eced 89bc 062d 05bd
00000090: 29d9 e8be a94b 7a3d 5417 6d3c a0d2 a4be
000000a0: b23e bebe ff4c 62be 67cf 31bf 230b 37be
000000b0: dd76 d4be 7545 a7bc 2b61 173c b62c 18bf
000000c0: f185 5b3c 305e 813a db2a 593e 4cf8 4c3e
000000d0: 331e 823e 3e91 96be c603 a13c ce8f b93d
000000e0: 5e68 733d bde7 0ebf 2443 11be 7dbd 9a3d
000000f0: 457c 7a3e d047 9d3d cb23 9a3d 42e3 2fbd
00000100: 132e 28bf 3e55 38be 3ee0 0fbf 963c a63d
00000110: 0544 09bd 6e49 e23e 6a50 1b3e dc5a c93e
00000120: 4d3f 9f3c b18f f5b9 33f2 babe b956 2b3d
00000130: 6153 b83e bc11 683e 97b9 753c 86f9 c1be
00000140: 8727 a43b a428 ce3d a64b f13e fc43 e83b
00000150: 4853 b03c 0d44 e53d ab0e 9cbe bd9f e43d
00000160: c19c 1cbb 5a0a 573e 5cf9 a1be 8df4 45bd
00000170: ed47 bcbe 0e7e e0bb aa07 483e 5d8f 6b3e
00000180: 3071 31bf 3704 58bd 0237 1f3e 0eb2 10be
00000190: df3c 953e f75d ec3e 07e5 fa3e 1e53 c03b
000001a0: 465c 873e 1a0a d73d 5e14 7abe 726c fb3d
000001b0: 7e70 8a3e 0009 45be f632 82be 2345 dc3e
000001c0: 060a 2abe 2f92 a5bd 74ab 5b3e f4ef 7abe
000001d0: f81f 323f ad1b 6e3d 1129 0bbe b32a 173e
0.27955556 -0.6365586 0.012534248 0.0434393 -0.1436191 -0.2902511 0.45648086 0.060626704
0.07986109 -0.3378966 -0.034722727 0.45665494 -0.35511467 -0.01917754 0.22166567 -0.13134615
0.060015555 0.5022753 0.080164865 -0.330134 0.10246531 0.0076528126 -0.18394278 -0.27630782
0.14725964 -0.30258727 -0.03055104 0.18407752 0.061428152 0.0016136692 0.051737603 0.12519938
-0.6105005 0.09702269 -0.016837083 -0.03251364 -0.4547818 0.06110731 0.014470894 -0.32191944
-0.37157208 -0.22099684 -0.69457096 -0.17875342 -0.41496935 -0.020418862 0.009239475 -0.59443223
0.013398633 0.0009869989 0.21207754 0.20016593 0.25413665 -0.29407686 0.01965512 0.09060632
0.059425704 -0.55822355 -0.14185768 0.07555673 0.24461468 0.07679713 0.07526358 -0.04294134
-0.65695304 -0.18001267 -0.5620154 0.081170246 -0.033512134 0.44196647 0.15167394 0.39327133
0.019439364 -0.000468371 -0.36512908 0.041830752 0.36001113 0.22663015 0.014997861 -0.37885684
0.005009595 0.10066345 0.47128028 0.0070881825 0.021524087 0.1119462 -0.3047994 0.1116328
-0.0023897144 0.21000043 -0.3163556 -0.048328925 -0.36773625 -0.0068509644 0.19534174 0.23003908
-0.69313335 -0.052738395 0.15548328 -0.14130422 0.29148003 0.4616544 0.4900286 0.0058692833
0.26437587 0.104999736 -0.24421832 0.12276544 0.2703895 -0.19241714 -0.25429505 0.43021497
-0.16605386 -0.08084523 0.21452123 -0.24505597 0.6958003 0.058131862 -0.13589884 0.14762382

linear_relu_stack.0.bias f4 [24]
00000000: 69a4 133e 2dbf 45be aefc f83e acff 6dbe
00000010: 91e5 9d3d 843d 92be 515b 6bbe 109d adbd
00000020: 2196 18bc 456c 13bf 08a1 d63e 57a2 bfbe
00000030: 1fb6 6a3e d577 6d3e aa5f 48be 1cff c23e
00000040: a8c6 bcbe 3b61 d13e bab9 523e b69f 783e
00000050: c89e 403e 449b 723e 774c 68be c9bf 7dbe
0.14418186 -0.19311209 0.4863028 -0.23242062 0.07709802 -0.28562558 -0.22984053 -0.08477223
-0.009313137 -0.5758708 0.41919732 -0.37428543 0.22921036 0.23190244 -0.19567743 0.38085258
-0.36870313 0.40894493 0.20578662 0.24279675 0.1881057 0.23692042 -0.22685419 -0.24780191

linear_relu_stack.2.weight f4 [12, 24]
00000000: b82f 95bc cb30 073e 96dd 5abe 28fe 02bd
00000010: bfbf d3bd 89e8 a43e 0bb7 04be d8d2 7e3e
00000020: 8ed5 9c3d a95d b53e 6690 473d 8e37 1d3e
00000030: 0151 813d 6e71 773e 8332 77be 5d87 3e3e
00000040: e6a0 493d dfd9 413d e14c bf3e 46ce a5bc
00000050: 1176 a83d 0719 76bb a6a2 59bc 684d 0f3c
00000060: 0864 053e 823f 3bbd 8883 05bd b848 0fbf
00000070: cf83 d63d b028 12bf 8fa7 a03e c3dd 94be
00000080: 02b3 2a3e c8c7 17c0 7fe7 88be fa2a 8c3e
00000090: fc23 643e 8876 e03d 37a2 653e a4b8 83be
000000a0: 643a 80be df73 c93d 88d6 2abd 6e5c 1dbe
000000b0: 4769 a23d d60d b8bd 59ee b03d f046 633d
000000c0: c203 6d3d 0a72 533e a870 343e c769 eb3c
000000d0: 21ce f13c 722c ad3e 71cd 933e 9a85 473d
000000e0: f196 e93c e84f 1abf 28b2 48be f6e3 28be
000000f0: efac 78be 00fa 683d 30d8 263e 9120 0f3e
00000100: 7cf9 d8be 4996 59bd 6263 c83d ae99 ddbd
00000110: 61e5 e43e 4df2 25be ed46 143e d8bd 903e
00000120: dc0f 9ebe 50ef 75be 8ac9 353e c251 06be
00000130: 0014 19bd d5bd 3abd ad20 2fbf af46 64be
00000140: 86fa 92be ab50 0bbf 0ef3 14bd d142 1ebf
00000150: 4ce0 bdbc 2fa4 1fbe 0969 e3ba a7af 34be
00000160: 248a 453e 1979 663e 5542 483e dea3 46bc
00000170: aca1 3fbe 4d89 00bf ecc1 903d 0f46 603d
00000180: 91d1 ea3c 72f4 473e 3e92 323e abfb 183e
00000190: 5152 013e d738 a63d ee9c a13c 0cbf b8be
000001a0: 2d7d b63d b075 ccbe f80c 4ebd 8c66 d2bd
000001b0: a83f 3a3e fff7 003d 2899 a63e 86ed 7c3e
000001c0: 47b3 e6be 3d0d 163c 90d3 303e 8ebf f6bd
000001d0: 9b76 963e a900 383e 1dc5 b13e 848b 783e
000001e0: d66a 173d d4ef 633e 32cf b03e 62b3 7a3e
000001f0: 69cc b4bc 0bc1 993d 1b86 923e 7586 603e
00000200: 1070 943e 333f 59bd 696a c3bd a267 b7bd
00000210: ebdc e2bd e486 453e 9d3a 923e 8669 24bc
00000220: 486c ffbe d7e5 9bbd 0eb4 763c d12f 83be
00000230: b812 ce3e dd29 04bd a428 143e 2de9 563e
00000240: d923 7b3e c0e1 b33d d99b 17bd 586c 883d
00000250: d7fa 053e 032e a2bd 6b54 6ebe 76e5 ab3e
00000260: 3ac6 523e 2787 be3e 1836 8b3e 3f57 4d3c
00000270: 4574 febd 0668 5a3e b6a0 57be 2042 df3d
00000280: 271d dc3e a14d 653d acf6 a83e 81ce dc3d
00000290: a2d2 b9bc b8b3 553e b82e d8bd a70a 1bbe
000002a0: c3d7 723e adbf 0b3d 19ec 7cbd f8b3 2e3e
000002b0: 0e48 1a3d b253 163e 72f0 6abe f4b2 663e
000002c0: d9e2 923e f689 913e 01d5 af3d 4a18 53be
000002d0: 1485 b5bd c04f c33e f389 38bc a75c 3c3d
000002e0: 5278 c43e b432 a93c d545 813e 4ca1 653d
000002f0: 73e8 9e3c afd0 0a3d 2f9e 043e 8a5c 60be
00000300: 83ee 943e 2f7d a83d 306e 57bd 8d08 cebd
00000310: 8501 88bb 7602 98bc 6ab5 d4bd 7931 e7bc
00000320: 1622 54bd f4c6 173f 5163 313e 1332 19be
00000330: 9d64 1d3e 8f08 933e 76c5 bfbe abff 233e
00000340: 5d72 953e 54ad 0b3e 8a5e 263e 9839 143e
00000350: 7d1c 9cbd a3af 373e 55f5 2a3d 233f 2cbe
00000360: 783d 3d3e cee2 713d 3295 37be 06f5 bdbd
00000370: f3e2 4a3d 2a14 13be e7af 82be 4100 80bb
00000380: abea 5c3e 3332 fc3e afc6 1dbd d1f5 533d
00000390: 1801 51bd 6bb2 d03e 8ffa 95be 9556 823e
000003a0: 06d9 e83e ea59 943d e785 3c3e 62b1 6b3e
000003b0: d152 07be a214 0ebe 2549 1f3e 02f0 f9bd
000003c0: 4119 80bb da54 c43d 1cf5 ee3d f0c2 823e
000003d0: 275f 343e f8a3 413d 3d4c 78bc d5c3 a8be
000003e0: 8501 653e 795d 79bd 540e d63d 8e7e 1abe
000003f0: e248 e43d 576f 7d3d 27df 343e effb a73d
-0.01821123 0.13202207 -0.21373591 -0.031980664 -0.10339307 0.3220866 -0.1296045 0.24885118
0.0765792 0.3542302 0.048721693 0.15353224 0.063142784 0.24164364 -0.24140362 0.18606324
0.04922571 0.04732692 0.3736334 -0.02023996 0.082256444 -0.0037551539 -0.013283407 0.008746482
0.1302644 -0.045714863 -0.03259614 -0.55970335 0.10474359 -0.57093334 0.31377837 -0.2907544
0.16669849 -2.3715687 -0.26739118 0.2737654 0.22279352 0.10960108 0.22425161 -0.25726807
-0.2504455 0.09836554 -0.0417085 -0.1536729 0.07930236 -0.08987014 0.08639211 0.055487573
0.05786491 0.20648971 0.176211 0.028736962 0.029517235 0.33822972 0.28867677 0.048711397
0.028514357 -0.6027818 -0.19599211 -0.1649321 -0.24284719 0.056879044 0.16293406 0.13977267
-0.4237784 -0.05312184 0.09784581 -0.10820328 0.44706252 -0.16205712 0.14480181 0.2826984
-0.30871475 -0.24017072 0.17752662 -0.13117126 -0.03737259 -0.045591194 -0.68409234 -0.22292589
-0.2870676 -0.54419965 -0.036364608 -0.61820704 -0.023178242 -0.15589975 -0.0017350029 -0.17645131
0.19290978 0.22507133 0.19556554 -0.01212403 -0.18714017 -0.50209504 0.07068238 0.054754313
0.028664382 0.19526842 0.174386 0.14939754 0.12629057 0.0811631 0.01972815 -0.36083257
0.08910594 -0.39933538 -0.050305337 -0.102734655 0.18188345 0.031486508 0.32538724 0.24699983
-0.45058653 0.00915843 0.17268205 -0.12048255 0.29387364 0.17969002 0.34720698 0.24271971
0.03696712 0.22259456 0.34533077 0.24482492 -0.022070127 0.07507523 0.2861794 0.21926291
0.28991747 -0.053038787 -0.095417805 -0.08955313 -0.11077293 0.19289738 0.28560343 -0.010034924
-0.498873 -0.07612198 0.015057577 -0.2562242 0.40248656 -0.032266486 0.14468628 0.20987387
0.24525394 0.08783293 -0.037013862 0.0666129 0.13083969 -0.07918932 -0.2327439 0.33573502
0.2058343 0.37212488 0.27189708 0.012533008 -0.124245204 0.21328744 -0.210574 0.10901284
0.4299099 0.055982236 0.33000696 0.10781575 -0.022683445 0.20869339 -0.10555786 -0.15140782
0.23715119 0.034118343 -0.061748598 0.1706084 0.037666373 0.14680365 -0.22943285 0.22529203
0.28688696 0.28425568 0.08585549 -0.20614734 -0.08863273 0.38146782 -0.011263358 0.045986798
0.38373047 0.02065406 0.2524859 0.056062028 0.01939795 0.033890422 0.12950967 -0.21910301
0.2908822 0.08227002 -0.052595317 -0.10060225 -0.004150572 -0.018555861 -0.103861645 -0.028221833
-0.05179032 0.59287953 0.17323042 -0.14960508 0.15370412 0.28717467 -0.37455338 0.16015498
0.29188815 0.13640338 0.16247001 0.14475095 -0.07622621 0.17938094 0.041737873 -0.1682096
0.1848048 0.05905419 -0.17928007 -0.0927525 0.049532842 -0.1436316 -0.25524828 -0.0039062803
0.21573894 0.4925705 -0.038519558 0.0517481 -0.051026434 0.40761122 -0.29292724 0.25456682
0.45478076 0.07243712 0.18410455 0.23016885 -0.13215186 -0.13875058 0.15555246 -0.12203981
-0.0039092605 0.09586497 0.11667845 0.2553935 0.17614423 0.047275513 -0.015154895 -0.32961908
0.22363861 -0.060880158 0.104519516 -0.1508734 0.11146714 0.06187376 0.17663251 0.082023494

linear_relu_stack.2.bias f4 [12]
00000000: 38e6 8cbe 81dd adbd e5b9 ccbd 7c5e 8d3c
00000010: 0d7f 853d 3f4b e9bd 31f8 99bd a6e7 27bd
00000020: 0aeb 32bc 066d 593e 5106 313e ec32 bdbd
-0.27519393 -0.08489514 -0.09996394 0.017256968 0.06518374 -0.11391305 -0.07518042 -0.0409924
-0.0109202955 0.21232995 0.17287566 -0.09238228

linear_relu_stack.4.weight f4 [6, 12]
00000000: 600a c83d ca95 62bf bd95 033d d3d2 e93e
00000010: fecf a6be 0078 41be 11d3 a33e a31a 7c3e
00000020: 43eb 293e 9549 a43e 1bed 94be c7cc 683e
00000030: 7312 4a3e 1bbc 72be 9e04 623e f2a3 433e
00000040: 2620 a1bd da8e d93d 22ad 773e 4a52 5cbe
00000050: 1014 a83c 9843 33bd 3024 08bd a512 153e
00000060: 779d 82be 1ecc 763f f2e8 3c3e 3949 0abc
00000070: baff 8cbd 0730 e63e 3c54 98be 3557 78be
00000080: f035 cabe 70c7 b23d 3d0d cd3d 827a 8cbd
00000090: c6dc c1bd faa8 183f 5ad7 5c3c d827 80be
000000a0: 2a92 c93e 5952 a73c 54af 3bbe 5e31 653d
000000b0: 158a 69be 3e5e 9abb 3388 8c3e 4f85 09bc
000000c0: c5d0 5d3e dffe 75bf a028 aabe 4b2c b43e
000000d0: 2f8a 74be c3ed 993d 15c8 023e d0b4 033e
000000e0: 0ba2 b53d 5443 843e 9240 20bc 3555 893e
000000f0: 2f4c a6bd 2c49 1dbf 91f9 8ebb a9b3 d83e
00000100: 66bf 4cbe ebf4 e2be 893e 9e3d 4a3f ce3c
00000110: 97ab 953e 4899 c53e 23f0 c1be f060 ca3d
0.09767604 -0.8850981 0.032125223 0.4566866 -0.3258056 -0.18893433 0.31996968 0.24619536
0.16593651 0.3208739 -0.29087147 0.22734366 0.197336 -0.23704569 0.22072074 0.19105509
-0.0786746 0.1062295 0.24187139 -0.21515766 0.020517379 -0.043765634 -0.033237636 0.14557894
-0.2551076 0.9640521 0.18448237 -0.008440309 -0.068847135 0.44958517 -0.29751766 -0.24252017
-0.39494276 0.08729446 0.100122906 -0.06859304 -0.09465937 0.5963284 0.013479078 -0.25030398
0.39369327 0.020425009 -0.18328601 0.055955283 -0.2280658 -0.0047109416 0.27447662 -0.0083936
0.2166167 -0.9609203 -0.3323412 0.35190043 -0.23880838 0.075160526 0.12771638 0.12861943
0.08868798 0.25832617 -0.00978102 0.2682282 -0.081199996 -0.61439776 -0.0043632467 0.4232457
-0.19994888 -0.44327483 0.077267714 0.025176663 0.29232475 0.38593507 -0.37878522 0.098817706

linear_relu_stack.4.bias f4 [6]
00000000: 882a 53be 3863 11be be9b afbd 0c58 c83e
00000010: d49d 63be d327 5fbe
-0.20621693 -0.14198005 -0.08574627 0.39129674 -0.22228175 -0.21792535

linear_relu_stack.5.weight f4 [1, 6]
00000000: b80a 9abe a3d5 53bb a08e aa3e a155 153e
00000010: f26d e4be 23f0 96be
-0.30086303 -0.0032323382 0.3331194 0.14583446 -0.44615132 -0.29480085
