timeseries/models/fnn.pth (torch, 188951 bytes, 21 tensors)

conv_stack.0.weight f4 [32, 100, 3]
000000 8a e4 a1 3c 9c 43 12 bd 78 39 4e 3c ea dd 72 bc
       0.019762296 -0.03570901 0.012586944 -0.014823416
000010 b1 84 5d 3d e4 20 60 bd 0c 77 0d 3d f1 74 f7 bb
       0.054081623 -0.054718867 0.03453736 -0.0075517823
000020 50 2e 48 bd 73 2f 0a 3d a6 d0 7d bc 32 c7 19 ba
       -0.048872292 0.033736657 -0.01549164 -0.0005866169
000030 f3 dc af 3c 72 53 50 bc e7 b3 04 bd f0 97 54 bd
       0.021467661 -0.012715207 -0.03239813 -0.05190271
000040 7e df b4 bb 9b 72 6a bd cc bd 77 3b 88 6d 78 bc
       -0.0055198064 -0.057238203 0.0037802337 -0.015162833
000050 54 d5 f4 3c 27 ea 88 bc 23 eb c3 3b 01 96 4f 3d
       0.029886879 -0.016713215 0.005978958 0.050680164
000060 66 5d bf bb 2d e3 41 bd ca ff 2b 3d 0f b3 d5 3c
       -0.0058399914 -0.047335792 0.041991986 0.026086358
000070 cc 1b f3 bc c9 d2 77 bc 1d ef 45 bc e8 af 04 3d
       -0.02967634 -0.015125939 -0.012080935 0.03239432
000080 81 06 9a bc ce e6 62 3a e7 8c e3 3c ae d5 0b 3d
       -0.01880193 0.00086556084 0.027777148 0.034139328
000090 76 dc 44 3d ca 28 22 3d d5 73 c0 bc 69 af e9 bc
       0.04806181 0.03958968 -0.023492733 -0.028526025
0000a0 51 77 22 3d 8c b7 df 3b 11 0c 2f bd 87 a8 1c 3c
       0.03966457 0.0068273004 -0.042736117 0.009561664
0000b0 06 91 3b 3c 9f bd 54 bd 28 05 94 bc 13 ac 7e bc
       0.0114481505 -0.05193865 -0.018068865 -0.015543955
0000c0 cc 0b 37 3d f6 e8 87 3c 3d 60 6b 3d 4e 98 0e bd
       0.044688985 0.016590577 0.057464827 -0.034813218
0000d0 9e 0b 00 bd 03 0d 1e bd 1f 9d e3 bc 6f 26 15 bd
       -0.03126108 -0.038586628 -0.027784882 -0.036413606
0000e0 12 54 4a bd 7b 0d b3 3c 5e d1 4f 39 42 8f 1f bd
       -0.049396582 0.021857014 0.00019819054 -0.03895498
0000f0 41 a2 0d bd af fd b6 3b 14 cf 62 bd ee 15 f6 3c
       -0.034578566 0.0055844407 -0.055373266 0.030039754
000100 19 ed 23 bd d4 0c 7b 3c 3f dc 17 3d e2 d0 2c 3d
       -0.040021036 0.015322883 0.037075277 0.042191394
000110 50 ca 26 3a a8 dd a7 3c b5 65 24 bd 63 51 25 3d
       0.00063625444 0.020491436 -0.040136058 0.04036082
000120 81 72 36 3c f6 81 03 3d 43 9e a6 bc 4b 89 3f bc
       0.011135698 0.032106362 -0.020339137 -0.011690448
000130 ed e5 83 3d f7 30 be 3c 4c 6a 0c 3d f3 c0 ec bc
       0.06440339 0.023216708 0.03428106 -0.0289006
000140 5c c4 c8 3b f7 93 9d bc 29 a0 15 bd fc df 8d bd
       0.0061269235 -0.019235594 -0.036529694 -0.06927487
000150 e3 c7 e6 3b e1 10 a8 bc d2 4d 51 bd 8f b6 36 3c
       0.0070428713 -0.020515861 -0.051099606 0.011151924
000160 4b c3 c9 3c c8 a8 c8 bc af f4 2a 3d 84 f5 83 3c
       0.024629256 -0.024494544 0.041737255 0.016108282
000170 be df 46 bd 20 ca f4 bc 23 ce a2 3c 8c 4c 1f 3d
       -0.04855322 -0.029881537 0.019873684 0.03889136
000180 ad c5 c1 3c 83 9c 19 3c 70 40 8e bc 0b a2 49 bc
       0.02365383 0.009375694 -0.01736471 -0.0123067
000190 4b 40 d1 b9 2b 01 66 3d a7 4b dc 3c 7b c0 f8 bb
       -0.00039911488 0.056153458 0.026891543 -0.007591305
0001a0 d7 29 1e bd 33 f7 71 bd b8 63 7b bd f7 82 9a 3b
       -0.03861412 -0.05907364 -0.061374396 0.0047153193
0001b0 3f db 20 bd 3f 63 02 3c 92 5a 75 3d 63 29 07 3c
       -0.03927159 0.007958232 0.059900828 0.008249613
0001c0 e9 59 8c bc d7 a1 15 3d fe e9 26 3d 86 9f f0 3c
       -0.017132716 0.036531296 0.040750496 0.029372942
0001d0 96 69 42 bd 63 90 01 bd 1a a6 77 3d f9 90 52 bd
       -0.047463976 -0.03163184 0.06046114 -0.051407788
0001e0 75 e6 91 3c 8a 95 f0 3c 09 fe 3b 3d c7 50 11 3d
       0.017810086 0.02936818 0.045896564 0.035477426
0001f0 6d bc 12 3b aa 17 27 bd 58 74 f6 3b 00 49 ee bb
       0.0022390143 -0.040794052 0.0075211935 -0.007271886
000200 d6 05 dd 3c f9 15 f8 bb 65 f4 54 bc 3f 9c c7 3a
       0.026980322 -0.0075709787 -0.012997721 0.001522906
000210 20 7e 9d 3a 93 89 15 3c 59 92 79 bd bb e9 ad 3c
       0.0012015738 0.0091270385 -0.060930584 0.021229615
000220 74 66 02 3d e2 3c 81 bc 7a a0 8c 3c 6b d1 11 bd
       0.03183599 -0.015776101 0.017166365 -0.035600107
000230 7b 7b b3 3c 46 37 37 bc 6f c3 10 bd 70 12 43 bb
       0.021909466 -0.011182612 -0.03534263 -0.0029765628
000240 47 33 6e bd 1c 9e 02 3d 1f 0b 16 bc 9b 3e 29 3d
       -0.05815437 0.031889066 -0.009157925 0.04131947
000250 d4 fb cc bc 4b 92 6e bd 25 ab 21 3d 2c ac 80 bd
       -0.025022425 -0.058244985 0.039469857 -0.06282839
000260 f6 58 1e bd 6d dd 30 bd 07 dc 6f 3c 26 d5 cf bc
       -0.03865906 -0.043179918 0.014639861 -0.025370192
000270 ae 6e 50 bd 29 32 21 3d 23 54 f9 bb 15 a9 85 bc
       -0.050886802 0.039354477 -0.007608907 -0.016315976
000280 46 1b 34 3c f6 32 1b 3c 2c d4 81 bc 2e 12 19 3a
       0.010992831 0.009472599 -0.015848242 0.0005839196
000290 81 f3 44 bc 59 1f 52 3d 30 a8 5c bc cd da d6 bb
       -0.0120209465 0.051299427 -0.013467833 -0.006556845
0002a0 6f 37 e3 bc 5d d3 41 3c a7 86 4d bc 16 f7 ae bc
       -0.027736394 0.011830178 -0.012544311 -0.021358054
0002b0 d2 1b 8e 3c c4 a3 b1 3c 72 d6 e7 bc f7 18 18 3d
       0.01734725 0.021684535 -0.028300498 0.037133183
0002c0 6f 2f a1 bc d0 e7 4f bd 51 33 59 3c 13 55 46 bc
       -0.019675938 -0.050758183 0.013256864 -0.012105244
0002d0 0b 84 8b 3b 8b a0 8a bc df 6f 45 bb 40 d3 2d 3d
       0.004257684 -0.016922256 -0.0030126495 0.04243779
0002e0 ae 32 16 3d 12 58 38 3d 14 aa bb 3c af 17 ae 3b
       0.036669426 0.045005865 0.022908248 0.005312882
0002f0 96 44 64 3c 0a 35 b3 3c b8 1a 17 bd 96 6c 67 bd
       0.013932368 0.021875877 -0.036890715 -0.05650004
000300 32 e2 64 3d d9 63 17 3c f5 82 98 bb 0e 25 ef bc
       0.05587978 0.009240114 -0.004654283 -0.029192474
000310 2d 2a a2 bc c0 d8 96 3c ba d1 4a 3c f7 02 6c 3b
       -0.019795502 0.018413901 0.012379104 0.003601251
000320 7d 4f 4d 3c 24 13 aa 3c 30 e3 23 bc 62 31 ae 3b
       0.0125311585 0.02076108 -0.010002896 0.0053159455
000330 d0 9a 44 bd db 17 cf 3c 4d 59 ab 3c 93 94 be bc
       -0.047999203 0.02527993 0.020916605 -0.023264205
000340 cb 20 09 3d 86 6b 53 bd b3 b6 10 3d 49 e6 13 bd
       0.03347854 -0.051616214 0.035330486 -0.03610829
000350 c7 d8 fd 3c 71 9c 2f bc 76 5a 5d bc d2 90 94 bc
       0.030987157 -0.010718451 -0.013510337 -0.018135462
000360 a3 0a a8 3b 4e 15 78 3c 55 f1 dd bc 63 d9 dc bb
       0.005128221 0.015141798 -0.027092615 -0.0067397817
000370 55 03 be 3c 78 76 bf bc c9 96 f2 bc ac f7 c2 3c
       0.023194948 -0.02337192 -0.029612916 0.02379974
000380 86 dd 1d 3c 0c ae f5 3c 0d 96 03 3d 27 a1 80 bd
       0.009635335 0.029990219 0.03212552 -0.06280737
000390 6a d8 2a 3b fe b5 db 3c e6 cd 0f bd 7f 96 b9 bc
       0.0026068934 0.02682018 -0.03510847 -0.02265477
0003a0 27 ab 87 3c f5 81 ac bc 4c 62 fc bc 3d 57 02 bd
       0.016561104 -0.021058062 -0.03080859 -0.03182148
0003b0 43 51 d6 3c 40 c9 fb 3a 1f 5d 02 bd ce 0a b0 bb
       0.026161795 0.0019209757 -0.03182709 -0.005372382
0003c0 cb 08 82 3c 8c 7a 76 bd fa f0 ea bc 3a a1 35 bc
       0.015873333 -0.060175464 -0.02867936 -0.011085803
0003d0 d4 16 f1 3b b4 96 64 3d 46 9f f2 3c 09 7c cb bc
       0.0073574577 0.055807784 0.029616963 -0.024839418
0003e0 c0 ba 98 bc d1 20 21 3d 0a 2a ed bb 4b e5 a9 bc
       -0.018643737 0.039337937 -0.0072376775 -0.020739218
0003f0 32 a7 2c bd 0c 49 37 3d 4e bd 90 3d ae ba 75 bd
       -0.042151637 0.044747397 0.07067357 -0.059992485

conv_stack.0.bias f4 [32]
000000 38 1d 32 3d cc 94 2e 3e 1e 09 17 3c 75 f7 2c 3d
       0.043484896 0.17048949 0.009218482 0.04222818
000010 e0 10 cf 3c 6b 0c 36 3c 0b 9a 5f 3d 88 38 68 bd
       0.025276601 0.011111359 0.054590266 -0.056694537
000020 5e d1 92 3d 9d 23 1f bc da cc b7 3c 6d c9 33 3d
       0.0716884 -0.009713081 0.022436548 0.043893266
000030 31 89 76 3d 4a 72 0c bd 8c c6 81 3d 65 0e 0c bd
       0.06018943 -0.034288682 0.06336698 -0.034193415
000040 65 fe ea ba 9a ea 8d 3d 16 3c 15 3c c2 53 84 bd
       -0.0017928599 0.06929512 0.009108564 -0.06461288
000050 f2 a1 19 3d ec 11 a0 3d 82 4b 46 bd 72 0f cb 3b
       0.03750796 0.07815918 -0.048411854 0.0061969096
000060 65 e7 f5 3b 90 af ec 3c 13 27 09 3e 71 a0 a2 bd
       0.007504391 0.028892308 0.13393812 -0.07940758
000070 6b 44 7e ba 29 10 ec bb e6 5f 07 bd 4a 7c 8f bd
       -0.0009699526 -0.007204075 -0.03305044 -0.07006128

conv_stack.2.weight f4 [32]
000000 1e 5a 82 3f e1 5e 7d 3f 80 b5 84 3f 1f a1 81 3f
       1.0183752 0.989729 1.036789 1.0127295
000010 73 26 7c 3f 1a f3 7d 3f e5 b1 7e 3f 8d 28 7f 3f
       0.9849617 0.9919907 0.99490196 0.9967125
000020 7f 97 75 3f d4 56 7b 3f 19 37 81 3f 61 02 81 3f
       0.9593429 0.98179364 1.009494 1.0078851
000030 19 00 81 3f 5e e3 7d 3f eb 05 7b 3f e3 d8 7e 3f
       1.0078155 0.9917506 0.98055905 0.9954969
000040 27 41 81 3f 69 6a 78 3f 75 09 80 3f 35 18 7d 3f
       1.0098008 0.9703737 1.0002886 0.9886506
000050 c8 c5 7d 3f 54 5d 84 3f 78 d9 82 3f b7 60 82 3f
       0.99129915 1.0340981 1.0222616 1.0185765
000060 8e 98 7d 3f 24 3f 81 3f c9 59 80 3f bb 24 7f 3f
       0.99060905 1.0097394 1.00274 0.9966542
000070 bb f0 7f 3f 00 2f 81 3f a8 d7 7c 3f 65 1d 80 3f
       0.999767 1.0092468 0.98766565 1.000897

conv_stack.2.bias f4 [32]
000000 85 e9 d5 bc 0b 47 8c 3c 21 c2 24 3d 29 b7 0f 3b
       -0.026112327 0.01712372 0.0402242 0.002192924
000010 65 a8 59 3c 74 64 41 bb 37 f5 e4 3c 01 b7 c5 3b
       0.013284777 -0.0029509338 0.027948959 0.0060337787
000020 64 33 08 bc 8c ad 7b 3b 50 ae 3c 3c ce 86 b2 bb
       -0.008313034 0.0038403003 0.011516169 -0.005448199
000030 d9 05 02 bc 44 b6 ad bc f2 e6 45 3c 2d 78 c5 bb
       -0.0079359645 -0.021205075 0.012078987 -0.006026289
000040 2c e4 97 bc 49 da c2 3b 94 c1 64 bc 51 2d 5c bb
       -0.018541418 0.005946432 -0.013962168 -0.0033596347
000050 be 30 d3 bc 75 73 f6 ba 22 e5 5b bc 9e bb af 3b
       -0.025780078 -0.001880272 -0.013421329 0.005362942
000060 76 36 fe bc 31 9a 3a 3c 4d e2 72 bc b8 8f 4e bc
       -0.031031828 0.011389301 -0.014824462 -0.012607507
000070 44 0a de bc 3f 81 aa bb bd 9c 71 bb 3f 9b 97 bc
       -0.027104504 -0.0052033956 -0.0036867105 -0.018506644

conv_stack.2.running_mean f4 [32]
000000 39 9e 9c 3e e8 d5 b4 3e c9 cd 23 3e 40 cc 54 3e
       0.30589464 0.35319448 0.1599647 0.2078104
000010 28 bd 93 3e 8e 25 13 3e 4c 6b a7 3e d7 66 cb 3e
       0.28855252 0.14369795 0.3269905 0.39726898
000020 3b 25 31 3e d0 b7 84 3e 24 8b e1 3e dc 87 1e 3e
       0.17299359 0.25921488 0.44051468 0.15481514
000030 39 4b 83 3e 81 b4 00 3e a0 94 62 3e 17 c2 e9 3d
       0.25643328 0.12568857 0.22127008 0.11413973
000040 62 de 28 3e 96 dd 7c 3e 4a 9e f7 3d 80 2b cb 3e
       0.16491082 0.24693903 0.12090738 0.39681625
000050 bb fb ba 3e 63 d8 5f 3e a4 b7 2c 3e b9 c6 ae 3e
       0.3652018 0.21859889 0.16866928 0.34135988
000060 20 69 ad 3e a6 7f 3b 3e 55 b7 5e 3e 57 39 5d 3e
       0.33869267 0.18310413 0.21749623 0.21603905
000070 1f fc 8b 3e 9e bb 14 3e 00 e5 a5 3e 85 e0 b8 3d
       0.2734079 0.14524695 0.32401276 0.09027199

conv_stack.2.running_var f4 [32]
000000 46 e9 92 3e d1 76 84 3e 72 ff d1 3d ac e9 f6 3d
       0.28693599 0.258719 0.102538005 0.12056288
000010 b2 b2 a0 3e 75 cb b1 3d 5c b5 a1 3e d8 f8 2c 3f
       0.31386334 0.086813845 0.3158368 0.67567205
000020 f2 18 a2 3d ca 53 b6 3e c4 4a 5a 3f 3f 8a 98 3d
       0.07914914 0.356108 0.85270333 0.07448243
000030 c7 0b 80 3e 17 d0 6e 3d 61 0e 39 3e b5 12 6b 3d
       0.25008985 0.05830392 0.18071891 0.057390887
000040 c6 3a df 3d 17 5f 3f 3e c3 14 88 3d e5 d0 1d 3f
       0.10899882 0.18688618 0.06644585 0.6164687
000050 6d 92 e3 3e 1b 8c 04 3e f2 94 3a 3e 87 89 da 3e
       0.44447652 0.12944071 0.1822088 0.4268305
000060 dd aa e6 3e 5c 3c d8 3d bd ba e2 3d f5 47 52 3e
       0.45052233 0.10558388 0.11070774 0.20535262
000070 08 13 8a 3e d4 a9 98 3d 78 e2 04 3f 30 28 4b 3d
       0.26967645 0.07454267 0.51908064 0.049598873

conv_stack.3.weight f4 [64, 32, 3]
000000 1b a7 8c 3c 4f 23 83 3d 10 0d a7 bd a8 ce f4 bb
       0.017169526 0.06403219 -0.08156788 -0.0074709244
000010 0e 64 ab 3d ce be d4 3d 19 84 b8 3b be 4b 82 bc
       0.08368693 0.103879556 0.0056309816 -0.015905257
000020 0f a8 6c bd 5e cf 9a bd b8 6f dd 3c 9b f3 fb 3c
       -0.05777746 -0.075590834 0.02703081 0.030755809
000030 20 71 7d 3d 3a 49 db 3d 40 e9 6c bd 6f 93 b1 bd
       0.061875463 0.10707326 -0.057839632 -0.08670699
000040 1e 7b 4a 3d f2 c8 e5 bc e0 6b 70 bd b3 23 89 3d
       0.04943382 -0.02804992 -0.058696628 0.06696262
000050 95 a4 43 3c 94 ab bb bc 18 90 d1 3b 5b 77 a8 bd
       0.011941095 -0.022908963 0.006395351 -0.0822589
000060 9a 9c da 3d 04 f6 90 3d 4c f5 7f bd 9c 2b 8c 3d
       0.10674401 0.07078174 -0.062489793 0.06844255
000070 59 0f 7f 3d 67 d5 a7 3d fb 56 88 3d 49 28 6d bb
       0.062270496 0.08195 0.06657215 -0.0036187342
000080 c7 c0 84 ba 81 f2 c9 bd fb aa 75 bc e8 73 34 bd
       -0.0010128253 -0.09860707 -0.014994378 -0.04405585
000090 54 70 53 3c 37 85 bc 3d 39 a1 15 b9 3c 8b fe bc
       0.012905199 0.09205096 -0.00014269807 -0.031072251
0000a0 fc f8 03 3e 88 ee 80 3d 1d c0 e3 bd c6 7b 60 3d
       0.12887949 0.06295496 -0.11120627 0.05480554
0000b0 98 c6 10 bd 41 d8 ea 3c f5 8c 19 3d 13 ea 6a ba
       -0.035345644 0.028667571 0.037487943 -0.00089612714
0000c0 69 d0 83 3d b2 83 6c 3d 58 e1 81 bd 7a 1b 4c bd
       0.064362355 0.057742782 -0.06341809 -0.04983089
0000d0 a2 f6 06 bc 2c 33 2b bd 4c 49 87 3d 2a 0d d9 bd
       -0.008237513 -0.04179685 0.06605777 -0.10598214
0000e0 18 f0 07 bd 34 c9 0b 3d 75 55 64 bd ce 61 0c 3d
       -0.033187956 0.03412743 -0.05574556 0.03427296
0000f0 6d 17 65 bd 01 72 0c bd 87 e9 ac bd c1 7a 52 3c
       -0.055930544 -0.03428841 -0.08442979 0.01284665
000100 c0 b9 9c bd 27 51 fe 3c 9d 44 8d bd 5c 7b 0f 3d
       -0.076526165 0.031044556 -0.068978526 0.035029754
000110 ec ae a5 bd 72 90 c1 bd 9b 38 59 bd ec 39 c0 3c
       -0.08090004 -0.09451379 -0.0530325 0.02346512
000120 5c 1e b8 3d 73 f7 d4 bc 39 2f f7 bc 66 8b 29 bd
       0.089901656 -0.0259969 -0.030173885 -0.041392706
000130 cc 1e 18 3d eb 02 88 3c b3 f9 a1 bd 26 b9 47 3c
       0.037138745 0.016602954 -0.079089545 0.012190139
000140 75 ed 04 3d 3a 3a 44 3d 53 c1 0e bd d2 19 47 bd
       0.03245302 0.04790709 -0.034852337 -0.04860861
000150 32 f1 8b 3d 9a f2 bc 3d 5b f6 82 3d 04 50 71 3d
       0.06833114 0.0922596 0.06394645 0.0589142
000160 00 e3 42 bd 7a 52 c4 bd f7 b1 61 3d d4 ee 58 bd
       -0.047579765 -0.09586044 0.05510136 -0.05296214
000170 61 8d 80 3d 68 1a 29 3d f0 d4 cb 3c d4 14 b8 bd
       0.06276966 0.04128495 0.02488181 -0.08988348
000180 fa 39 91 3d af ad c0 3c 01 8d 95 3d bc e0 cf 3d
       0.07091136 0.023520319 0.07302285 0.101502866
000190 17 26 64 bd 00 13 78 bd aa fc 24 bd 8c 87 e3 3b
       -0.055700388 -0.060564995 -0.04028002 0.0069436487
0001a0 b2 9d 00 bd 1c 95 e4 3a d7 6c 29 3d f2 41 b4 ba
       -0.03140039 0.0017439458 0.041363563 -0.0013752563
0001b0 1a d8 a8 3d f1 21 6d 3d 84 13 c8 3d aa 10 64 bd
       0.08244343 0.057893697 0.09769347 -0.055679955
0001c0 e1 cd ce bc 22 ee 72 bd 95 f1 be bd f3 d4 37 bc
       -0.025244655 -0.059309132 -0.09323422 -0.011220205
0001d0 5c 19 a2 3d 68 1a 30 bd be a3 d5 3b b5 5f 08 bd
       0.07914993 -0.042993933 0.0065197637 -0.0332944
0001e0 15 a7 12 bd a1 04 b7 3d 9d a1 aa bd bd 27 5d 3d
       -0.035803873 0.0893643 -0.083316065 0.053992976
0001f0 58 61 0a 3d 59 ed 7e bc 44 6f 6a 3c 6d a5 8f 3d
       0.03378424 -0.015559518 0.014308754 0.07013974
000200 d9 bf 14 3d be f2 15 3d d1 93 a3 3d fc 55 f8 3c
       0.036315773 0.03660845 0.07987178 0.030314438
000210 54 38 47 3d 10 04 7d 3d 3b 5a 35 3c cd a2 a2 bd
       0.048637703 0.061771452 0.011068876 -0.07941208
000220 4a 7f 00 bd fc 01 11 bd 03 ee b8 bd 21 6d b9 3c
       -0.031371392 -0.035402283 -0.09029772 0.022635045
000230 30 4f 92 bd 9a f7 4f 3d a0 66 b9 3d 3d 62 3c bd
       -0.0714401 0.05077324 0.09052777 -0.045992125
000240 a0 e0 93 bc c8 8e c2 3c df de 13 3c 5d f1 71 3d
       -0.018051445 0.023749724 0.009025305 0.059068073
000250 14 73 d0 3c c3 8a 1a 3c 4c a6 02 3b c1 26 aa 3d
       0.025445499 0.009432497 0.0019935546 0.08308173
000260 22 b4 fc bd a4 1e e4 bc bd 74 34 bd 4c 11 af bd
       -0.12339045 -0.027846642 -0.044056643 -0.08548221
000270 3d 6d 49 3d 17 9c d8 3c 8e a7 45 3d 37 05 7b bd
       0.049176443 0.026441617 0.048255496 -0.06128427
000280 41 ba 49 3a 66 0c ad 3d f8 84 bf 3b db 92 b2 3a
       0.00076952955 0.084496304 0.0058447085 0.0013624089
000290 f6 19 ec 3c ff cb 88 bd 44 de 72 3d 83 c2 9f bd
       0.028820973 -0.06679534 0.059294 -0.07800772
0002a0 fc 7f ab bd 68 92 49 3d 25 f2 85 3d 17 88 c0 bd
       -0.083740205 0.04921189 0.06540326 -0.09400957
0002b0 61 0f fd 3c 15 05 1c 3d 19 78 5a bd 32 48 ce bd
       0.030891122 0.038090784 -0.05333719 -0.10072364
0002c0 4a 95 fc 3c 58 41 b0 bd a4 5f 77 bd d6 b6 c2 bd
       0.030832905 -0.08606213 -0.060393944 -0.095075294
0002d0 9f 74 e0 3d 29 2a 73 bd 76 a0 14 3e 42 b6 4d 3d
       0.10959744 -0.05936638 0.14514336 0.050222643
0002e0 4c 8c ae bd 67 1f 4d bc 78 49 79 bd f9 1a 41 bd
       -0.08522853 -0.012519694 -0.06086108 -0.047144864
0002f0 90 52 7c 3d b3 c2 0e 3d 68 08 e3 bd 3e 7e 97 bc
       0.061602175 0.03485365 -0.11085588 -0.018492814
000300 19 d7 a3 3d 6b e3 c5 bc 07 d2 4d 3d 73 e0 60 bc
       0.08000011 -0.024156293 0.050249126 -0.013725388
000310 06 af 96 bd e2 0c 2a 3d de e5 da 3d b4 20 28 bc
       -0.07357602 0.041516192 0.10688375 -0.010261703
000320 ee 0d c5 3d 8c 85 53 3d ef 40 07 3e 12 74 80 bd
       0.096217975 0.051641032 0.13208364 -0.06272139
000330 8a 84 08 3d a7 a1 a7 bc 17 c4 9f 3d 4c 24 b3 3d
       0.033329524 -0.020462824 0.07801073 0.087471575
000340 af 75 7b 3c fd b4 a0 3d 09 39 d8 bd 9c 4c 20 bd
       0.015347882 0.07847021 -0.105577536 -0.03913556
000350 2c 44 43 3d 65 71 8b bc 73 4a 9e 3d 03 bd 7a bc
       0.047672436 -0.017021844 0.07729044 -0.015303853
000360 f4 4d 58 3d 09 84 4f bb 4e df 20 bb 02 a9 2b 3d
       0.052808717 -0.0031664392 -0.0024547162 0.041909225
000370 e9 f2 05 bd 34 96 5d 3c de bc 20 bd 8c 6d ec 3d
       -0.03270236 0.013524581 -0.039242618 0.11544332
000380 2e b4 04 be 4c 20 94 bd 12 ad 25 3d 91 84 f6 bb
       -0.12959358 -0.07232723 0.040448256 -0.0075231274
000390 43 92 a3 3c 48 e7 5e bd a6 8a 37 bd c5 98 1c 3d
       0.019967204 -0.054419786 -0.04480996 0.03823163
0003a0 11 b4 2d bd c4 d7 b3 bc 5a 48 9a 3b 86 5b 94 3d
       -0.042408053 -0.021953471 0.004708332 0.07244019
0003b0 db 7f a6 bd 62 cf 6f 3d 95 be 23 bd 64 6d 18 bd
       -0.08129855 0.058547385 -0.039976675 -0.037213698
0003c0 48 22 31 bc dc 9e d1 3d 8d cd f5 bd 09 40 40 3d
       -0.010811396 0.10235378 -0.12002096 0.04693607
0003d0 e4 b8 5e 3d b2 05 35 3d 42 f4 08 3c 94 49 a1 3d
       0.054375544 0.044194885 0.008359017 0.07875362
0003e0 fd bc f5 bc 7a 20 80 bb f5 6b 4a 3d 50 2a b6 bd
       -0.029997343 -0.0039101215 0.049419362 -0.08894789
0003f0 72 47 92 3d 7c b9 7d 3d 14 01 90 bc 07 31 ae 3d
       0.07142533 0.06194447 -0.01757864 0.08505445

conv_stack.3.bias f4 [64]
000000 6e 11 d1 3c 26 12 88 3c da 2a 92 bd 0e cc ab 3d
       0.025521006 0.016610216 -0.071370795 0.0838853
000010 c4 98 2d bd c0 bd d9 3c a9 b6 06 bd ec 35 99 3d
       -0.042382017 0.026579738 -0.032889042 0.07480988
000020 5c 45 b4 3c 99 e6 8d bd a8 9a 04 3e 81 75 9a bd
       0.02200573 -0.06928749 0.12949622 -0.07541943
000030 96 ac 4e bd 9d 40 d7 3d 6a d1 8e bd 95 30 9c 3d
       -0.05045756 0.10510371 -0.06973536 0.07626454
000040 fe 14 b2 ba b9 30 d7 3c fe 70 9b bd 7d c5 af 3d
       -0.0013586578 0.02626835 -0.07589911 0.0858259
000050 51 09 e7 bc 61 12 1b 3e 31 8a da bb 34 52 6c bd
       -0.028202685 0.1514373 -0.0066693057 -0.057695583
000060 f5 64 80 3d f4 e4 02 bd d1 dc a7 bc da 6a 89 3d
       0.06269256 -0.031956628 -0.020491036 0.067098334
000070 aa d6 55 bd ab 5f 39 ba 23 47 f5 3c 98 67 12 3d
       -0.052206673 -0.00070714456 0.029941147 0.035743326
000080 46 c0 a7 3d 75 bf 43 3d 13 88 c3 bd 2f bc a7 bc
       0.0819097 0.04779001 -0.095474385 -0.020475475
000090 a2 00 e2 bc a2 0f 6b 3d f3 56 9c 3d ef 9b 0f 3c
       -0.027588192 0.057387955 0.07633772 0.008765205
0000a0 d0 d7 fc 3c ac 57 3d bd 04 b4 de bd 17 6c f3 bc
       0.030864626 -0.04622619 -0.10874179 -0.029714627
0000b0 29 e0 a2 3d 23 1f 82 bd 43 61 83 3d 9a 38 dc bd
       0.079529114 -0.06353595 0.064150356 -0.107529834
0000c0 6f 26 c6 3d c8 69 9d 3d fb 55 d6 3b 43 cf 70 3b
       0.096752994 0.07686192 0.0065410114 0.0036744631
0000d0 98 c3 10 be c9 3a 91 3c 72 92 ce bd bb 84 0f 3d
       -0.14137113 0.017728226 -0.10086526 0.03503869
0000e0 8d 9d 2a 3b c4 58 f1 bc 0d d9 87 bc 1f 2f 3e bc
       0.002603385 -0.029461272 -0.01658299 -0.011607914
0000f0 d9 63 0a bd fd f2 17 3d 22 29 81 3c c4 e2 e1 bd
       -0.03378663 0.037096966 0.015766684 -0.1102958

conv_stack.5.weight f4 [64]
000000 42 18 78 3f a4 e2 80 3f f5 8c 80 3f d8 e0 7d 3f
       0.96912014 1.0069165 1.0043017 0.9917121
000010 26 eb 82 3f e2 41 7e 3f fa a7 7e 3f cc 4a 7c 3f
       1.0228012 0.9931928 0.9947506 0.9855163
000020 eb a8 7f 3f dd d1 7e 3f 58 b8 81 3f 49 c9 7a 3f
       0.99867123 0.99538976 1.0134382 0.97963387
000030 3a fd 80 3f 17 bd 82 3f e8 0c 82 3f 77 d7 7b 3f
       1.0077279 1.0213956 1.0160189 0.9837565
000040 30 5a 79 3f 62 d6 7e 3f d8 96 84 3f 5d 83 80 3f
       0.9740324 0.9954587 1.0358534 1.0040089
000050 20 40 79 3f ae ea 80 3f 13 6d 7a 3f 1f 7f 7d 3f
       0.9736347 1.0071619 0.97822684 0.99022096
000060 69 6f 77 3f 68 2c 7c 3f fc e6 7d 3f ff c5 7c 3f
       0.96654373 0.9850526 0.9918058 0.9873962
000070 7e df 80 3f ae f1 80 3f 46 ba 7c 3f 0c 74 7d 3f
       1.0068204 1.0073755 0.9872173 0.990052
000080 f7 89 7d 3f 79 fe 7e 3f aa 01 84 3f 9c a0 82 3f
       0.9903864 0.99607044 1.0313008 1.0205264
000090 af d5 80 3f 8a 27 7f 3f 1f 01 80 3f 89 87 7b 3f
       1.0065211 0.99669707 1.0000342 0.98253685
0000a0 4a 86 7f 3f 46 b7 80 3f 55 ee 7b 3f 0c 77 78 3f
       0.99814284 1.0055931 0.9841054 0.9705665
0000b0 f7 81 83 3f 1d d6 83 3f a5 e3 82 3f 12 4f 7f 3f
       1.0274037 1.0299717 1.0225722 0.99730027
0000c0 47 5c 7e 3f 7e b4 7d 3f 6c 58 7f 3f a1 89 7b 3f
       0.99359554 0.99103534 0.99744296 0.9825688
0000d0 ef d7 80 3f ac ee 7e 3f f0 54 7e 3f fb 47 7e 3f
       1.0065898 0.99582934 0.99348354 0.99328583
0000e0 57 49 7d 3f ae bf 85 3f 50 56 72 3f 45 04 81 3f
       0.9894003 1.0449121 0.9466295 1.0079428
0000f0 8e f6 7c 3f 3b 52 7e 3f ea 7f 7f 3f 2b 7a 86 3f
       0.9881371 0.99344224 0.99804556 1.0506033

conv_stack.5.bias f4 [64]
000000 40 56 53 bc db 97 c3 3c ad c5 3b bd e0 92 07 bd
       -0.012898982 0.023876121 -0.045842815 -0.033099055
000010 94 fb ed bc b7 da 92 3c c6 fc 9e bd c8 0b 7c bc
       -0.029050626 0.017926557 -0.077630565 -0.015383668
000020 d8 db 42 bb a0 aa c5 bc ce e2 63 bc 48 2a 59 bd
       -0.0029733088 -0.024129212 -0.013909055 -0.05301884
000030 5b 0b a1 bb 3c 7e d5 bc 62 65 13 bd 15 a7 d0 bb
       -0.0049146838 -0.02606117 -0.035985358 -0.006367574
000040 69 8c 39 bc e1 b1 ea bb 7d 90 09 bd b9 83 c4 3a
       -0.01132498 -0.007162318 -0.03358506 0.001499287
000050 7c 7b cd 3c 3f 71 1d 3c 4b 92 49 bb ac f4 56 3b
       0.025083296 0.0096095195 -0.0030757363 0.0032799644
000060 59 c8 be 3a a0 f9 e8 bb c0 2b 39 3b f5 73 22 3c
       0.0014555558 -0.0071098357 0.0028254837 0.009915342
000070 19 38 0c bd 13 9b 26 bc 05 10 fc 3b c0 ed 50 bd
       -0.034233186 -0.0101688085 0.0076923394 -0.051007986
000080 5a 2a b0 3c 5e e1 d2 bc 67 c4 01 bd e8 81 ae bc
       0.02150457 -0.02574223 -0.031681444 -0.021302179
000090 9b 7a 2b bc bc 53 0b bd 98 32 67 3d ab 70 ec 3b
       -0.010466243 -0.034015402 0.056444734 0.0072155795
0000a0 ab 34 e7 bc 61 07 93 3c 9f 82 e1 3c 80 63 11 bd
       -0.028223356 0.017947854 0.027528105 -0.03549528
0000b0 3f 9b ba bc 60 27 c5 3c b0 61 da 3c 28 cc 88 bc
       -0.022779105 0.024066627 0.02665791 -0.016698912
0000c0 fd dc 29 bc 76 b4 b3 3c bf f6 87 bc 4b 4a c6 3b
       -0.010367629 0.021936636 -0.01659715 0.006051337
0000d0 23 57 a5 bc 14 d9 8e bc d2 e1 59 bc 6a 18 9c ba
       -0.020183152 -0.017437495 -0.013298469 -0.0011909131
0000e0 22 f6 9e 3b 01 68 a5 bc 40 a0 b3 3c 00 f9 68 3c
       0.0048511187 -0.020191194 0.021927 0.0142195225
0000f0 53 f3 3d 3c 0f bb 29 bc a2 64 4c 3c 78 e5 93 3c
       0.011593658 -0.01035954 0.012475165 0.018053755

conv_stack.5.running_mean f4 [64]
000000 2e 83 3a 3e c7 f2 04 3e 06 0a 2e 3e 6c 7d 95 3e
       0.18214104 0.12983237 0.16996011 0.29197252
000010 cd e6 21 3e 34 a3 02 3e ce e1 9c 3e 10 3a 84 3e
       0.158107 0.1275757 0.30641025 0.25825548
000020 cb 6d 91 3d 15 d4 5c 3e b1 00 6a 3e 51 1d 00 3e
       0.071010195 0.21565278 0.22851826 0.12511183
000030 79 4b f6 3d 74 69 15 3e d4 3f b8 3d 12 0c 72 3e
       0.12026114 0.14591008 0.08996549 0.23637417
000040 3e d0 eb 3d 52 59 07 3e 9d bc cc 3d 8a 35 6a 3e
       0.115143284 0.13217667 0.09996913 0.22871986
000050 34 40 b5 3d 24 bb 48 3e 8b f1 90 3e 96 a2 a1 3d
       0.088501364 0.19602638 0.28309283 0.07892339
000060 16 3b 51 3e 16 f5 6c 3e 54 15 25 3e aa db 80 3e
       0.20432696 0.23140368 0.16121417 0.2516759
000070 ce 13 12 3e f0 c3 0b 3e 2e 4a 3c 3e c9 4e 09 3e
       0.14265367 0.13648963 0.18387672 0.1340896
000080 23 b7 23 3e a7 3c 8c 3e 93 f9 17 3d a4 d4 36 3e
       0.1598783 0.27390024 0.037103247 0.17854553
000090 27 a6 ea 3d f7 3f cd 3e 72 c0 b1 3e 16 71 e1 3e
       0.11457472 0.40087864 0.34717137 0.4403159
0000a0 c5 0f 10 3e fb 93 26 3e 2b df 52 3e 02 eb 67 3e
       0.14068516 0.16267388 0.20592944 0.22648242
0000b0 87 78 5a 3e 4b 96 dc 3d 05 d0 f3 3d 3d 30 34 3d
       0.2133504 0.107708536 0.11904911 0.043991316
0000c0 0d f7 9f 3e e2 4e 3a 3e 61 70 00 3e ce 85 d1 3d
       0.31243172 0.18194154 0.12542869 0.10230599
0000d0 6d 8f 8e 3d 55 73 a8 3e 62 98 81 3e 8b c5 f6 3d
       0.0696095 0.3290049 0.2531157 0.12049397
0000e0 d8 d4 07 3e 9c 10 81 3d f0 a0 32 3e 6f 11 df 3d
       0.13264787 0.06301996 0.17444205 0.10891997
0000f0 20 e3 06 3e 7c 54 99 3e 62 bf d0 3d 1d d6 5c 3d
       0.13172579 0.2994727 0.101927534 0.05391513

conv_stack.5.running_var f4 [64]
000000 b2 b4 05 3e c9 a7 99 3d d9 76 58 3e 13 f0 a4 3e
       0.13057211 0.075027056 0.21139087 0.32214412
000010 16 5b c2 3d 1c d4 fb 3c 06 b8 90 3e c0 73 ad 3e
       0.094900295 0.03074079 0.282654 0.33877373
000020 18 03 2c 3d bb 30 90 3e 7a f6 87 3d ae e9 be 3d
       0.041995138 0.28162178 0.066388085 0.093219146
000030 3b e5 86 3d 82 9a 48 3d 87 a1 1c 3d 31 09 50 3e
       0.06586691 0.048975475 0.038239982 0.20316006
000040 29 4e 59 3d 5b 45 12 3e fe a2 9a 3d 59 a4 c2 3d
       0.053053055 0.1428427 0.075506195 0.09504003
000050 76 1c c7 3d d8 3d 8b 3d 2b ac 9b 3e 8e f7 23 3d
       0.09722225 0.06798905 0.3040479 0.04003101
000060 8e bb e2 3d 3f 64 1f 3e 04 ab e9 3d 12 bb 0e 3e
       0.110709295 0.15565585 0.11409572 0.13938549
000070 0c 7a b7 3d 98 3b a7 3d d7 33 bf 3d 71 84 8a 3d
       0.089588255 0.081656635 0.093360595 0.067635424
000080 5c 62 60 3d 83 e2 82 3e 91 b4 d0 3c b8 05 d8 3d
       0.054781303 0.2556344 0.025476726 0.10547966
000090 85 d2 5a 3d 1c fa 12 3f a3 73 f6 3e ae 33 32 3f
       0.053423423 0.57412887 0.481351 0.69610107
0000a0 f0 28 c4 3d 87 7c 38 3e 49 97 b0 3e a7 5f 83 3e
       0.09578121 0.18016253 0.3449042 0.25658914
0000b0 df 2a 06 3e 4f 5f 7f 3d ee 0d c9 3d 71 9d 0a 3d
       0.13102292 0.062346753 0.0981711 0.033841554
0000c0 fe ad 28 3e af c6 c1 3d 9c 53 ff 3d e9 c9 86 3d
       0.16472623 0.09461724 0.12467119 0.0658148
0000d0 f8 86 81 3d be c0 e8 3e f3 20 96 3e 95 79 98 3d
       0.06324571 0.4545955 0.29322013 0.07445065
0000e0 ea 41 81 3d 66 23 dd 3c ef 56 36 3e b6 3a 45 3d
       0.063114 0.026994418 0.178066 0.048151694
0000f0 be c7 92 3d e8 ec 6b 3e 8b 22 3c 3d 1a 36 59 3d
       0.07167004 0.23039591 0.04593138 0.05303011

conv_stack.6.weight f4 [128, 64, 3]
000000 3f 01 9f 3c dc f8 1e bc 14 f7 c1 bd b2 34 f7 bc
       0.019409774 -0.009702887 -0.094709545 -0.030176494
000010 d2 3d f4 bc 88 fb 96 bd 4a 81 9f bc a4 4b 96 bc
       -0.029814634 -0.073721945 -0.01947083 -0.018346615
000020 0a b5 a6 3d ad eb 76 3d e8 5d 58 bd 79 1d 18 bd
       0.08139999 0.06028335 -0.05282393 -0.037137482
000030 52 67 1e 3d 16 5f f3 bc 1e f5 39 bd 6c d6 26 3c
       0.038672753 -0.029708426 -0.045399778 0.010182958
000040 df 0d b6 bd 2c 45 1a bd ee 31 33 bc 81 e8 c9 bb
       -0.088893645 -0.037663624 -0.010937197 -0.00616175
000050 95 f9 3f bd 33 e6 fd ba b9 87 a3 bd d5 2b ae bc
       -0.04686888 -0.0019370973 -0.079848714 -0.021261135
000060 1b 10 27 3d 0e b9 3c bc 6d 9c b1 bd 56 26 9b bc
       0.040786844 -0.01151873 -0.08672414 -0.018939178
000070 f0 63 56 3d ca ef 81 bd 0b 4b 08 bc 23 e6 0f bd
       0.0523414 -0.06344564 -0.008318673 -0.035131585
000080 d9 92 ef 3b 44 5c 91 3b 7a 60 49 bd 25 1c 72 3d
       0.007311207 0.0044360477 -0.049164273 0.059108872
000090 4d de 1c bc 1f 51 40 bd 9a 2e ef ba 70 6e 98 3c
       -0.009574485 -0.046952363 -0.0018248141 0.018607348
0000a0 9d 85 27 3d 64 1c de bc 46 5c 89 3d 36 c3 5f 3d
       0.040898908 -0.027113147 0.06707053 0.054629527
0000b0 bf 74 8d bd fe 7f 2c 3c 9d 95 16 3d 9a 69 1f bd
       -0.06907033 0.010528563 0.036763776 -0.03891907
0000c0 d3 3c fe bc 37 5d 90 bd 03 57 e8 bc 58 01 e9 bc
       -0.031034863 -0.07049029 -0.028361803 -0.028443024
0000d0 0d b6 ae bc 53 fa 32 3d 85 0c c3 3b 2f 15 2b 3d
       -0.021327043 0.04369576 0.00595242 0.04176825
0000e0 94 a6 63 bc c9 57 be 3c c9 cc b6 3a 35 61 c9 3b
       -0.013894696 0.023235219 0.0013946529 0.006145621
0000f0 24 d1 19 bd 97 7d 29 bd 8e 0e 73 bd a8 26 9b 3d
       -0.037552968 -0.041379537 -0.059340052 0.075757325
000100 85 25 0d bc 6d 1a 3f bd 5e 32 18 bd 01 8d 0f 3d
       -0.008614902 -0.04665606 -0.03715741 0.03504658
000110 1a b9 64 bd d3 fa 35 3c a0 2d 96 3d c0 8d 87 bd
       -0.05584059 0.011107164 0.07332921 -0.066188335
000120 12 95 2c bd 79 21 07 bd 94 90 56 bd c6 b5 01 bd
       -0.042134352 -0.032990906 -0.052383974 -0.031667493
000130 7e 5d da bc 99 6c 19 3d 26 c7 c7 bc ad b5 a2 bd
       -0.026655909 0.037457082 -0.024386954 -0.07944808
000140 c8 7f b4 3c 18 13 84 bd 47 c3 2c 3d 81 c1 11 3e
       0.022033587 -0.06448954 0.04217842 0.14233972
000150 82 38 87 bd 9e 87 4e bd c1 13 99 3a e2 19 ed bc
       -0.06602575 -0.050422303 0.0011678861 -0.028943006
000160 aa b8 46 bd 25 45 03 bd 86 c5 4b 3d 09 31 8d bd
       -0.048515953 -0.032048363 0.04974892 -0.06894118
000170 e4 39 6d 3d 47 79 97 bc d2 65 3b bd f0 7a 11 3d
       0.057916537 -0.018490447 -0.0457514 0.035517633
000180 c4 df 0e 3c 85 87 5b 3d 99 6f 86 3d 8b 18 17 bd
       0.008720342 0.05359604 0.06564254 -0.03688864
000190 7b 2a 9e 3b 31 34 87 3d e4 1d a9 3d d6 71 68 3c
       0.0048268414 0.066017516 0.08257654 0.014187297
0001a0 a7 cb 0e bd af 37 6d bd 5e 70 b7 bd ff ee bf bc
       -0.034862187 -0.057914432 -0.08956979 -0.023429392
0001b0 ae 77 26 bd ed c3 ae 3d 7a 66 9d 3c 2e 24 c1 3b
       -0.04064148 0.085334636 0.019213904 0.0058942055
0001c0 58 bf 88 bc 79 3f 90 3c ac 5e b1 3c 1a f1 ad bc
       -0.016692802 0.017608391 0.021651588 -0.02123313
0001d0 3a 20 1c bd c8 3e cf bc ef ca 51 bd 27 6a 9d 3d
       -0.03811667 -0.025298491 -0.051218923 0.076862626
0001e0 5a 0e 53 bd be b3 8f bd 3a ad 13 bc 1e 19 80 bd
       -0.05152736 -0.07016705 -0.009013468 -0.06254791
0001f0 53 f0 93 3c 77 78 bb 3c 09 7b 10 bc 6d 24 85 bd
       0.018058931 0.02288459 -0.008818396 -0.06501088
000200 8b cc 03 bc 71 b2 3b 3d f3 bb af 3d 80 25 88 bd
       -0.008044372 0.04582447 0.0858077 -0.066477776
000210 b8 97 0c bd 15 8a 89 bd 7f 30 cf bc 2b 4e 29 bd
       -0.034324378 -0.0671579 -0.02529168 -0.041334312
000220 00 f2 13 bd df a9 17 bd 69 70 63 3d 34 4b 1b bd
       -0.03611946 -0.037027236 0.055527125 -0.037913516
000230 37 8e 66 3c 0a da ac bc 16 84 2f bc 73 83 d4 bc
       0.014071993 -0.021100063 -0.010712644 -0.025941586
000240 c4 99 78 bd 88 11 36 3d 18 3b 12 bd 4c be 49 3d
       -0.060693517 0.044450313 -0.035700887 0.049253747
000250 97 ce 56 3c 06 eb 81 bd 52 33 80 3d 8f ca 95 b9
       0.013110778 -0.06343655 0.062597886 -0.00028570413
000260 db fb ce bb f1 08 92 bc 3a 76 e2 3b 19 3c 84 bd
       -0.0063166446 -0.01782653 0.0069110664 -0.06456775
000270 7f d2 14 bd a8 bb c6 3c aa ab 86 bd c8 50 11 3d
       -0.036333557 0.024259403 -0.06575711 0.03547743
000280 71 d3 62 3d 90 7c 0d 3d e6 1d 2e 3d 0b 18 18 bd
       0.055377427 0.03454262 0.042508982 -0.037132304
000290 20 74 8f 3d d0 e6 1c bd c0 e1 14 3d ed fa 64 bd
       0.07004571 -0.038306057 0.036348104 -0.055903364
0002a0 da 8a 57 bd 27 71 0d 3d db 2e ab bb 91 05 63 3c
       -0.052622654 0.03453174 -0.0052240915 0.013856308
0002b0 5c f7 66 3d f8 e6 23 bd dd 0f 42 bc 78 c9 68 bd
       0.056388244 -0.04001519 -0.011844602 -0.05683276
0002c0 95 2a 72 bd 0e 7d 54 3d 1a 93 70 bc 86 45 cd bc
       -0.05912264 0.051877074 -0.014683509 -0.025057565
0002d0 39 ed f6 bc 52 60 77 bd 84 6a ae bc 5c 55 03 3d
       -0.030142413 -0.060394593 -0.021291025 0.032063827
0002e0 4d be ee bc 77 02 21 3d 8a de ad bc 31 84 49 3c
       -0.029143477 0.03930899 -0.021224279 0.012299583
0002f0 d2 b1 ce bc 18 2e ff bc 26 bd 0c bb d8 1c 2c bc
       -0.025231276 -0.031149909 -0.0021475046 -0.010504924
000300 4d 8c 46 bd a5 8e 0c 3d 8d e1 82 3d 0e 23 68 bb
       -0.048473645 0.034315724 0.06390677 -0.0035421285
000310 c1 95 36 bd 2f 89 5d bc a5 c7 61 3d 80 e8 89 3d
       -0.04457641 -0.013521477 0.055122036 0.06733799
000320 22 5c e5 3d 98 26 2c bb cb 6b 97 3c 8b 43 79 bd
       0.111992136 -0.002626812 0.018484017 -0.06085543
000330 3f 43 60 3d 77 12 8f 3c 99 72 d2 3d 19 95 98 3d
       0.05475163 0.01746486 0.10275764 0.07450313
000340 fd bf 40 bd 69 c7 94 3c 18 92 68 bc 1c 19 46 3d
       -0.047058094 0.018161492 -0.014194988 0.04836379
000350 35 42 19 3a 20 97 aa bc 46 ac 50 bd 65 21 8b bc
       0.00058463524 -0.020824015 -0.050945543 -0.016983697
000360 18 a2 dc bc ae c9 c1 bc ac ed 5b bd 73 ed 67 bd
       -0.026932761 -0.023655739 -0.05369346 -0.056622934
000370 2d 0f a4 bc 35 05 af 3c ce 18 4a bc 93 70 b2 3d
       -0.020026768 0.021364788 -0.012335015 0.08712878
000380 35 0f 4b bd 4f c4 4c 3d 6e 6c de 3c 52 14 61 3d
       -0.04957505 0.049991902 0.027151313 0.05495102
000390 c8 73 74 bd c2 5b 8c bc b1 a7 9e 3b f4 62 a2 3d
       -0.05968073 -0.017133597 0.0048417677 0.0792903
0003a0 f2 2c 5c 3d 4d 81 ec 3c ec c0 25 bc e3 1f 78 bd
       0.0537538 0.02887025 -0.010116797 -0.060577285
0003b0 c4 57 4f bd 42 70 79 bb 55 c3 90 3d 53 08 57 3d
       -0.05062081 -0.0038061296 0.07068507 0.052498173
0003c0 3b 48 6f 3c 1d 2b 5c 3d 83 7e bd 3c fb 84 8b 3d
       0.014604623 0.053752054 0.023131615 0.068124734
0003d0 bb b9 d1 3d c2 9c 4d 3c 15 ec 2c 3d d0 da ac bb
       0.102405034 0.012549581 0.042217333 -0.005275108
0003e0 03 82 5f 3b aa b4 62 bb 31 c5 51 bd a1 f5 36 3d
       0.0034104593 -0.0034592547 -0.051213447 0.044667844
0003f0 a3 3a 21 3d 63 11 ec 3c 3a fd 0c bd 42 e8 ad bd
       0.03936256 0.028816884 -0.034421183 -0.08491565

conv_stack.6.bias f4 [128]
000000 10 2b 98 bc 1c a1 9d bd 17 db 73 3d fd 79 a2 bd
       -0.018575221 -0.07696745 0.059535112 -0.07933424
000010 b4 0a 95 3d 99 e4 c1 3c f8 ef d1 3d e6 3c 59 bd
       0.07277432 0.023668574 0.102508485 -0.053036593
000020 73 ac ee 3c a8 de c8 bc 38 76 a7 3c d0 ee e3 3c
       0.029134965 -0.024520233 0.020442113 0.027823836
000030 5c cb 1c 3d 6e 82 c6 3d c3 c1 cc 3c f6 d9 fc bc
       0.038279876 0.09692846 0.024994737 -0.03086565
000040 55 02 8f 3d 83 1f 83 3d a1 db 7f bc be f2 69 3a
       0.06982867 0.06402495 -0.015616328 0.0008924416
000050 65 f0 1c 3d 42 ed bb 3d 70 ee 5c bd a2 04 b5 bc
       0.038315196 0.09176113 -0.05393833 -0.022096936
000060 4e f8 89 3d ab d7 6b bc 49 bb c0 bc 2d 5c 86 bc
       0.067368135 -0.014394681 -0.023526805 -0.016401375
000070 1e 05 20 3d 96 ee ee 3b 64 a3 a1 3d 9d ea ae 3d
       0.03906738 0.0072916253 0.078924924 0.08540843
000080 93 6c 2f bd 7c 3e 66 3c 97 59 91 3d 21 1b d2 bc
       -0.042828154 0.014052983 0.07097166 -0.025647702
000090 b8 d8 8f 3d 0b 00 95 3c 29 66 a7 3d 00 15 02 bd
       0.07023758 0.018188497 0.081737824 -0.03175831
0000a0 8e 78 e1 bc f4 aa e9 bc db 47 5a 3d 9f c5 1b bc
       -0.027523305 -0.0285239 0.053291183 -0.009507566
0000b0 75 8d d6 3c d7 70 0f 3d 7e 78 90 3b a0 92 a1 bd
       0.026190499 0.03501972 0.004408895 -0.078892946
0000c0 fb 6c 87 3d e2 95 c5 bc a6 d0 b8 bc 78 3e 8f 3d
       0.06612583 -0.024119321 -0.022560429 0.06994337
0000d0 2a 26 d1 3d 6b ef 19 3c d1 28 89 3d b4 19 29 3d
       0.10212357 0.009395461 0.06697238 0.041284278
0000e0 9c 6f 3d 3d 50 64 05 3d ef c5 3d 3d 7f 8c 54 ba
       0.046249017 0.03256637 0.046331342 -0.0008108094
0000f0 5c dd 9d bd a2 c2 41 bd 69 a7 80 bd bc 84 37 3c
       -0.077082366 -0.047304757 -0.06281931 0.01120108
000100 4a d7 19 bb 25 14 2a bd 72 c0 73 3d 4d c8 a9 3c
       -0.002347427 -0.041523118 0.059509702 0.020725394
000110 6a 33 76 bd 4d a1 04 bd 96 61 a4 3c 0e da 3b bc
       -0.060107626 -0.03238039 0.020066064 -0.0114655625
000120 db 75 86 3d 49 ce 53 3d ec 8a 1a bd fe 45 e8 3c
       0.06565448 0.0517104 -0.037730142 0.028353687
000130 3e d8 53 bd d2 20 a3 bd 4e 59 15 3c 5b 9f ad bd
       -0.051719896 -0.07965244 0.00911553 -0.0847766
000140 bf 42 5d 3c 3a 52 79 3c b0 3c c4 bc 37 98 eb bb
       0.013504683 0.015217358 -0.02395472 -0.0071897763
000150 50 91 8b 3a bd f0 91 3c af 69 5c 3d 39 f8 bc bb
       0.0010648165 0.017814988 0.053811725 -0.005766895
000160 5b 77 c2 3d d8 00 20 bb 9b ce 8f bb a5 db 69 3b
       0.094954215 -0.0024414565 -0.004388643 0.0035683897
000170 36 26 0b 3d 06 f3 97 3b ab 60 51 3b 7a dd d6 bc
       0.033971988 0.004637125 0.0031948488 -0.026228655
000180 a6 62 08 bd 85 63 89 bd 0d fb a1 bd 94 e4 8e bd
       -0.033297203 -0.06708435 -0.07909212 -0.069771916
000190 69 2b 67 ba 79 99 0e 3d 2c 77 7e 3d ff 82 e9 bc
       -0.00088184193 0.03481433 0.06212537 -0.028504847
0001a0 bc 5f b7 bd 62 18 23 bc 07 52 23 bd e6 f8 28 3d
       -0.08953807 -0.009954544 -0.03987315 0.041252993
0001b0 19 92 0d 3c d9 0d 80 bc 21 14 62 3b a8 5e 55 bb
       0.008640789 -0.015631603 0.003449686 -0.003255764
0001c0 d8 4f 8b bd fe be 8f bd 63 28 0a 3b 5a 38 2d bd
       -0.06802338 -0.07018851 0.0021081201 -0.04229007
0001d0 47 4e c9 bd f4 71 83 bd 33 ba 5f bd 47 71 0a 3d
       -0.09829383 -0.06418219 -0.054620933 0.033799436
0001e0 4f b7 b3 bd f0 36 8d 3d 08 f3 ef bc 7f 07 39 3d
       -0.08775198 0.06895244 -0.029290691 0.045173164
0001f0 87 7a 8b bc 4f 10 0d bd ad d7 0a 3c a1 46 cd bc
       -0.017026199 -0.03443938 0.008474273 -0.025058093

conv_stack.8.weight f4 [128]
000000 28 b2 7a 3f d3 50 7f 3f bc 68 7e 3f 32 41 7d 3f
       0.97928095 0.997327 0.9937856 0.98927605
000010 7a 8f 7c 3f 93 92 78 3f 68 11 80 3f 77 24 79 3f
       0.9865643 0.97098655 1.0005312 0.97321266
000020 92 8b 7e 3f ac a9 7e 3f d9 6e 7e 3f aa eb 7e 3f
       0.9943172 0.9947765 0.9938789 0.99578345
000030 76 ff 7c 3f 97 08 80 3f b8 27 80 3f e4 50 80 3f
       0.988273 1.0002621 1.0012121 1.0024686
000040 5a 81 7d 3f 13 3d 80 3f a6 c9 7d 3f ec 41 7e 3f
       0.990255 1.0018638 0.99135816 0.9931934
000050 74 af 7f 3f d3 8f 7b 3f 34 0d 74 3f 3d ad 7a 3f
       0.99877095 0.98266333 0.95332646 0.9792059
000060 2f 9a 7f 3f 85 d7 7a 3f a6 c7 7f 3f 38 b0 7f 3f
       0.9984464 0.97985107 0.99914014 0.99878263
000070 28 6d 7f 3f 91 7e 7a 3f 1d 80 7d 3f a9 31 7d 3f
       0.99775934 0.97849375 0.9902361 0.989039
000080 88 cb 81 3f 17 37 7f 3f c3 82 7e 3f d1 4f 7f 3f
       1.0140238 0.99693435 0.99418277 0.99731165
000090 70 8f 78 3f 98 c5 7c 3f d1 72 75 3f 48 fc 73 3f
       0.9709387 0.98739004 0.9587832 0.95306826
0000a0 e3 63 7f 3f c1 92 7d 3f ad 03 7d 3f 4d fe 74 3f
       0.9976179 0.99052054 0.98833734 0.9570053
0000b0 f5 30 7f 3f dc 54 79 3f e1 13 7e 3f 24 60 80 3f
       0.9968408 0.9739511 0.9924908 1.002934
0000c0 d0 6f 7f 3f 97 22 7e 3f f4 a3 79 3f ef 92 80 3f
       0.9977999 0.9927153 0.975158 1.004484
0000d0 a4 e3 7e 3f 65 8c 80 3f 3e e8 7e 3f 07 0d 7c 3f
       0.995661 1.0042845 0.99573123 0.9845738
0000e0 70 11 7f 3f 99 24 7f 3f ed 28 80 3f cd f3 75 3f
       0.9963598 0.9966522 1.001249 0.96075135
0000f0 0e 3a 80 3f 67 25 7f 3f e3 62 80 3f 61 28 76 3f
       1.0017717 0.99666446 1.0030178 0.96155363
000100 ce 7e 7b 3f 4c 73 7d 3f bd 66 7e 3f 4f 7f 7a 3f
       0.98240364 0.99004054 0.99375516 0.9785051
000110 26 57 7d 3f b7 8f 7d 3f f5 cc 80 3f 2c 48 7b 3f
       0.989611 0.99047416 1.0062548 0.98157
000120 40 bc 80 3f 46 db 76 3f 22 50 80 3f b4 29 7b 3f
       1.0057449 0.96428335 1.0024455 0.9811051
000130 b2 fe 7e 3f 11 a2 7d 3f 8a 88 7e 3f 5d 59 7f 3f
       0.99607384 0.9907542 0.9942709 0.9974573
000140 25 35 7a 3f 16 57 80 3f 2c 83 7c 3f b8 b6 7d 3f
       0.9773734 1.0026577 0.9863765 0.9910693
000150 15 2c 81 3f db 6f 7e 3f ea c0 7e 3f 70 4e 7e 3f
       1.0091578 0.9938943 0.99513113 0.99338436
000160 f1 89 80 3f 31 47 80 3f 62 4e 7f 3f f8 44 7b 3f
       1.0042096 1.0021726 0.9972898 0.9815211
000170 ba e6 7f 3f a6 2e 75 3f e7 74 81 3f 86 53 7a 3f
       0.99961436 0.95774305 1.0113801 0.97783697
000180 77 2c 7d 3f ba 46 7d 3f c4 70 7d 3f 24 10 78 3f
       0.9889597 0.98936045 0.9900019 0.9689963
000190 42 22 7f 3f 29 0b 7d 3f 2e ff 7a 3f 78 5f 7d 3f
       0.9966165 0.98845154 0.98045623 0.989738
0001a0 db 16 78 3f e3 d4 7d 3f a2 d3 7c 3f 48 32 80 3f
       0.96909875 0.99152964 0.98760426 1.0015345
0001b0 a9 3a 7f 3f 10 1a 81 3f eb ea 7f 3f 9e 58 7b 3f
       0.99698883 1.0086079 0.9996783 0.98182094
0001c0 35 53 79 3f 50 7a 80 3f ff 36 7d 3f 08 b8 7d 3f
       0.9739259 1.0037327 0.9891204 0.99108934
0001d0 94 87 7f 3f 02 4b 7c 3f 58 f7 7b 3f 28 04 77 3f
       0.9981625 0.9855195 0.9842429 0.96490717
0001e0 01 9a 80 3f d0 b6 7d 3f 95 a4 7d 3f 8f 18 80 3f
       1.0046998 0.99107075 0.9907926 1.0007495
0001f0 0f d2 7f 3f 12 1e 7d 3f 89 f6 76 3f cf fe 7c 3f
       0.999299 0.9887401 0.9646993 0.9882631

conv_stack.8.bias f4 [128]
000000 2b cd ee bb 79 2a 08 3c ea ef 8f 3b ad 20 c9 bb
       -0.0072876415 0.0083109075 0.0043926137 -0.0061379285
000010 c8 9c 49 bc b2 f5 8c bc 7d 25 e6 3b 51 da 80 bc
       -0.012305446 -0.017207 0.007023512 -0.015729101
000020 41 96 f0 ba 81 93 80 3b 78 a3 b4 3b e2 bf b6 bb
       -0.0018355326 0.003923834 0.005512651 -0.0055770734
000030 b5 db cf bb 69 51 fe 3a 37 79 19 bb ae 38 40 3b
       -0.00634333 0.0019402924 -0.0023418197 0.0029330659
000040 5a 48 9f bb 6e d3 09 bb 8a d3 bc bb 68 dd 91 3a
       -0.00486092 -0.0021030563 -0.005762522 0.0011128606
000050 f3 53 04 bc 61 d3 6a bb e0 a5 53 bc 48 14 37 3b
       -0.008076656 -0.0035831558 -0.012917966 0.0027935673
000060 2a 12 a0 bb 0f 74 b6 bb 4f 74 5c ba 19 e3 cc bb
       -0.004884978 -0.0055680345 -0.00084096653 -0.006252658
000070 4b 21 20 bc f3 75 64 bc d2 1c c8 ba a5 2d 81 ba
       -0.009773563 -0.013944137 -0.0015267378 -0.0009855522
000080 eb a3 d4 3a 81 16 25 3c 36 00 48 bb 53 77 ec bb
       0.0016223168 0.010076166 -0.0030517704 -0.007216373
000090 2e 73 03 bc 99 87 f7 bb f7 11 6f bc 0e b6 43 bc
       -0.008023066 -0.0075540063 -0.0145916855 -0.011945261
0000a0 25 d2 35 3b b6 41 b9 bb 9a d0 23 3b 87 51 74 3b
       0.0027743664 -0.0056535853 0.0024996162 0.003728004
0000b0 96 68 94 bb d2 ea 9a bc 59 b2 bb 3a dd b1 70 3b
       -0.004529069 -0.0189108 0.001432012 0.0036727109
0000c0 92 91 86 bb 88 d5 61 bc 98 8e ce bb 27 ab 65 3b
       -0.004106709 -0.01378382 -0.0063036196 0.0035044642
0000d0 b5 fd 9c bb ce a5 2f bb 3a 29 58 bb d9 ae 48 bc
       -0.0047909864 -0.0026801708 -0.0032983557 -0.012248718
0000e0 ce c5 6a 3a c2 da 07 3b cd 37 c0 bb 85 24 70 bd
       0.0008955867 0.0020729755 -0.005866027 -0.058628578
0000f0 1b 70 6b 3b fa f1 14 bc 0f 4e d9 ba 13 a3 af ba
       0.0035924974 -0.009090895 -0.0016579049 -0.001340004
000100 9f f5 07 bc dd 26 0e 3c 43 13 cb 3a 3e 49 1f bc
       -0.008298307 0.008676258 0.0015493411 -0.009722052
000110 68 4b 58 bc 5d c2 ff 3b ca 84 29 3b 0e 51 71 3b
       -0.013201572 0.0078051523 0.0025866502 0.0036821994
000120 69 aa 97 bb 71 2f 3a bc 25 a0 47 3c 52 7d 55 ba
       -0.004628469 -0.01136385 0.0121841775 -0.00081439794
000130 bc 4b b7 bb 31 62 d1 3a 31 cc 05 bc ec bf 17 bb
       -0.005593745 0.0015974698 -0.008166359 -0.0023155166
000140 ff bb 3b bc 14 ec b4 3a c2 59 17 bb fc 1a 0c bc
       -0.011458396 0.0013803267 -0.0023094271 -0.008551355
000150 68 cd 79 bb c3 b7 9c 38 70 f1 7a bb af 87 a8 ba
       -0.0038116816 7.472888e-05 -0.003829088 -0.001285782
000160 30 2f 7f 3b 3f 07 e8 bb 00 5a 95 bb a3 c7 05 bb
       0.0038938038 -0.007080942 -0.004557848 -0.0020413182
000170 b2 ba 38 39 90 43 69 bc d2 9a 94 37 28 c8 d4 bb
       0.00017617157 -0.0142373 1.7715069e-05 -0.006493587
000180 46 b1 39 3c aa 4c 8b bc 60 42 69 bc fc b3 32 bc
       0.011333769 -0.01700433 -0.014237016 -0.010907169
000190 f1 0d 83 ba 74 27 06 3b a6 02 c6 bb a0 47 ef 3b
       -0.0009998662 0.0020470293 -0.006042796 0.0073022395
0001a0 48 c2 14 bb 30 e9 3f 3b 83 16 ff ba af 30 97 3b
       -0.0022698808 0.0029283278 -0.0019461665 0.004613958
0001b0 2e 5a 20 bc b3 b5 c2 3b a8 5e 1a bc 2c a5 39 bb
       -0.0097871255 0.0059420704 -0.009421982 -0.002832721
0001c0 35 3e 36 bc 84 aa 4e 3a e2 f6 a2 bc fb 69 29 3c
       -0.01112323 0.0007883685 -0.019893114 0.010340209
0001d0 64 87 7a bb d8 21 86 bc 0d b9 b0 3b f4 bc 79 bc
       -0.0038227672 -0.01637356 0.0053931535 -0.015242804
0001e0 96 69 81 3a 16 2e 4c bc 33 d3 77 bc 56 b4 b4 ba
       0.0009873386 -0.01246216 -0.015126037 -0.0013786654
0001f0 16 d3 ff 3b 98 f7 bd bb 79 39 89 39 84 c9 69 bc
       0.007807146 -0.0057973377 0.00026173497 -0.0142692365

conv_stack.8.running_mean f4 [128]
000000 df 38 1f 3e a4 84 1f 3e 92 a6 6b 3e 7f 00 78 3e
       0.15549038 0.15577942 0.2301276 0.24218939
000010 7a 4c 35 3e 8d 20 25 3e 32 b1 ad 3e 2a 45 ec 3d
       0.17704955 0.16125698 0.33924252 0.115366295
000020 09 a5 97 3e 90 08 6c 3e 13 61 98 3e 7f 39 2c 3e
       0.296181 0.23050141 0.29761562 0.16818808
000030 8d 4c 43 3e de dd 7f 3e 89 4e 83 3e e2 a1 8c 3e
       0.1907217 0.2498698 0.25645855 0.27467257
000040 3b d3 0b 3e 53 d6 6f 3e 79 62 3f 3e 08 d0 8f 3e
       0.13654797 0.23421602 0.18689908 0.28088403
000050 73 e1 d3 3e e6 17 84 3e 38 84 e9 3d a1 e3 a5 3e
       0.41382942 0.25799483 0.11402172 0.3240023
000060 d4 a7 24 3e bf bf 76 3e 46 fb 13 3e 2f 0f 68 3e
       0.16079646 0.24096583 0.14451322 0.22662042
000070 b5 27 02 3e a5 8f 7f 3e c6 53 ad 3e d3 2e 46 3e
       0.1271046 0.2495714 0.33852977 0.193538
000080 4b ae 78 3e de 23 88 3e 03 33 51 3e de 6d aa 3e
       0.24285237 0.26589864 0.20429616 0.33286947
000090 82 37 8e 3e 5d de c9 3e fd 0b 47 3e d1 19 6a 3e
       0.27776724 0.39427462 0.19438167 0.2286141
0000a0 2f 0b 80 3e dd 17 41 3e 06 6a 6b 3e 50 53 8b 3e
       0.25008532 0.1885676 0.22989663 0.27212
0000b0 f2 07 30 3e c8 c4 ce 3e 36 4b 44 3e 82 ac c3 3d
       0.17190531 0.40384507 0.19169316 0.09554388
0000c0 d6 32 0c 3e f4 ed bb 3e 6b 81 43 3e ca e4 86 3e
       0.13691267 0.3670498 0.19092338 0.26346427
0000d0 fa 6e aa 3e 7d 8f 81 3e 5a 55 b2 3e 97 0c 63 3e
       0.33287793 0.25304785 0.34830743 0.22172771
0000e0 e2 ff 3d 3e 8b 16 94 3e 96 67 8c 3e 72 9c 9d 3e
       0.18554643 0.2892345 0.2742278 0.3078342
0000f0 42 c5 8f 3e 0d 8d 0e 3e b8 58 1a 3e ca ff 67 3e
       0.28080183 0.13920994 0.15072906 0.2265617
000100 d4 47 9a 3e ce c5 6c 3e 1c 35 bb 3e 72 d8 4b 3e
       0.30132926 0.23122332 0.36563957 0.19906786
000110 c7 bb d9 3d bb 51 68 3e 3a a5 35 3e d1 c8 8b 3e
       0.10631519 0.22687428 0.1773881 0.27301648
000120 43 b4 ab 3e 41 bf fb 3e af 69 de 3d d3 1f 52 3e
       0.33535966 0.49169353 0.10860001 0.20519952
000130 d2 97 3f 3e a9 60 c9 3d 4d 11 22 3e 76 87 57 3e
       0.18710259 0.098328896 0.15826912 0.21047768
000140 27 c2 d6 3d 8b 4b 78 3e be 49 b1 3d 5c 79 1f 3e
       0.1048625 0.24247567 0.08656643 0.15573639
000150 e4 c3 35 3e f7 c8 20 3e a0 de 53 3e f1 35 18 3e
       0.17750508 0.15701662 0.20690393 0.14864327
000160 e3 8d 9c 3e 46 bb 8e 3e 23 6d 99 3e 46 cd 2b 3e
       0.30577 0.27877253 0.29966077 0.16777524
000170 90 0b aa 3e 64 df 48 3e ce a8 90 3e f5 40 42 3e
       0.33211946 0.19616467 0.28253788 0.18970092
000180 37 60 c6 3e a5 9c f3 3d 8e 5e 8b 3e 06 73 66 3e
       0.3874528 0.11895112 0.27220577 0.22504815
000190 df 50 28 3e 40 98 87 3e 2b 61 9b 3e 26 fe f2 3d
       0.164371 0.26483345 0.3034757 0.11864881
0001a0 68 36 80 3e 44 e6 44 3e 28 f8 00 3e 8b b1 40 3e
       0.2504151 0.19228464 0.12594664 0.18817727
0001b0 d5 0d 68 3e f8 93 20 3e b8 ee 87 3e 49 82 4f 3e
       0.22661527 0.15681446 0.26549315 0.20264544
0001c0 f9 0d 33 3e 46 b6 48 3e bc ae 6a 3e d8 6d 86 3e
       0.17485799 0.19600782 0.22918218 0.2625568
0001d0 e2 94 46 3e 19 a4 6a 3e 24 a2 b2 3e dc d8 66 3e
       0.19392732 0.22914161 0.34889328 0.22543663
0001e0 e8 b4 02 3c fc 61 14 3e 8f 6d a0 3e 12 9f 67 3e
       0.007977702 0.14490503 0.31333587 0.22619274
0001f0 69 76 1c 3e 62 81 09 3e 90 d9 1c 3e b1 bf 7c 3e
       0.15279545 0.13428262 0.15317369 0.246825
