autoencoders/models/generator_ae.pth (torch, 810770 bytes, 19 tensors)

encoder.0.weight f4 [32, 1, 3, 3]
0.17416848 0.102943555 -0.31622344 -0.08719966 0.031717554 -0.09100011 0.27040783 0.30120394
-0.12262674 0.40479416 -0.33499283 -0.102801874 0.21062283 -0.25870708 -0.51640224 0.024211949
0.14223692 0.16058132 -0.3128435 0.10323594 -0.3839816 -0.1544254 0.06723192 -0.07465552
-0.16034546 -0.2371321 -0.3338794 -0.131861 -0.24840982 0.25425094 -0.29072472 -0.2147526
-0.12555051 0.00623798 -0.11158113 -0.30239937 -0.028438115 0.22169629 0.39357975 -0.07813926
-0.16714075 0.12546054 -0.07669448 -0.11748748 0.06100205 0.059154578 0.14429218 0.042046566
-0.24624671 0.19472748 -0.1639529 -0.28503436 -0.046137262 -0.15388022 0.333585 0.37279618
0.062269572 0.11771614 0.056114994 0.36030242 0.06508579 -0.079703 0.24189568 -0.1851243
-0.051039256 -0.06139972 -0.3527151 0.19215491 -0.30483776 0.2836144 0.07355055 -0.15001616
-0.021180473 -0.14174786 0.1282319 0.019342154 0.20236798 -0.4410915 0.4010901 -0.14434367
-0.022045167 -0.120882295 -0.19455099 -0.001150077 -0.15613781 -0.17417933 0.14059001 0.17048489
-0.30749655 0.24733567 0.38388938 -0.0056511187 0.032575548 0.21537566 -0.35907578 0.18816768
-0.20243636 0.054968316 0.16326727 -0.10617262 -0.101658985 0.008571962 0.053043474 -0.2784392
-0.22810054 0.08570845 0.22627243 0.28223273 -0.37563714 0.15754925 -0.07732875 -0.07052411
0.21898755 -0.082617976 0.076495945 0.26577196 -0.33258164 -0.14315523 -0.20146917 -0.3198902
-0.2936351 -0.37136087 0.17947483 0.0800568 0.1791891 -0.43819848 -0.034746137 0.2893331
0.3757649 -0.054554224 0.03174351 0.28771955 0.23820749 0.34436727 -0.26925468 -0.07175137
-0.37267837 -0.36461195 0.18122256 0.08661992 0.011439979 0.4026808 -0.051197562 0.3556971
-0.11927994 0.59522784 -0.17130189 -0.35808736 -0.5243932 -0.14990093 -0.09475536 0.078487724
-0.12016092 -0.14712103 -0.16850327 0.30393714 0.20247468 -0.14178383 0.18055613 -0.12946312
0.22432137 0.13639672 -0.26729923 -0.20007697 -0.3551686 0.26585633 -0.09287351 -0.38621297
-0.026386725 0.038232505 -0.22280778 -0.39034864 -0.4225029 -0.34731537 0.13395141 0.21716093
-0.14278533 -0.21125 0.16632184 0.22217102 0.48850316 -0.1375088 -0.39965332 -0.28936625
-0.5207077 0.04830899 -0.105550945 -0.1597954 0.11058674 -0.093353316 0.18287331 0.26153466
-0.12941664 -0.20704387 0.023623481 -0.2928741 -0.083350144 -0.02563609 -0.2061132 0.1190242
0.03557618 -0.007074237 0.22759332 0.110603936 0.019886559 -0.24989535 0.032333244 -0.22218357
-0.18113689 0.3146404 -0.33884448 0.1315582 0.21944934 -0.1704474 0.11854432 0.19085456
-0.10911681 0.24572012 0.31332496 -0.21587881 0.16799259 0.11470598 0.044504896 -0.0110634975
-0.33791906 0.06855272 0.062287375 0.23135234 -0.35373133 -0.20949382 -0.29982287 0.12200492
-0.17100005 -0.032921597 0.08796383 0.15757178 0.004107412 0.078222685 -0.11152731 0.27705142
0.23394088 -0.19900829 -0.31612608 -0.08062687 -0.48898503 -0.029971829 -0.48610863 0.10329374
0.015400034 -0.28311035 0.31632587 0.23526745 0.17867799 0.2650342 -0.021575281 0.31897223
00000000: 3959 323e 12d4 d23d 0ae8 a1be bc95 b2bd
00000010: 44ea 013d 445e babd e572 8a3e 6737 9a3e
00000020: ba23 fbbd 2e41 cf3e 2e84 abbe ca89 d2bd
00000030: 83ad 573e 4175 84be f032 04bf 2358 c63c
00000040: 8ea6 113e 6e6f 243e 062d a0be 5d6d d33d
00000050: 3c99 c4be b121 1ebe e4b0 893d fee4 98bd
00000060: 9a31 24be c2d2 72be 3ef2 aabe 9206 07be
00000070: 255f 7ebe 2e2d 823e dfd9 94be 1be8 5bbe
00000080: 5090 00be f867 cc3b a684 e4bd 17d4 9abe
00000090: 0df7 e8bc 5a04 633e 4983 c93e 7a07 a0bd
000000a0: f226 2bbe ba78 003e ff11 9dbd 479d f0bd
000000b0: 49dd 793d 124c 723d 54c1 133e 0539 2c3d
000000c0: 1928 7cbe a466 473e 45e3 27be 06f0 91be
000000d0: 6dfa 3cbd c792 1dbe a7cb aa3e 24df be3e
000000e0: 610e 7f3d 2915 f13d d6d8 653d 8f79 b83e
000000f0: b34b 853d 543b a3bd 80b3 773e 3991 3dbe
00000100: 8a0e 51bd 467e 7bbd 1397 b4be 42c4 443e
00000110: b213 9cbe e835 913e aca1 963d d69d 19be
00000120: ac82 adbc 5a26 11be 394f 033e 7073 9e3c
00000130: 8d39 4f3e bfd6 e1be ae5b cd3e d4ce 13be
00000140: 1198 b4bc 2391 f7bd 6038 47be 2ebe 96ba
00000150: 97e2 1fbe 115c 32be d4f6 0f3e 9793 2e3e
00000160: 3070 9dbe 9045 7d3e 268d c43e 052d b9bb
00000170: f06d 053d 708b 5c3e c8d8 b7be 07af 403e
00000180: 7a4b 4fbe 7526 613d 892f 273e 0871 d9bd
00000190: 9632 d0bd 6a71 0c3c 1d44 593d 958f 8ebe
000001a0: 3093 69be e987 af3d f6b3 673e cf80 903e
000001b0: 8353 c0be 9754 213e 895e 9ebd f26e 90bd
000001c0: 463e 603e 9d33 a9bd e8a9 9c3d 4313 883e
000001d0: 2448 aabe 4997 12be ef4d 4ebe a6c8 a3be
000001e0: 5757 96be 0323 bebe 40c8 373e d2f4 a33d
000001f0: 597d 373e 8d5b e0be f751 0ebd 7823 943e
00000200: 4264 c03e 4074 5fbd 7c05 023d fa4f 933e
00000210: aaec 733e e850 b03e c0db 89be 62f2 92bd
00000220: b3cf bebe 6bae babe 6892 393e c965 b13d
00000230: c06e 3b3c 2e2c ce3e 89b4 51bd ee1d b63e
00000240: 0b49 f4bd da60 183f c369 2fbe 3a57 b7be
00000250: a23e 06bf a17f 19be 190f c2bd 2cbe a03d
00000260: ee16 f6bd e5a6 16be 1f8c 2cbe a69d 9b3e
00000270: 8655 4f3e c82f 11be b5e3 383e fb91 04be
00000280: 80b4 653e 95ab 0b3e 72db 88be fae0 4cbe
00000290: a9d8 b5be 521e 883e 7834 bebd b5bd c5be
000002a0: f928 d8bc b099 1c3d b927 64be c7db c7be
000002b0: 4d52 d8be 52d3 b1be 8f2a 093e 6f5f 5e3e
000002c0: 5136 12be ec51 58be 4650 2a3e cd80 633e
000002d0: 161d fa3e 1bcf 0cbe 5c9f ccbe d027 94be
000002e0: 1a4d 05bf a6df 453d 182b d8bd 68a1 23be
000002f0: 4d7b e23d 0630 bfbd 2443 3b3e dfe7 853e
00000300: cc85 04be 4f03 54be 0886 c13c 98f3 95be
00000310: 7bb3 aabd c702 d2bc 570f 53be f6c2 f33d
00000320: 54b8 113d 00cf e7bb 390e 693e 5184 e23d
00000330: 23e9 a23c 91e4 7fbe dd6f 043d 1784 63be
00000340: f37b 39be 8c18 a13e 067d adbe 31b7 063e
00000350: 54b7 603e c389 2ebe 5dc7 f23d 616f 433e
00000360: a278 dfbd 0e9e 7b3e 216c a03e 560f 5dbe
00000370: 4006 2c3e f8ea ea3d c44a 363d ac43 35bc
00000380: ba03 adbe 5e65 8c3d 0c21 7f3d a1e7 6c3e
00000390: 461c b5be 8c85 56be 6282 99be b7dd f93d
000003a0: a31a 2fbe ccd8 06bd 6126 b43d 7f5a 213e
000003b0: 7897 863b 3733 a03d 6e68 e4bd afd9 8d3e
000003c0: 338e 6f3e d4c8 4bbe 47db a1be b31f a5bd
000003d0: 3f5c fabe 7b87 f5bc 3be3 f8be ab8b d33d
000003e0: 6d50 7c3c d7f3 90be 77f5 a13e f3e9 703e
000003f0: 5df7 363e 90b2 873e a5be b0bc 5450 a33e

encoder.0.bias f4 [32]
0.18795824 -0.06653266 0.06560181 0.17674977 0.100572154 0.2369195 0.0025948558 0.042863432
-0.0068689054 0.20223965 -0.082610555 -0.028584668 -0.15720026 -0.00013873808 -0.056069914 -0.22773847
-0.15024358 0.16002265 0.23298088 0.3309539 -0.00067827397 0.31956154 0.2971215 0.24348705
-0.12468526 0.09062165 -0.04474999 -0.18655226 0.19636577 0.035051413 -0.12465386 0.31178492
00000000: 2078 403e 4642 88bd 3e5a 863d e4fd 343e
00000010: c6f8 cd3d 079b 723e 750e 2a3b 9191 2f3d
00000020: 8e14 e1bb e917 4f3e b92f a9bd 652a eabc
00000030: 1bf9 20be 387a 11b9 91a9 65bd 4634 69be
00000040: 74d9 19be fadc 233e 8a92 6e3e ca72 a93e
00000050: 32ce 31ba 929d a33e 4f20 983e ab54 793e
00000060: fc5a ffbd d897 b93d c44b 37bd 8e07 3fbe
00000070: 1c14 493e 1292 0f3d 864a ffbd 46a2 9f3e

encoder.2.weight f4 [64, 32, 3, 3]
0.044271577 -0.05705792 0.03657542 -0.017058637 0.0081453845 -0.041302115 0.054340698 0.0046171076
-0.0019247311 -0.05633077 0.01946045 0.08380192 -0.027789338 0.025757313 -0.0018205016 0.08521258
0.0013659543 0.10020023 0.012268661 -0.016752327 0.000419395 0.040669456 -0.04451268 0.052655548
0.0034322187 -0.048223563 0.028429804 -0.0002785966 0.03557779 -0.018016022 0.0315039 -0.007579354
-0.004855679 0.046232745 -0.050387084 -0.023419632 0.02023816 -0.04455229 -0.032898765 -0.0034111168
0.055809304 -0.03824965 -0.023531802 0.014485939 0.048210587 -0.045621037 0.05166125 -0.04991951
-0.042515647 -0.0042057545 -0.044537786 -0.022881268 -0.038306873 0.05962013 -0.040687803 -0.0035445406
-0.05937211 -0.067876525 -0.007611662 0.05965443 0.04483143 0.012330872 0.012765407 0.012506046
-0.04641193 -0.05491086 0.0076176906 0.045585644 0.057875875 0.013820756 0.06018548 -0.012997847
0.038433302 0.030089123 -0.0676112 0.00067037024 0.013953385 0.017606482 0.05217147 -0.0025677185
-0.0008940519 -0.046407964 -0.007978785 0.0058308765 0.050879676 0.028235069 -0.014824089 0.061334323
-0.00459475 -0.045906246 -0.040547807 -0.02604095 -0.0155406725 0.03800064 0.030772276 0.039271146
-0.014429073 0.09150512 -0.024277981 0.023217771 0.0010739872 0.014315695 -0.06570666 0.0068657063
0.047615167 0.05949968 0.10976001 0.017145194 -0.022756997 -0.016007477 -0.043207966 0.16583155
-0.041626044 0.0057199914 0.013198931 -0.020773118 0.06982882 0.02923348 0.044859905 -0.11665347
0.073654994 0.031721104 -0.024959536 0.03989236 0.032161903 0.06369434 -0.035513002 0.040726703
0.050579604 0.003877624 -0.0107706785 0.016753985 0.024941357 0.021120144 0.041340105 -0.0063967076
-0.03602208 -0.06213547 -0.07540641 -0.10054187 -0.07641235 -0.0055469926 -0.0645811 0.013695691
-0.0035663666 -0.060947154 0.012124465 -0.036873996 0.027189527 0.026967129 0.054151874 0.023225887
0.017221399 0.05292349 -0.016125176 0.025617274 0.046513356 0.00915454 0.052845966 0.041125312
0.02942697 0.042452507 -0.031999715 0.05255131 0.020099945 -0.048046116 -0.0091044335 -0.029498314
0.060832586 -0.05226682 0.02697429 0.051365476 0.027878834 0.034232404 0.039130304 0.03700692
-0.012262496 0.025884049 0.00078652246 -0.026054075 0.0371031 -0.016317332 0.06805914 0.011763779
0.24225865 0.09145943 0.14012656 0.20311615 0.08934833 0.055172604 0.032792937 -0.017172204
0.03645097 -0.046605356 0.010099982 0.032252174 0.053741023 -0.038237873 0.06101336 0.004585987
-0.0374161 0.0019531988 -0.01713937 0.06017475 -0.018549502 0.014204612 0.0017660782 0.010113553
0.025876964 -0.025255213 0.007405093 0.05244802 0.03321971 -0.019735275 -0.028161263 -0.041784965
-0.063905746 0.05669531 0.047980294 0.09239288 0.048547756 0.037484903 0.025068043 0.036317997
0.08506925 -0.041823205 -0.0106662065 -0.023498483 0.03525917 0.014556422 0.00810675 -0.009031658
-0.024203088 -0.031387907 -0.09018796 -0.076053485 -0.0175045 0.032070175 0.019178772 0.05414134
0.016125457 0.023263725 0.039385866 0.09481155 0.06035737 0.10089148 -0.047104146 -0.029023074
0.17487442 0.015209921 0.057190865 0.15407367 -0.0070960224 -0.03289804 0.029081143 0.055726722
00000000: 1d56 353d 91b5 69bd 1cd0 153d 8ebe 8bbc
00000010: 3874 053c 682c 29bd 5a94 5e3d 1b4b 973b
00000020: 4247 fcba 18bb 66bd 866b 9f3c 57a0 ab3d
00000030: 77a6 e3bc 0001 d33c e69d eeba ef83 ae3d
00000040: d209 b33a c735 cd3d 7e02 493c 2d3c 89bc
00000050: 3ee2 db39 0495 263d ee52 36bd 58ad 573d
00000060: 13ef 603b 1286 45bd 9fe5 e83c 9a10 92b9
00000070: 04ba 113d 5696 93bc 3c0a 013d 3b5c f8bb
00000080: 631c 9fbb 8c5e 3d3d b062 4ebd 87da bfbc
00000090: 7fca a53c 767c 36bd dbc0 06bd 0b8d 5fbb
000000a0: 4c98 643d aaab 1cbd c4c5 c0bc 6f56 6d3c
000000b0: 7778 453d 20dd 3abd bf9a 533d 6678 4cbd
000000c0: e324 2ebd 6dd0 89bb 416d 36bd 7f71 bbbc
000000d0: abe7 1cbd 3d34 743d 41a8 26bd 864b 68bb
000000e0: 2b30 73bd d902 8bbd 406b f9bb 3458 743d
000000f0: 29a1 373d 6d07 4a3c ff25 513c 29e6 4c3c
00000100: 701a 3ebd 36ea 60bd d29d f93b 03b8 3a3d
00000110: 410f 6d3d 7470 623c 0d85 763d ecf4 54bc
00000120: 3d6c 1d3d 777d f63c be77 8abd c9bb 2f3a
00000130: bd9c 643c 783b 903c c0b1 553d 2b47 28bb
00000140: cf5e 6aba 4716 3ebd 73b9 02bc f010 bf3b
00000150: 3567 503d 3b4d e73c bce0 72bc b339 7b3d
00000160: 8e8f 96bb 3008 3cbd 7515 26bd d553 d5bc
00000170: 4e9e 7ebc 8fa6 1b3d 2416 fc3c c8da 203d
00000180: eb67 6cbc 0967 bb3d 9ee2 c6bc 3233 be3c
00000190: 08c5 8c3a 608c 6a3c 3791 86bd b8f9 e03b
000001a0: 1f08 433d f0b5 733d dbc9 e03d 1474 8c3c
000001b0: e26c babc 1d22 83bc d6fa 30bd bfcf 293e
000001c0: 1280 2abd c46e bb3b 5440 583c 632c aabc
000001d0: 6a02 8f3d 0d7b ef3c 05bf 373d 04e8 eebd
000001e0: 6ed8 963d fded 013d f177 ccbc 2c66 233d
000001f0: 33bc 033d 2e72 823d 1576 11bd 0bd1 263d
00000200: 8f2c 4f3d bc1f 7e3b 8077 30bc a73f 893c
00000210: d151 cc3c 2704 ad3c 3e54 293d 799b d1bb
00000220: e38b 13bd c381 7ebd ad6e 9abd e5e8 cdbd
00000230: 147e 9cbd 8cc3 b5bb 1943 84bd e463 603c
00000240: b4b9 69bb b9a3 79bd b1a5 463c 3009 17bd
00000250: 92bc de3c 2bea dc3c 5bce 5d3d 3744 be3c
00000260: e413 8d3c 4dc6 583d f218 84bc 51db d13c
00000270: ca84 3e3d ecfc 153c 0375 583d 0473 283d
00000280: d410 f13c aee2 2d3d 2212 03bd 0b40 573d
00000290: a4a8 a43c 01cc 44bd c32a 15bc 73a6 f1bc
000002a0: 972b 793d bc15 56bd 30f9 dc3c 9b64 523d
000002b0: 2762 e43c 4737 0c3d 1947 203d 9194 173d
000002c0: a3e8 48bc c90a d43c a12e 4e3a 5b6f d5bc
000002d0: 6cf9 173d edab 85bc 9762 8b3d debc 403c
000002e0: a712 783e 154f bb3d 567d 0f3e aefd 4f3e
000002f0: 42fc b63d abfc 613d e351 063d b9ac 8cbc
00000300: 9d4d 153d 42e5 3ebd 657a 253c db1a 043d
00000310: 8c1f 5c3d 519f 1cbd 25e9 793d 0c46 963b
00000320: a041 19bd 3d01 003b dd67 8cbc cc79 763d
00000330: 20f5 97bc 76ba 683c c07b e73a 51b3 253c
00000340: edfb d33c 05e4 cebc 6ca6 f23b bcd3 563d
00000350: 6411 083d dfab a1bc 73b2 e6bc b626 2bbd
00000360: 04e1 82bd 5739 683d fc86 443d 7a38 bd3d
00000370: 03da 463d c589 193d 7f5b cd3c 2ec2 143d
00000380: c938 ae3d cf4e 2bbd 50c1 2ebc e47f c0bc
00000390: eb6b 103d 0f7e 6e3c 2dd2 043c 85f9 13bc
000003a0: 8e45 c6bc 9b90 00bd 77b4 b8bd eec1 9bbd
000003b0: 9965 8fbc 045c 033d cd1c 9d3c 4fc3 5d3d
000003c0: 8919 843c 9193 be3c 1353 213d 8f2c c23d
000003d0: 4a39 773d 31a0 ce3d 47f0 40bd ccc1 edbc
000003e0: 4812 333e 0833 793c f840 6a3d 7dc5 1d3e
000003f0: c085 e8bb 18c0 06bd 943b ee3c b441 643d

encoder.2.bias f4 [64]
-0.04046696 0.059707902 -0.006043644 0.01397397 -0.022584956 -0.0045058224 0.0131615875 -0.049076706
0.03952912 0.019877655 0.04840419 -0.005313059 -0.017041335 0.0072580846 0.017437674 0.008570932
-0.01863434 -0.008462615 0.04206905 0.007554219 -0.005109259 -0.0133956 -0.0012123949 -0.0069049513
-0.016897254 -0.019223122 -0.021737069 0.060082383 0.06123288 0.010389265 0.060472116 0.01909579
0.05997319 -0.04382447 -0.029670097 -0.007823076 -0.039791334 0.0041217925 -0.030597016 -0.02295743
0.059534453 0.025605252 0.03472053 0.058417838 0.018413184 0.0022818916 0.029035758 -0.01775337
0.057402927 -0.013492938 -0.010883019 -0.054706663 0.02167641 -0.006900663 -0.028870998 0.004261192
-0.025286451 -0.022200657 0.06331557 -0.015018249 0.040001877 0.01535813 0.054428842 0.010401927
00000000: afc0 25bd 4690 743d c309 c6bb 14f3 643c
00000010: 1604 b9bc 94a5 93bb b3a3 573c a804 49bd
00000020: 49e9 213d 77d6 a23c 7943 463d 2b19 aebb
00000030: 459a 8bbc 3ad5 ed3b 74d9 8e3c 186d 0c3c
00000040: 0ba7 98bc c8a6 0abc 9950 2c3d 6289 f73b
00000050: 926b a7bb 3879 5bbc 39e9 9eba ee42 e2bb
00000060: 1c6c 8abc cf79 9dbc f011 b2bc f218 763d
00000070: 54cf 7a3d bc37 2a3c 9cb1 773d c66e 9c3c
00000080: 73a6 753d 4a81 33bd b40e f3bc 5c2c 00bc
00000090: 3dfc 22bd 1a10 873b 98a6 fabc 3811 bcbc
000000a0: 66da 733d 1bc2 d13c 1d37 0e3d 8b47 6f3d
000000b0: 3fd7 963c ca8b 153b 66dc ed3c 846f 91bc
000000c0: 551f 6b3d 7c11 5dbc b14e 32bc 1814 60bd
000000d0: ba92 b13c f51e e2bb df82 ecbc 78a1 8b3b
000000e0: 8825 cfbc 27de b5bc 98ab 813d 1a0f 76bc
000000f0: 02d9 233d aba0 7b3c c7f0 5e3d d86c 2a3c

encoder.4.weight f4 [64, 64, 3, 3]
0.0017479841 0.032331426 -0.015606932 0.022220647 0.012253957 0.0075169066 0.02533319 0.016162176
0.0018332108 -0.050464623 0.031149566 0.022138305 0.023912769 0.036784805 0.029360741 0.07010389
0.017272672 0.010892981 0.009664658 -0.015025028 -0.026641702 -0.03901626 -0.07852696 -0.14620076
0.050428715 0.027480623 0.07344705 0.051253922 -0.012465042 0.043017574 0.032273408 0.022227818
-0.024184957 -0.035835244 0.018184703 0.015777916 -0.029968439 -0.031214029 -0.0408379 -0.047927756
-0.002607416 -0.01428394 0.023675574 0.058041584 0.041148566 -0.041052658 0.03800621 0.017458143
-0.03374022 0.023204958 -0.0024917608 0.011412246 0.028026083 -0.011918734 -0.010833088 -0.025047526
0.04634231 0.024268497 0.028678866 -0.020565722 -0.026317285 -0.0074420874 -0.034278452 0.022888418
0.006239183 -0.070665345 -0.054121643 -0.033593826 -0.14049903 -0.005827974 0.024282653 -0.018677682
0.055074573 0.04070247 -0.017520659 0.009949446 0.039026555 0.014176673 0.013813382 0.0036321562
-0.034494217 -0.023743877 0.02975889 0.0052244533 0.008022024 0.0057275244 0.011639658 0.0023272843
0.021722889 -0.022566963 0.0616339 0.04904002 0.02491266 -0.02394568 -0.023388425 0.0504655
-0.032836597 -0.028663207 -0.018630192 -0.026429515 -0.034781985 -0.043112185 -0.0038670478 0.0068049654
-0.014889116 0.023635693 -0.050545566 -0.0824443 -0.052313615 -0.043034043 0.032495953 -0.04010073
-0.04430956 -0.018618932 -0.030290563 -0.021708379 -0.020286549 -0.019355975 -0.04952784 -0.027774965
-0.060293224 0.0033490614 -0.10915707 0.025730792 0.059388317 -0.009017184 -0.023645168 0.031792868
-0.12464391 0.00013323457 0.034239978 0.05808197 0.053840596 0.117712274 0.08353915 0.055274222
0.023217438 -0.027479326 0.04114341 -0.018898264 0.051018827 0.01567247 -0.026735678 0.030965986
0.04711003 -0.030715873 0.044453725 0.012786486 0.004189144 0.02528057 0.023700157 -0.0027960269
0.030924922 0.013023258 0.04269146 -0.019124467 -0.03363298 0.035644446 -0.041459072 0.008538095
0.002552535 -0.031030718 0.044038784 -0.024423592 -0.014521491 -0.019819327 0.031601787 0.032978363
-0.00502456 -0.017819913 0.03394194 -0.0120012695 0.01760698 -0.005252476 0.00046631575 0.019618453
0.005958511 0.004200123 -0.025954656 -0.011079676 0.018968912 0.08521461 0.12623173 0.05386657
0.12003247 0.17613032 0.05686223 0.10715464 -0.00061671267 0.020586085 -0.029057486 -0.01869849
-0.014962801 0.039010733 -0.03733781 0.046915483 0.04725854 -0.012471998 0.030549781 -0.016678397
-0.032631274 0.035619643 0.029081807 -0.006869327 0.040894836 0.024792343 0.023143444 -0.02346583
-0.018370613 0.0431098 -0.051293883 -0.008333107 -0.009759623 0.074095525 0.08834991 0.0659406
-0.060187053 -0.027147137 -0.08357856 -0.08832087 -0.08711084 -0.08648639 -0.027839513 0.056069348
-0.010741641 0.051353354 -0.016495554 0.021063115 0.036501992 0.025038498 -0.021228265 0.027205603
0.03152467 0.010909557 -0.01951966 -0.012983622 0.033743616 0.03094419 -0.027347546 -0.0240105
-0.027855676 -0.04468285 -0.042867858 -0.01954658 0.010522206 -0.019390559 0.0018570008 0.0045402152
0.027715793 0.041457787 0.00037390314 0.033153925 0.049205348 0.028889803 0.052864097 0.034907814
00000000: 9d1c e53a f56d 043d 38b4 7fbc 1308 b63c
00000010: d2c4 483c 6250 f63b 8d87 cf3c 8a66 843c
00000020: 5948 f03a feb3 4ebd 602d ff3c 645b b53c
00000030: b6e4 c33c aaab 163d f085 f03c a192 8f3d
00000040: 6b7f 8d3c 7978 323c 8458 1e3c 892b 76bc
00000050: b33f dabc 84cf 1fbd bed2 a0bd a7b5 15be
00000060: 578e 4e3d 0b1f e13c 686b 963d a2ef 513d
00000070: 2d3a 4cbc 3233 303d 1f31 043d 1d17 b63c
00000080: 881f c6bc fac7 12bd 16f8 943c b040 813c
00000090: 5f80 f5bc 90b4 ffbc a445 27bd e54f 44bd
000000a0: 2ee1 2abb 3007 6abc 47f3 c13c 03bd 6d3d
000000b0: 668b 283d d526 28bd 66ac 1b3d 6104 8f3c
000000c0: 2f33 0abd 5318 be3c cf4c 23bb 6efa 3a3c
000000d0: f596 e53c cb46 43bc 447d 31bc 7830 cdbc
000000e0: 6fd1 3d3d bace c63c f1ef ea3c 7279 a8bc
000000f0: 5997 d7bc c1dc f3bb 9067 0cbd 7e80 bb3c
00000100: 0f72 cc3b feb8 90bd a8ae 5dbd ae99 09bd
00000110: fade 0fbe 97f8 bebb 6aec c63c f001 99bc
00000120: e095 613d a2b7 263d 7c87 8fbc 0003 233c
00000130: 4fda 1f3d 4745 683c 8651 623c 7809 6e3b
00000140: cf49 0dbd 8582 c2bc eac8 f33c e431 ab3b
00000150: cf6e 033c f5ad bb3b 44b4 3e3c 5a85 183b
00000160: 33f4 b13c 5ade b8bc d473 7c3d 30de 483d
00000170: a215 cc3c bb29 c4bc 1599 bfbc eab4 4e3d
00000180: ab7f 06bd 1acf eabc 589e 98bc b682 d8bc
00000190: 8e77 0ebd 6796 30bd 4c6e 7dbb 30fc de3b
000001a0: 7bf1 73bc a49f c13c de08 4fbd 8fd8 a8bd
000001b0: cd46 56bd 7744 30bd 7a1a 053d aa40 24bd
000001c0: f17d 35bd bb86 98bc ea23 f8bc c5d5 b1bc
000001d0: fa2f a6bc 6c90 9ebc b4dd 4abd 5388 e3bc
000001e0: 07f6 76bd ed7b 5b3b be8d dfbd 62c9 d23c
000001f0: 2a41 733d d0bc 13bc 83b3 c1bc 3d39 023d
00000200: 4e45 ffbd e2b4 0b39 383f 0c3d 5ce7 6d3d
00000210: f587 5c3d 2213 f13d 9316 ab3d 3967 623d
00000220: 7f32 be3c 531c e1bc fe85 283d 88d0 9abc
00000230: 1ef9 503d 8d63 803c c804 dbbc 61ac fd3c
00000240: 72f6 403d db9f fbbc 1c15 363d 697e 513c
00000250: 1645 893b 3319 cf3c d526 c23c 8c3d 37bb
00000260: 4356 fd3c 815f 553c 3edd 2e3d eaaa 9cbc
00000270: bcc2 09bd e9ff 113d fdd0 29bd 5ee3 0b3c
00000280: 6e48 273b 2234 febc 0362 343d fc13 c8bc
00000290: 8ceb 6dbc 245c a2bc e070 013d 5214 073d
000002a0: 10a5 a4bb 11fb 91bc b406 0b3d f9a0 44bc
000002b0: 833c 903c f61c acbb d77b f439 e1b6 a03c
000002c0: 9d3f c33b 2fa1 893b dc9e d4bc 8887 35bc
000002d0: b164 9b3c ff84 ae3d e442 013e 31a3 5c3d
000002e0: 95d3 f53d 825b 343e 5fe8 683d e473 db3d
000002f0: e3aa 21ba 26a4 a83c f709 eebc 932d 99bc
00000300: 8926 75bc b8c9 1f3d 88ef 18bd 732a 403d
00000310: 2c92 413d 5a57 4cbc 8943 fa3c 22a1 88bc
00000320: 5fa8 05bd e7e5 113d f83c ee3c 1718 e1bb
00000330: 5881 273d 5019 cb3c 5297 bd3c 6a3b c0bc
00000340: f87d 96bc e793 303d 8919 52bd 9687 08bc
00000350: d3e6 1fbc 65bf 973d ccf0 b43d de0b 873d
00000360: b386 76bd ac63 debc 3c2b abbd 93e1 b4bd
00000370: 2b67 b2bd c71f b1bd b10f e4bc f9a8 653d
00000380: b5fd 2fbc e557 523d af21 87bc 8e8c ac3c
00000390: 1d83 153d 891d cd3c e6e6 adbc 49de de3c
000003a0: 0320 013d 00be 323c b2e7 9fbc 42b9 54bc
000003b0: bf36 0a3d ac7e fd3c f607 e0bc abb1 c4bc
000003c0: 9631 e4bc 5d05 37bd 3596 2fbd 2620 a0bc
000003d0: 5565 2c3c f3d8 9ebc 9b66 f33a 16c6 943b
000003e0: 3b0c e33c a4cf 293d 6e08 c439 69cc 073d
000003f0: 8c8b 493d 4faa ec3c 0688 583d 7ffb 0e3d

encoder.4.bias f4 [64]
-0.03140301 0.027874792 0.002480689 -0.0014378958 0.026969936 -0.014983814 0.014535517 -0.0167538
0.03698827 0.043303844 0.0020728384 0.05220971 -0.02774547 -0.026161386 0.01842732 0.0050340737
-0.033053864 0.039368995 0.048196815 -0.020890648 -0.021788191 -0.0012675014 -0.009953581 0.02201958
-0.022782495 -0.030274548 -0.005149953 0.026945584 0.008479537 0.032884937 -0.015306176 -0.02716775
0.03686557 -0.02187344 0.012448452 0.029840333 -0.011670779 0.045062255 -0.030409671 0.034967974
0.023809856 -0.0038408544 -0.016239304 -0.024798144 0.04075197 -0.02443976 -0.014375001 0.033579256
0.029506957 -0.025356451 0.03329172 0.031998307 0.038080063 0.046613798 0.03503818 -0.016992228
0.023901114 0.007434001 -0.012018084 -0.0189862 0.018444156 0.029722521 -0.009152369 0.022713864
00000000: 71a0 00bd ad59 e43c 0e93 223b c777 bcba
00000010: 0ef0 dc3c ac7e 75bc 6126 6e3c 443f 89bc
00000020: 0381 173d 5f5f 313d 75d8 073b d9d9 553d
00000030: 784a e3bc 6750 d6bc e4f4 963c dff4 a43b
00000040: 7d63 07bd 6241 213d 066a 453d dd22 abbc
00000050: 267d b2bc 4a22 a6ba 5814 23bc 6862 b43c
00000060: 5ba2 babc 5402 f8bc f0c0 a8bb fcbc dc3c
00000070: c2ed 0a3c 5bb2 063d c1c6 7abc e78e debc
00000080: 5a00 173d ee2f b3bc 98f4 4b3c b773 f43c
00000090: cc36 3fbc 3393 383d b41d f9bc 943a 0f3d
000000a0: e30c c33c d8b6 7bbb 4a08 85bc 7a25 cbbc
000000b0: 8aeb 263d e435 c8bc 2085 6bbc 678a 093d
000000c0: 93b8 f13c 55b8 cfbc e65c 083d a810 033d
000000d0: d7f9 1b3d 1cee 3e3d 3284 0f3d 4933 8bbc
000000e0: 45cc c33c ec98 f33b 7fe7 44bc f388 9bbc
000000f0: 3318 973c a57c f33c d1f3 15bc 6d12 ba3c

encoder.6.weight f4 [64, 64, 3, 3]
0.02710563 -0.04669249 -0.025150528 0.0007194467 0.027206166 -0.04450492 0.027731495 0.019813454
0.010466513 0.017099986 -0.017286787 -0.013124023 0.029115062 -0.0019795673 0.027775465 0.031455718
-0.0015952382 -0.026319774 0.043724176 -0.18657173 0.01317526 0.047398686 0.021816527 0.008531282
0.084478825 -0.054181796 -0.06498796 -0.11579524 0.004901386 0.03929133 -0.031591572 -0.12520656
-0.0077767796 -0.09473049 -0.10584356 -0.046051465 0.028931355 -0.020481862 -0.100044265 -0.015479224
0.034519948 0.036614437 0.006681251 -0.025368016 0.004764812 -0.014075413 0.0015998037 -0.0020577782
0.0073871203 0.022932664 -0.028900094 0.018387107 0.0218318 -0.15818399 0.014192995 0.022508146
-0.015079638 0.049143344 -0.021660673 -0.004218511 -0.024610959 0.025537856 -0.015251349 0.013630507
0.016706161 -0.12827544 0.050849203 0.0336231 0.02360478 -0.040328007 0.008086905 -0.004163754
0.0157468 -0.036677722 0.0044795764 -0.012061485 0.039933365 -0.008409285 0.029200388 0.006702618
-0.04157024 0.04927715 0.012309097 -0.028473591 0.017663628 -0.02571197 0.011902964 -0.0052753673
-0.03429962 0.021247933 -0.045049384 -0.036394894 -0.024855716 -0.014603934 0.0022029215 -0.022483721
0.053779196 0.014175849 -0.06678702 0.0575255 -0.044000007 -0.076005496 0.052880425 0.008700886
0.023313891 0.0025833433 -0.008956874 0.04604921 -0.047651414 -0.01795513 0.04675434 -0.1114011
-0.019066598 0.02417308 -0.102633424 -0.03724468 -0.05636343 -0.0864827 0.029815849 -0.044334628
0.031704225 -0.036453765 -0.06256263 -0.008950717 0.060047343 -0.08013374 -0.00057870155 -0.02448358
0.03227256 -0.08899485 -0.09860625 0.022404768 -0.04075161 -0.037758593 0.040331174 -0.0031826994
0.024359982 0.07634496 -0.06606173 -0.07531979 0.06839775 -0.030654613 -0.10614699 -0.027095506
-0.03321864 -0.09605246 -0.025806488 0.008894345 -0.0678322 0.011654426 0.015260848 -0.06809439
0.033290315 0.06161883 0.026803937 0.07112577 0.0032919918 0.04271066 -0.052977547 0.043586753
-0.02985957 0.049069077 0.034885004 -0.008618022 -0.0032102126 -0.012689384 0.012567941 -0.020936528
0.002041247 -0.031243313 0.016695313 -0.03846915 0.012946916 0.027196875 -0.026453093 0.011161076
0.07560101 -0.013295519 -0.008003051 -0.053727735 0.004335127 0.030403117 -0.040686123 -0.0049922573
-0.006670457 0.021406079 -0.034889605 0.013483571 -0.034620546 -0.00324798 0.032882687 -0.024650566
-0.03556175 0.04139411 2.49685e-05 0.019019194 -0.032205142 -0.0364136 0.034945793 0.024998015
0.008792232 0.052697625 0.02718846 -0.011109121 -0.0075305654 -0.038269203 0.021671979 0.058140468
0.05518733 0.050707757 0.04594026 -0.0021606812 0.025182063 0.026014451 0.035691816 0.0033206567
-0.011620446 -0.025906332 -0.03746089 0.043471105 -0.019674972 0.0071229297 0.002400411 -0.022341294
0.052922126 -0.038372453 -0.0021606672 0.03083024 -0.14272025 -0.095865846 0.04582456 -0.06553967
-0.08955734 -0.090080544 -0.009768202 0.04692833 -0.08473183 0.034105368 0.051016584 0.015323129
-0.012026595 0.0371776 -0.0020240375 0.038945176 -0.01883563 0.027388278 -0.01541342 -0.037528127
0.046020497 -0.032677114 -0.005727746 0.08559602 0.043544233 0.008200129 0.0323674 0.036169946
00000000: a00c de3c a040 3fbd 7b08 cebc 4099 3c3a
00000010: 77df de3c ca4a 36bd 292d e33c d34f a23c
00000020: bd7b 2b3c 4515 8c3c 059d 8dbc 2406 57bc
00000030: b682 ee3c a1bb 01bb 5f89 e33c b6d7 003d
00000040: 5017 d1ba 919c d7bc 1f18 333d a90c 3fbe
00000050: 0cdd 573c 2025 423d 93b8 b23c cac6 0b3c
00000060: 3c03 ad3d bbed 5dbd 6818 85bd 0e26 edbd
00000070: ce9b a03b f2ef 203d 2a66 01bd 2636 00be
00000080: 5bd4 febb 0f02 c2bd 82c4 d8bd 76a0 3cbd
00000090: 7301 ed3c 94c9 a7bc 02e4 ccbd 929c 7dbc
000000a0: ca64 0d3d 05f9 153d 65ee da3b 96d0 cfbc
000000b0: 2422 9c3b 909c 66bc 81b0 d13a cadb 06bb
000000c0: a80f f23b 48dd bb3c e4bf ecbc 8fa0 963c
000000d0: 9ad8 b23c fcfa 21be bc89 683c 0163 b83c
000000e0: 9610 77bc 884a 493d b971 b1bc 6f3b 8abb
000000f0: ec9c c9bc c434 d13c cbe0 79bc 7d52 5f3c
00000100: 5cdb 883c a35a 03be 4147 503d 60b8 093d
00000110: d05e c13c fb2e 25bd f07e 043c 1a70 88bb
00000120: 6fff 803c 613b 16bd 69c9 923b 899d 45bc
00000130: 2b91 233d 19c7 09bc a735 ef3c a3a1 db3b
00000140: 8e45 2abd d6d6 493d 18ac 493c 7341 e9bc
00000150: 50b3 903c e9a1 d2bc a604 433c fddc acbb
00000160: c27d 0cbd 2510 ae3c b485 38bd d012 15bd
00000170: 379e cbbc 5745 6fbc e45e 103b c82f b8bc
00000180: 9347 5c3d d241 683c a2c7 88bd dc9f 6b3d
00000190: 5a39 34bd c5a8 9bbd 2599 583d 298e 0e3c
000001a0: c6fc be3c 4f4d 293b dabf 12bc 199e 3c3d
000001b0: 212e 43bd a316 93bc 7b81 3f3d 4326 e4bd
000001c0: 8e31 9cbc a006 c63c 7931 d2bd e18d 18bd
000001d0: 57dd 66bd d81d b1bd 5e40 f43c 3a98 35bd
000001e0: 4adc 013d 8b50 15bd d620 80bd 07a6 12bc
000001f0: 34f4 753d 291d a4bd 01b4 17ba ca91 c8bc
00000200: 3b30 043d ef42 b6bd 13f2 c9bd 348a b73c
00000210: 29eb 26bd c1a8 1abd 4d32 253d d694 50bb
00000220: 968e c73c bf5a 9c3d 5f4b 87bd 4341 9abd
00000230: 1f14 8c3d 621f fbbc 9863 d9bd 65f7 ddbc
00000240: 4510 08bd 27b7 c4bd 2168 d3bc 96b9 113c
00000250: 9ceb 8abd 35f2 3e3c a308 7a3c 1275 8bbd
00000260: 6d5b 083d 0764 7c3d ee93 db3c 63aa 913d
00000270: 75be 573b 5ff1 2e3d fcfe 58bd 0688 323d
00000280: 0f9c f4bc a8fc 483d 94e3 0e3d 9b32 0dbc
00000290: 6e62 52bb 22e7 4fbc c4e9 4d3c 1583 abbc
000002a0: 71c6 053b faf1 ffbc 9cc4 883c d491 1dbd
000002b0: 4d1f 543c fbcb de3c 28b4 d8bc f2dc 363c
000002c0: b4d4 9a3d 73d5 59bc 3b1f 03bc 9d11 5cbd
000002d0: ae0d 8e3b f50f f93c 7ea6 26bd 1796 a3bb
000002e0: d993 dabb cd5b af3c 67e8 0ebd 32ea 5c3c
000002f0: 46ce 0dbd 10dc 54bb ffaf 063d fcef c9bc
00000300: 33a9 11bd df8c 293d 7273 d137 24ce 9b3c
00000310: 8ae9 03bd 6d26 15bd 5223 0f3d a3c8 cc3c
00000320: 4b0d 103c 77d9 573d 55ba de3c 0803 36bc
00000330: f6c2 f6bb 2bc0 1cbd 6f89 b13c b324 6e3d
00000340: 1c0c 623d f0b2 4f3d db2b 3c3d 379a 0dbb
00000350: 9d4a ce3c 421c d53c 9531 123d 609f 593b
00000360: af63 3ebc 8439 d4bc 9770 19bd c20e 323d
00000370: 682d a1bc 7767 e93b 3750 1d3b 1705 b7bc
00000380: dfc4 583d 6f2c 1dbd fb99 0dbb b38f fc3c
00000390: 4225 12be 5055 c4bd 89b2 3b3d aa39 86bd
000003a0: d769 b7bd 267c b8bd cf0a 20bc ec37 403d
000003b0: e287 adbd 12b2 0b3d c4f6 503d dc0d 7b3c
000003c0: 320b 45bc 8a47 183d b7a5 04bb fa84 1f3d
000003d0: 2e4d 9abc 625d e03c 9288 7cbc 18b7 19bd
000003e0: fd7f 3c3d 70d8 05bd d1af bbbb f74c af3d
000003f0: 705b 323d d559 063c ae93 043d f026 143d

encoder.6.bias f4 [64]
-0.009354253 -0.014841406 -0.030605545 0.008722027 -0.047808584 0.04791529 0.038413953 0.03935664
0.0021522224 -0.02750628 0.05267558 0.03914731 -0.014163506 -0.017931446 -0.019087745 -0.015233974
0.017843286 0.011018067 0.0042511257 -0.019136315 -0.039813116 -0.06263291 0.013301175 0.030743698
0.016753927 -0.049307488 0.017233761 -0.059588574 -0.00024252282 0.019216275 0.013462389 -0.0042702532
-0.04452212 -0.050548784 -0.034106016 -0.0031039084 0.035090346 0.010940237 0.041245032 0.0062182965
-0.017134529 0.03837945 0.03222577 -0.034244325 0.027405191 -0.0224135 0.011484974 -0.0020834329
-0.038109478 0.04991974 0.026927944 -0.027862664 0.0025732166 0.012446905 0.018505609 0.0060372497
0.02089168 0.03578206 -0.028112257 0.012372608 0.038399335 0.041953947 -0.05111301 0.04995474
00000000: 9542 19bc 5e29 73bc 7bb8 fabc d5e6 0e3c
00000010: efd2 43bd d342 443d f357 1d3d 6e34 213d
00000020: 4d0c 0d3b da54 e1bc 59c2 573d ee58 203d
00000030: 0d0e 68bc f8e4 92bc e75d 9cbc eb97 79bc
00000040: 152c 923c 1f85 343c 074d 8b3b c3c3 9cbc
00000050: 1413 23bd af45 80bd 2ced 593c 35da fb3c
00000060: 883f 893c a6f6 49bd d12d 8d3c 2613 74bd
00000070: b94d 7eb9 736b 9d3c 5a91 5c3c 7bed 8bbb
00000080: d45c 36bd 3e0c 4fbd c0b2 0bbd f16a 4bbb
00000090: e5ba 0f3d ae3e 333c 8df0 283d dac2 cb3b
000000a0: b65d 8cbc c533 1d3d 2bff 033d c743 0cbd
000000b0: da80 e03c 849c b7bc 792b 3c3c 348a 08bb
000000c0: af18 1cbd a478 4c3d fe97 dc3c 3e40 e4bc
000000d0: 69a3 283b 1aee 4b3c 1399 973c 1fd4 c53b
000000e0: 0725 ab3c 3690 123d ad4b e6bc 7bb6 4a3c
000000f0: 9f48 1d3d e7d7 2b3d e05b 51bd 579d 4c3d

encoder_fc.weight f4 [2, 3136]
0.015040301 0.013938471 -0.0024520599 -0.0025699753 -0.005459925 0.012367736 0.0056963246 -0.012491603
-0.028798643 -0.09289945 -0.053650144 0.0078654075 -0.0010754776 -0.02242204 0.021801423 -0.012869999
-0.01802898 0.016444702 -0.0035840562 -0.003365341 -0.004436912 -0.018055225 0.01925879 -0.017969858
0.0036720098 0.019618718 0.0021520483 0.016827028 0.03285971 -0.0067062075 -0.10695719 0.020970523
-0.005485976 0.009513603 -0.018808395 0.005178685 0.014759883 -0.0075175683 0.051798303 0.0041060722
-0.0075727454 -0.012795647 -0.033937853 -0.04167206 -0.017592119 0.17739926 0.22237103 -0.0033455116
0.017609453 0.020066606 0.017078964 -0.0008077741 0.01273308 -0.019241044 -0.010969709 -0.0066059506
0.0069935606 0.015462212 0.006771895 0.0050567198 -0.0037988496 -0.0062590945 0.009525975 -0.0032592353
0.0069981227 -0.08122857 0.017657226 0.022079393 0.013595462 -0.0020789464 0.01192614 0.011459697
-0.02518783 -0.002679655 0.019858463 0.003955256 -0.017936092 0.004543722 0.03195941 0.008422806
0.011297677 0.014208234 -0.015375441 0.0022063497 0.016770318 0.0029807962 0.06614629 -0.009594371
0.011136371 -0.03297066 -0.007642968 -0.011224293 0.0076878914 0.032119468 0.011559028 -0.0015145255
0.037965838 -0.0050333473 -0.025081433 -0.0011369308 0.015229213 0.008853826 0.015721187 -0.0027954574
-0.013285216 -0.024341082 -0.0070390305 -0.0052971924 0.03360595 -0.027727261 -0.023158696 -0.003471082
0.0033762616 0.022221727 -0.13186847 0.045428533 -0.004442153 0.009525637 -0.008634433 -0.01638187
-0.015072286 -0.044802308 0.005699225 -0.0036253377 -0.040903926 0.003305173 0.00030475447 0.02846716
-0.019242834 -0.039398275 -0.19319409 -0.011494239 0.0039354414 0.0010955966 0.0031938439 0.1058272
-0.078214124 0.03244591 0.013997341 0.04306726 -0.016151745 -0.015224706 -0.003288479 0.047566343
0.0047091823 -0.0046245437 0.0067780535 -0.008445728 -0.01012207 -0.011697422 -0.024664404 0.004175502
-0.018719357 -0.0017398143 -0.095680304 0.009060122 -0.027830308 -0.049289048 0.016364112 -0.00035597765
-0.0073453556 0.058837622 0.006020192 0.018823259 -0.0023764665 0.005821225 0.015195753 -0.018776467
-0.0783383 0.002107405 -0.024019167 -0.0038021817 -0.00045645738 -0.012616055 0.0015487901 0.05743997
-0.012850001 -0.20817661 0.013460464 0.009594658 -0.010938861 -0.01860392 -0.01747021 -0.017424734
-0.042799506 0.04485939 -0.01217242 0.0109083345 0.009905218 -0.043140113 -0.032224253 0.015245637
0.10302034 -0.00209377 -0.014630087 -0.0048866137 -0.02706054 -0.026511336 -0.021789579 -0.0070832274
-0.030630548 0.0017234817 -0.0083004115 -0.016561639 0.011609657 0.022374414 -0.0074617374 0.005403671
-0.028820653 -0.016104065 0.08316635 0.03265607 0.005311723 -0.016155515 0.016057627 0.030628959
-0.02418828 0.036880936 0.01953464 -0.039371844 -0.03462361 -0.012480436 0.029074067 -0.00013825958
-0.0020438659 0.01342335 0.008593811 0.002137148 -0.0029151742 0.0060391747 0.024241889 -0.041671455
0.018365523 -0.012437968 0.010833195 0.014169595 0.01732277 0.010668725 -0.03973409 -0.033090726
0.00714955 -0.018751163 0.022280736 0.007561487 -0.016763045 0.018057935 -0.0024875102 0.017840853
0.009163324 0.0074918834 0.006115881 0.009933342 0.0019687184 0.013949414 0.0033515887 0.01426867
00000000: 986b 763c 2f5e 643c bdb2 20bb 086d 28bb
00000010: 2ce9 b2bb 0ba2 4a3c 3ca8 ba3b 95a9 4cbc
00000020: 22eb ebbc 1142 bebd 41c0 5bbd e9dd 003c
00000030: 0af7 8cba 6dae b7bc e698 b23c b0dc 52bc
00000040: 83b1 93bc 0ab7 863c 7ce2 6abb 0e8d 5cbb
00000050: 8463 91bb 8de8 93bc 9cc4 9d3c 8635 93bc
00000060: 1aa6 703b 6fb7 a03c 6109 0d3b d6d8 893c
00000070: e797 063d bfbf dbbb 5f0c dbbd 60ca ab3c
00000080: b4c3 b3bb f1de 1b3c 1014 9abc f5b1 a93b
00000090: 70d3 713c ef55 f6bb 752a 543d 3b8c 863b
000000a0: cb24 f8bb d5a4 51bc 6b02 0bbd 52b0 2abd
000000b0: 591d 90bc 27a8 353e 3bb5 633e 5f40 5bbb
000000c0: b341 903c b962 a43c 2fe9 8b3c cdc0 53ba
000000d0: 699e 503c 659f 9dbc 4bba 33bc bb76 d8bb
000000e0: 3d2a e53b 3855 7d3c c6e6 dd3b d7b2 a53b
000000f0: 1ff6 78bb 1719 cdbb d612 1c3c e598 55bb
00000100: 8250 e53b 2a5b a6bd e3a5 903c d8df b43c
00000110: 80bf 5e3c ef3e 08bb db65 433c 74c1 3b3c
00000120: b556 cebc 279d 2fbb 37ae a23c 189b 813b
00000130: b6ee 92bc 81e3 943b dfe7 023d cfff 093c
00000140: e419 393c a7c9 683c 46e9 7bbc 6898 103b
00000150: e861 893c 7659 433b b577 873d b531 1dbc
00000160: 5375 363c 3e0c 07bd dd71 fabb 19e6 37bc
00000170: b5ea fb3b b48f 033d 1462 3d3c 0b83 c6ba
00000180: 1182 1b3d c7ee a4bb 9477 cdbc 1105 95ba
00000190: f383 793c a30f 113c b8c9 803c fe33 37bb
000001a0: 3caa 59bc f366 c7bc aba7 e6bb 1294 adbb
000001b0: 65a6 093d 4824 e3bc 4eb7 bdbc 187b 63bb
000001c0: 4544 5d3b 570a b63c 8708 07be 4513 3a3d
000001d0: 7b8f 91bb 6b11 1c3c 7077 0dbc 4533 86bc
000001e0: c0f1 76bc a082 37bd 90c0 ba3b 1397 6dbb
000001f0: e08a 27bd 9a9b 583b 74c7 9f39 f633 e93c
00000200: 26a3 9dbc 1660 21bd acd4 45be 5552 3cbc
00000210: e0f4 803b 1f9a 8f3a cf4f 513b eebb d83d
00000220: ba2e a0bd 01e6 043d 1a55 653c 4c67 303d
00000230: aa50 84bc 0c71 79bc 8683 57bb edd4 423d
00000240: 7c4f 9a3b 7c89 97bb 6f1a de3b f35f 0abc
00000250: 0ad7 25bc 8ba6 3fbc 010d cabc a6d2 883b
00000260: 5659 99bc 7b0a e4ba 09f4 c3bd e870 143c
00000270: 63fc e3bc 50e3 49bd 080e 863c 83a2 bab9
00000280: 4fb1 f0bb b8ff 703d 0845 c53b 3c33 9a3c
00000290: 7ebe 1bbb f9bf be3b 9cf7 783c 1bd1 99bc
000002a0: d56f a0bd 641c 0a3b d8c3 c4bc 062e 79bb
000002b0: ac50 efb9 92b3 4ebc c600 cb3a 2d46 6b3d
000002c0: d088 52bc 402c 55be 4789 5c3c ea32 1d3c
000002d0: e938 33bc 3f67 98bc b01d 8fbc 51be 8ebc
000002e0: 894e 2fbd 7bbe 373d d46e 47bc dfb8 323c
000002f0: 7f49 223c b0b3 30bd 94fd 03bd d6c8 793c
00000300: 54fc d23d a237 09bb 08b3 6fbc e31f a0bb
00000310: 11ae ddbc 4d2e d9bc 0f80 b2bc 6b1a e8bb
00000320: eaec fabc 73e6 e13a 73fe 07bc 46ac 87bc
00000330: 6e36 3e3c 8c4a b73c 9781 f4bb 4711 b13b
00000340: 4a19 ecbc acec 83bc 1f53 aa3d 5fc2 053d
00000350: f60d ae3b 9258 84bc 498b 833c 95e9 fa3c
00000360: 8026 c6bc 7710 173d 1c07 a03c 5f44 21bd
00000370: 7dd1 0dbd be7a 4cbc bd2c ee3c c6f9 10b9
00000380: 61f2 05bb 9ced 5b3c 0ecd 0c3c 650f 0c3b
00000390: 820c 3fbb 45e4 c53b ed96 c63c b0af 2abd
000003a0: 4b73 963c 9ec8 4bbc b77d 313c 9727 683c
000003b0: 7be8 8d3c e0cb 2e3c 37c0 22bd 248a 07bd
000003c0: c646 ea3b 0a9c 99bc 1786 b63c 5ac6 f73b
000003d0: a752 89bc 3cee 933c 7f05 23bb fb26 923c
000003e0: c421 163c 797e f53b ba67 c83b 75bf 223c
000003f0: 9d05 013b 158c 643c 54a6 5b3b 24c7 693c

encoder_fc.bias f4 [2]
0.0023489045 0.023243317
00000000: 14f0 193b c568 be3c

decoder_fc.weight f4 [3136, 2]
0.30147466 -0.43425864 0.22965215 0.30651224 0.54669124 -0.65112823 0.4420225 -0.33058274
0.40567848 0.3850859 0.22390857 -0.64799154 0.1853783 -0.55336154 0.5316865 0.20767002
-0.04611757 -0.18034828 0.2525738 0.59682584 0.029390601 -0.29969937 0.26423383 -0.6131005
0.033085458 0.7044709 -0.055726543 -0.42372242 -0.0598361 0.48023897 -0.69122833 0.3914548
-0.25561127 -0.4243099 0.48464105 0.26983553 0.18390375 0.36644056 -0.056058537 0.57475334
0.30962604 0.5371954 -0.23606518 -0.6615211 0.24586546 0.25884086 0.64457524 -0.38673076
-0.28005162 0.49732882 -0.17438655 0.035270177 0.6471652 0.39646307 -0.65074706 0.5103163
-0.51516074 -0.08370351 0.1911489 -0.50342286 0.6490227 0.58678067 -0.03941973 -0.43980107
0.5604792 0.16586708 0.17119491 0.17425503 0.30619463 -0.33583742 0.37157103 0.19397315
-0.10086919 -0.6237555 -0.4301983 0.22202338 -0.08950647 0.7146524 0.34009138 0.4421967
-0.3092129 0.51554406 -0.051866494 -0.15174907 -0.54249966 -0.065502055 -0.09767878 -0.36568108
0.31550667 0.47960547 0.27435502 -0.004557668 0.4973544 -0.25055772 -0.63499707 -0.47053257
-0.30799404 -0.61001754 0.57692856 0.40192914 -0.48845488 -0.7073982 -0.54207844 0.15148851
-0.49073052 -0.09580369 0.5745729 -0.45262167 0.06636624 0.056359243 0.55242515 -0.40148455
0.26313594 -0.20229283 -0.16463397 -0.5240022 0.007212113 -0.11133678 -0.53184754 -0.46874577
-0.090619 -0.22170967 -0.25801748 -0.59268165 -0.27915058 -0.035000112 0.5859585 0.58707327
-0.14305918 0.26386365 0.122101516 0.5794623 -0.009143688 -0.48809162 -0.6724959 -0.38765976
-0.20296487 0.44811237 0.5036645 0.33063477 -0.48681843 -0.14943905 -0.07225132 0.5789647
0.18795216 -0.6175337 -0.59530383 0.6511431 -0.5734971 0.04624997 0.42286673 -0.18643852
-0.25735438 -0.28184003 0.09536258 0.008860398 0.10294108 0.45486608 0.39339274 -0.29355335
-0.13359646 0.4210863 0.027272526 0.1981022 0.550898 0.45837504 -0.4031688 -0.38396162
0.40355855 -0.68052953 -0.123859935 0.22849193 0.4090636 0.13878036 -0.31121436 -0.33920562
0.64737874 -0.2987467 0.30122256 0.36729825 -0.5997363 0.14589773 -0.49140674 -0.42247522
0.65074235 0.08835078 -0.17135167 0.06357993 0.5064337 -0.21364598 -0.20084134 -0.051025312
0.3508419 -0.6663108 -0.43224677 0.07497279 -0.2034495 -0.29197022 -0.18245427 0.5446416
0.6275616 0.6835103 0.09889676 0.6502731 -0.5163126 0.41697863 0.65816736 0.5389525
-0.68721145 -0.5976265 0.48609084 -0.27171645 0.4797129 0.11874651 0.38600266 -0.55819577
0.45318866 0.29443315 -0.26552156 -0.0026668082 0.031148013 0.0115825925 0.009747831 -0.12443633
0.6788501 0.4075454 -0.2030024 -0.3721582 0.61190784 0.55141085 0.46305606 -0.1755745
-0.6917215 0.08350399 -0.38274103 0.353449 0.61779314 0.05734812 -0.22837658 0.40846908
0.4534709 -0.27153358 0.046467796 0.46958673 -0.3899331 0.086272374 -0.18048096 0.2441928
0.5290788 -0.5388241 0.029466096 0.4986115 0.6025615 -0.26811916 0.2984899 -0.38633296
00000000: e35a 9a3e 2657 debe ef29 6b3e 2cef 9c3e
00000010: f5f3 0b3f 57b0 26bf c650 e23e 2442 a9be
00000020: 17b5 cf3e fb29 c53e 4a48 653e c6e2 25bf
00000030: cfd3 3d3e 1aa9 0dbf 9b1c 083f 73a7 543e
00000040: c7e5 3cbd 38ad 38be 5a51 813e 94c9 183f
00000050: 8fc4 f03c 3272 99be a849 873e 28f4 1cbf
00000060: 9e84 073d 3458 343f 8441 64bd 25f2 d8be
00000070: b316 75bd e2e1 f53e 57f4 30bf c36c c83e
00000080: 7bdf 82be 263f d9be df22 f83e e227 8a3e
00000090: 4451 3c3e 199e bb3e a39d 65bd 0923 133f
000000a0: 4e87 9e3e a385 093f 12bb 71be 7259 29bf
000000b0: 28c4 7b3e ca86 843e e202 253f 9301 c6be
000000c0: ed62 8fbe e2a1 fe3e 6392 32be 7677 103d
000000d0: 9eac 253f 35fd ca3e 5c97 26bf 17a4 023f
000000e0: 93e1 03bf bf6c abbd 8abc 433e 52e0 00bf
000000f0: 5a26 263f 4237 163f 9576 21bd 9b2d e1be
00000100: 917b 0f3f 0fd9 293e b84d 2f3e e96f 323e
00000110: 8bc5 9c3e e2f2 abbe 8f3e be3e e6a0 463e
00000120: 8294 cebd 71ae 1fbf f442 dcbe 195a 633e
00000130: 2b4f b7bd 76f3 363f 7520 ae3e 9b67 e23e
00000140: 2751 9ebe b2fa 033f f671 54bd 1c64 1bbe
00000150: 42e1 0abf f125 86bd d00b c8bd 8d3a bbbe
00000160: 178a a13e d98e f53e 4378 8c3e 7e58 95bb
00000170: 3ca5 fe3e 1a49 80be 2b8f 22bf a5e9 f0be
00000180: 65b1 9dbe 1c2a 1cbf 97b1 133f a8c9 cd3e
00000190: c216 fabe 0c18 35bf a7c5 0abf ce1f 1b3e
000001a0: 0841 fbbe ba34 c4bd 3617 133f 07be e7be
000001b0: 06eb 873d f3d8 663d bc6b 0d3f 628f cdbe
000001c0: c1b9 863e da25 4fbe cf95 28be 0225 06bf
000001d0: 9753 ec3b 8a04 e4bd 2927 08bf 72ff efbe
000001e0: 7496 b9bd dc07 63be de1a 84be fcb9 17bf
000001f0: d3ec 8ebe 475c 0fbd 6001 163f 6f4a 163f
00000200: 1b7e 12be 2319 873e 5c10 fa3d a457 143f
00000210: 68cf 15bc 25e7 f9be b128 2cbf 577b c6be
00000220: 06d6 4fbe fc6e e53e 28f0 003f f648 a93e
00000230: 4440 f9be 8d06 19be 80f8 93bd 0837 143f
00000240: 8876 403e b016 1ebf d565 18bf 50b1 263f
00000250: b5d0 12bf 9c70 3d3d fd81 d83e bde9 3ebe
00000260: f4c3 83be 564d 90be 754d c33d 342b 113c
00000270: c6d2 d23d 35e4 e83e c66a c93e a04c 96be
00000280: 83cd 08be a098 d73e a26a df3c 4edb 4a3e
00000290: a707 0d3f 22b0 ea3e 246c cebe 9e96 c4be
000002a0: 3a9f ce3e 2f37 2ebf 47aa fdbd caf9 693e
000002b0: c970 d13e 701c 0e3e 7d57 9fbe 5cac adbe
000002c0: 9dba 253f 54f5 98be d839 9a3e 840e bc3e
000002d0: 5188 19bf 3766 153e aa99 fbbe ac4e d8be
000002e0: 0d97 263f 41f1 b43d d076 2fbe 3236 823d
000002f0: a4a5 013f 03c6 5abe 5aa9 4dbe ebff 50bd
00000300: 8da1 b33e 5893 2abf 734f ddbe 568b 993d
00000310: 1155 50be 1f7d 95be 4bd5 3abe a26d 0b3f
00000320: e1a7 203f 88fa 2e3f 628a ca3d 4c78 263f
00000330: 102d 04bf 397e d53e a87d 283f cbf8 093f
00000340: 17ed 2fbf 0dfe 18bf e6e0 f83e 6b1e 8bbe
00000350: ee9c f53e 5f31 f33d 24a2 c53e ebe5 0ebf
00000360: 5808 e83e f1bf 963e 71f2 87be 9ec5 2ebb
00000370: 1e2a ff3c eac4 3d3c 5eb5 1f3c 79d8 febd
00000380: 1fc9 2d3f caa9 d03e dcdf 4fbe 858b bebe
00000390: fea5 1c3f 4329 0d3f af15 ed3e cdc9 33be
000003a0: a914 31bf 2404 ab3d a2f6 c3be 44f7 b43e
000003b0: b127 1e3f dde5 6a3d 8ddb 69be dc22 d13e
000003c0: 562d e83e 7306 8bbe 0455 3e3d ac6d f03e
000003d0: 50a5 c7be 92af b03d 00d0 38be ad0d 7a3e
000003e0: b571 073f 60f0 09bf e262 f13c 024a ff3e
000003f0: 7841 1a3f ea46 89be abd3 983e 6fcd c5be

decoder_fc.bias f4 [3136]
-0.92113996 0.40108246 -0.6849948 -0.47597948 -0.52614504 0.4470904 -0.69574225 -0.24390823
-0.78254944 0.54145175 -0.11172428 -0.6436404 -0.7919718 0.12028482 0.5481276 0.6158244
0.18165004 -0.27964878 -0.34212068 -0.5644175 -0.42743185 -0.29776996 0.31768417 0.4188751
-0.68240243 0.27702126 -0.5601399 0.49172935 -0.13482708 -0.3227285 -0.43723306 0.60212666
0.1745537 -0.29128927 -0.2949772 -0.7685906 0.611553 0.6717304 0.06593772 0.20339273
-0.18276514 0.23964062 -0.14047001 0.23966764 0.6107299 0.5501021 -0.43084922 0.2832333
-0.6382991 0.43937382 -0.31926823 -0.7565049 -0.10103893 -0.023511145 -0.2757207 0.36870468
0.44930395 0.53877825 -0.22992553 -0.66761637 0.5313443 0.38821974 0.53764886 0.060886957
0.1568168 -0.05895963 -0.101889476 0.3731255 -0.78870773 0.4985607 0.02922072 -0.27166876
-0.6086901 0.65687275 0.563205 0.43809178 -0.17224662 -0.33685026 0.28860623 -0.6053845
-0.28556198 -0.5813376 -0.15269619 -0.38159004 -0.35690928 -0.054994144 0.11348942 -0.04297082
0.4739649 0.4449737 0.1779134 -0.41534317 0.4156211 -0.35700822 -0.3309242 -0.7910334
0.43798947 0.08124615 -0.4050717 -0.603608 0.4088077 0.33442232 0.10799436 -0.09089889
-0.68916184 0.43998134 0.32010746 -0.6857104 -0.5544995 -0.53998065 0.38675714 -0.31848586
0.5244715 -0.58733535 -0.1935616 -0.26950607 -0.15119834 0.14718509 0.57230586 0.12952952
-0.2186887 0.13615772 0.10720663 0.7518695 0.08701533 -0.3226879 0.5981158 0.13529396
0.5355178 -0.26735452 0.67718625 -0.5331118 -0.5710789 0.20978452 -0.6333809 0.22287418
0.3667427 0.34310693 -0.1402731 0.19718418 0.17922485 -0.33086908 -0.39604318 0.73294216
0.67795056 -0.41947368 -0.33894414 0.010772105 -0.6500152 -0.122560784 -0.5631622 -0.6178527
0.5924342 0.18666066 -0.33125973 0.6705518 0.4323634 -0.11547072 0.3749282 0.41153982
0.0625758 0.30785426 0.5390031 0.09390545 -0.43648708 -0.58091414 -0.38019547 -0.64058185
-0.40478453 -0.6530579 0.34696576 -0.21826728 0.761556 -0.28885096 -0.70400304 0.6769887
0.5912412 -0.7158253 -0.21444032 0.13136993 -0.7236493 0.75288993 0.45638916 -0.5594708
0.7457941 -0.560287 -0.2538499 -0.12187326 0.4950955 0.8156108 -0.18777584 0.5043978
0.5219075 -0.7173201 0.70933884 0.19463208 0.44338396 0.4232474 0.21844643 0.7149388
-0.69519657 -0.28483817 0.28777626 -0.036908466 -0.06579002 -0.46612388 -0.354887 -0.68217033
0.30240178 0.212112 -0.000494073 0.23288538 -0.44432354 0.024605269 -0.56096935 -0.31647286
0.5437818 -0.14881796 -0.22414356 0.6964983 -0.344472 -0.5691314 -0.19929276 -0.591469
-0.6038857 -0.15930285 -0.6330704 -0.38138694 -0.2681684 0.33064178 0.43791413 0.070795335
0.07838574 -0.021903569 0.77831376 0.17718194 -0.32602397 0.1186189 -0.3718506 -0.13471755
0.5939068 -0.42298922 0.79222673 -0.5249878 0.7199541 0.24544267 -0.0179162 -0.4737409
-0.4168915 0.43688095 0.70716435 0.5025592 0.2548272 -0.67325526 -0.3010855 -0.35686496
00000000: d4cf 6bbf ae5a cd3e d25b 2fbf 95b3 f3be
00000010: 71b1 06bf 08e9 e43e 2a1c 32bf 14c3 79be
00000020: 2955 48bf 959c 0a3f b3cf e4bd 9ec5 24bf
00000030: aabe 4abf e357 f63d 1752 0c3f aba6 1d3f
00000040: 7802 3a3e 202e 8fbe 712a afbe aa7d 10bf
00000050: 59d8 dabe 4e75 98be 80a7 a23e cc76 d63e
00000060: edb1 2ebf bbd5 8d3e 5465 0fbf f3c3 fb3e
00000070: 1c10 0abe ac3c a5be 03dd dfbe f924 1a3f
00000080: 35be 323e de23 95be 4007 97be 5bc2 44bf
00000090: bd8e 1c3f 86f6 2b3f 5b0a 873d 2f46 503e
000000a0: c926 3bbe 5a64 753e 5fd7 0fbe 6f6b 753e
000000b0: cb58 1c3f 7ed3 0c3f 4598 dcbe f503 913e
000000c0: 9267 23bf 9bf5 e03e 2077 a3be 4eaa 41bf
000000d0: 80ed cebd 729a c0bc 432b 8dbe dcc6 bc3e
000000e0: 2b0b e63e 5fed 093f 9971 6bbe e8e8 2abf
000000f0: 2e06 083f bdc4 c63e 5ba3 093f 9a64 793d
00000100: 9594 203e a77f 71bd 6eab d0bd 4e0a bf3e
00000110: c0e8 49bf 5943 ff3e 4b60 ef3c 2b18 8bbe
00000120: 1dd3 1bbf d028 283f 342e 103f 914d e03e
00000130: 6b61 30be a377 acbe 32c4 933e 7bfa 1abf
00000140: 2e35 92be 8ad2 14bf 645c 1cbe c55f c3be
00000150: d0bc b6be 8a41 61bd 246d e83d 2c02 30bd
00000160: 87ab f23e 98d3 e33e ee2e 363e dca7 d4be
00000170: 4acc d43e c8c9 b6be e66e a9be 2a81 4abf
00000180: 2840 e03e 6264 a63d 8f65 cfbe 0e86 1abf
00000190: 3e4f d13e 6739 ab3e 262c dd3d 3229 babd
000001a0: e96c 30bf 3c45 e13e 20e5 a33e b78a 2fbf
000001b0: aef3 0dbf 2c3c 0abf 0805 c63e 9410 a3be
000001c0: c443 063f 9c5b 16bf 0335 46be b3fc 89be
000001d0: bdd3 1abe b0b7 163e a382 123f 63a3 043e
000001e0: eeef 5fbe ee6c 0b3e 268f db3d 857a 403f
000001f0: 1835 b23d 5937 a5be 1e1e 193f 808a 0a3e
00000200: b217 093f b1e2 88be 145c 2d3f 047a 08bf
00000210: 3a32 12bf c1d1 563e 4025 22bf 2139 643e
00000220: b3c5 bb3e b6ab af3e c0a3 0fbe a6ea 493e
00000230: b886 373e ac67 a9be 2cc6 cabe 19a2 3b3f
00000240: 2b8e 2d3f 41c5 d6be 168a adbe 7c7d 303c
00000250: 6567 26bf 2601 fbbd 662b 10bf 982b 1ebf
00000260: c5a9 173f f923 3f3e e09a a9be 48a9 2b3f
00000270: bc5e dd3e ea7b ecbd 97f6 bf3e 59b5 d23e
00000280: be27 803d 139f 9d3e 1bfc 093f 8051 c03d
00000290: 3c7b dfbe cab6 14bf fba8 c2be 2cfd 23bf
000002a0: eb3f cfbe cd2e 27bf 7fa5 b13e 7581 5fbe
000002b0: 56f5 423f 46e4 93be 8b39 34bf 224f 2d3f
000002c0: 955b 173f 5440 37bf 3e96 5bbe d785 063e
000002d0: 1541 39bf 65bd 403f d7ab e93e 7a39 0fbf
000002e0: 5dec 3e3f f86e 0fbf 9df8 81be b098 f9bd
000002f0: 287d fd3e dfcb 503f 4f48 40be 3720 013f
00000300: bb9b 053f 4aa2 37bf 3b97 353f a24d 473e
00000310: 3903 e33e e2b3 d83e 6cb0 5f3e 3b06 373f
00000320: 67f8 31bf 4fd6 91be 6957 933e 552d 17bd
00000330: ebbc 86bd caa7 eebe c0b3 b5be b7a2 2ebf
00000340: 68d4 9a3e e333 593e ae84 01ba 8179 6e3e
00000350: 607e e3be fd90 c93c b09b 0fbf bb08 a2be
00000360: 4935 0b3f bc63 18be e485 65be b64d 323f
00000370: a25e b0be 98b2 11bf 6713 4cbe 836a 17bf
00000380: 4198 1abf 4920 23be e710 22bf 2645 c3be
00000390: 5e4d 89be e149 a93e 4836 e03e 25fd 903d
000003a0: b488 a03d 1d6f b3bc 923f 473f 2f6f 353e
000003b0: 9dec a6be 77ee f23d 3463 bebe 66f3 09be
000003c0: 470a 183f 0b92 d8be 5fcf 4a3f 9a65 06bf
000003d0: e94e 383f 5355 7b3e ffc4 92bc 2b8e f2be
000003e0: cd72 d5be dcae df3e b908 353f b8a7 003f
000003f0: b678 823e 755a 2cbf e127 9abe 01b7 b6be
