autoencoders/models/standard_ae.pth (torch, 885110 bytes, 16 tensors)

encoder.0.weight f4 [128, 784]
000000 7c 10 03 bc 9a ca 9a 3c f0 70 76 bb db c4 09 3d
       -0.007999536 0.018895436 -0.0037603937 0.033635
000010 40 3f 5f 3c 8a 88 e7 3c 08 85 91 3b 10 09 bd 3b
       0.01362592 0.02826335 0.0044409074 0.0057689026
000020 b0 54 43 3c 46 d6 b8 3c 02 f8 09 bd b7 20 9c bc
       0.011922047 0.022563111 -0.033683784 -0.019058568
000030 28 03 7b 3c e0 f0 ff 3b 9c a1 3a bc d0 00 3a 3c
       0.015320577 0.007810697 -0.01139107 0.011352733
000040 a4 06 5a 3c 43 64 f5 bc 78 4b 04 3c 50 11 cb 3c
       0.013307247 -0.029955035 0.008074634 0.024788529
000050 d0 60 f3 3b 0b 71 08 bd c8 3a c6 3b 0c dd c3 bc
       0.0074273124 -0.03331093 0.0060494877 -0.023909114
000060 c4 3d 0d bc 40 95 10 ba 48 91 a8 3b 32 f6 38 bc
       -0.008620683 -0.0005515404 0.005144272 -0.011289166
000070 3d a0 08 3d 93 96 c6 bc d4 57 79 3c 28 3e 08 3c
       0.03335594 -0.024241721 0.015218694 0.0083156
000080 40 de fe 3a d0 ef 77 3c 28 aa 34 3c d5 79 ff bc
       0.0019444898 0.015132859 0.011026897 -0.031186024
000090 31 0c a3 3a 12 a3 04 bb bb bd bb bc 9e e8 17 39
       0.0012439546 -0.00202388 -0.022917619 0.00014487139
0000a0 15 87 a9 3c 4f 64 04 3c 40 98 00 bc 70 28 0c bd
       0.020694295 0.008080556 -0.007848799 -0.03421825
0000b0 f7 3c b3 3c b9 97 5d 3c 71 5c 96 bc 1c b6 46 bc
       0.021879656 0.013524943 -0.018354626 -0.012128379
0000c0 ae d2 60 bc 10 5c 39 bb 2c 24 11 bd c8 42 ea 3b
       -0.013722105 -0.0028283633 -0.035434887 0.007149074
0000d0 81 d0 ed bc 38 15 3e 3c 20 59 9c 3c d2 57 ee 3c
       -0.029030086 0.011601739 0.019085467 0.02909461
0000e0 00 86 41 3a 8e 51 04 bc 0a cd 1b bc 51 ad ef bc
       0.0007382333 -0.008076085 -0.009509334 -0.029257448
0000f0 dc f2 e9 bb 38 1d 3c bc c8 f0 9b 3c 27 b9 06 bd
       -0.007139547 -0.011481576 0.019035712 -0.03289142
000100 6f 47 fe bc 31 3b 02 bd 84 9d 84 bc 22 2c b1 3c
       -0.031039922 -0.03179473 -0.01618839 0.02162749
000110 bb 03 e9 3c 52 22 11 bd a7 35 c1 bc 09 c2 0b bd
       0.028444162 -0.03543312 -0.023585154 -0.034120593
000120 d5 e0 17 bd 4e b4 9c bc 69 bd 25 bc a2 d9 d1 bc
       -0.03707965 -0.019128945 -0.01011596 -0.02561647
000130 51 2b e9 bc 23 78 dc bc b5 32 33 ba 45 1e 09 bc
       -0.028463038 -0.026912754 -0.0006835864 -0.008369033
000140 a0 17 cf ba ce 74 3c bc 00 44 c7 3b 83 b7 f0 bc
       -0.0015799887 -0.011502458 0.0060811043 -0.02938438
000150 5c 3a 6f bc 28 a5 cb 3c a8 c0 a3 3c 32 10 04 bc
       -0.014601316 0.024859026 0.019989327 -0.008060502
000160 85 43 11 bd c5 fd a2 bc 97 a9 9c 3b 6e 02 9d 3b
       -0.035464782 -0.019896397 0.004780959 0.0047915494
000170 f2 cc 1c bc 53 f0 ad 3c f3 82 62 bc 09 c7 d8 3c
       -0.009570347 0.02123276 -0.013825166 0.026462095
000180 74 20 11 bd 8f ce f0 bb d9 15 e5 b9 63 45 ad 3c
       -0.03543134 -0.0073488425 -0.00043694561 0.02115125
000190 24 06 7f 3a 14 91 91 3b 61 cb 16 3c 21 c2 b5 3c
       0.0009728393 0.0044423435 0.009203763 0.022187294
0001a0 80 c3 c2 3c e6 17 a8 bc c7 55 36 3a df 7a 6f bc
       0.023774862 -0.020519208 0.0006955531 -0.014616697
0001b0 44 44 0f bd 7c 52 51 bc dc a8 98 bc 49 60 10 3d
       -0.034977213 -0.012776013 -0.018635206 0.035248075
0001c0 3c e5 78 3c bc 7c 15 bc ea d1 65 bc 0a 90 d6 bc
       0.0151913725 -0.009123977 -0.014027098 -0.02619173
0001d0 03 09 1a 3c a6 b1 8e bc 76 11 04 3d 8e 6e cb 3b
       0.009401563 -0.017418694 0.032243215 0.0062082475
0001e0 4b 3e 8d ba b9 f6 cb bc 0f 83 5e bc ec 30 3c bc
       -0.0010776011 -0.02489792 -0.0135810515 -0.011486273
0001f0 67 42 9b bc cb 76 79 3c 05 7b 91 3c 51 d8 e9 bc
       -0.018952562 0.015226076 0.017758856 -0.02854553
000200 03 7c 97 bc 58 de 24 bd 74 a5 27 3c 69 5b ac bc
       -0.01849175 -0.040251106 0.010232318 -0.021039682
000210 c7 f2 17 b9 e1 01 e7 bb 72 10 90 bc db 0c 21 bc
       -0.00014490924 -0.0070497845 -0.017585967 -0.009829725
000220 0e e8 64 3c 3e 55 78 3b 81 33 00 bc 43 78 04 3d
       0.013971342 0.0037892605 -0.0078247795 0.032341253
000230 48 ec fe 3b a0 3f 79 3b f5 4d fa bc 1f d1 06 3d
       0.0077796318 0.0038032308 -0.030554751 0.032914277
000240 e5 7c f2 3c 43 9c 09 bd aa 47 87 bc ba 8a d3 3b
       0.02960057 -0.03359629 -0.016513664 0.0064557465
000250 ff 6c c8 3c 83 6f 83 3b 28 5a 56 3c e6 fc 2d bd
       0.024466036 0.004011096 0.013083018 -0.04247751
000260 32 06 b5 3c d3 79 36 bd 0c 97 a4 3b 85 3d 58 bc
       0.02209768 -0.044549774 0.005022889 -0.013198261
000270 76 17 da bc 27 b8 38 bc 2c 5e 2b ba d3 cf 6d 3b
       -0.026622515 -0.011274374 -0.0006537165 0.0036287203
000280 f8 2a 94 bc 76 93 21 bd 89 e4 3c bd 5a bf 0b bd
       -0.018086895 -0.03944727 -0.046116386 -0.034118034
000290 8d c3 d2 bc aa 3c b4 3c 0b 2a b5 bc 42 20 12 bd
       -0.025728012 0.022001583 -0.022114774 -0.035675295
0002a0 28 78 e7 bc 82 75 eb 3c 7e 68 b5 3c f2 52 d2 3c
       -0.028255537 0.028742556 0.022144552 0.025674317
0002b0 47 27 96 bb 68 28 a4 bc 29 34 d7 3c 5c 83 f6 bc
       -0.004582319 -0.020038798 0.02626999 -0.030091934
0002c0 3a 76 d1 bc 73 0a d3 3c 8e 05 dc 3c a4 92 0b bd
       -0.02556907 0.025761819 0.026858117 -0.034075394
0002d0 e8 7b 0c bd e8 04 19 3b b6 57 6d bc f7 80 68 bc
       -0.034297854 0.0023348872 -0.014486244 -0.014190904
0002e0 bb d6 b2 3c 55 dd 54 bc dc 84 73 3c bd e4 05 bd
       0.021830907 -0.012992223 0.014863219 -0.032688845
0002f0 d4 0d fa b8 57 1d 0f bd 0e e5 02 3c 7d 1e c4 bb
       -0.00011923505 -0.03494009 0.007989181 -0.00598508
000300 df 01 c3 bc 04 e2 c1 3b f8 85 54 bb 1e 7a 82 bc
       -0.023804603 0.0059168357 -0.0032428484 -0.01592737
000310 c4 55 2f 3c 48 7e c7 bc ce 59 bb bc ca 62 83 3c
       0.0107016 -0.024352208 -0.02286997 0.016038317
000320 10 79 95 3c 6b a4 d4 bc a8 70 b9 3c cc 4e 6d bc
       0.018246204 -0.025957307 0.022636726 -0.014484119
000330 28 9a 83 bc f0 3f af 3c 16 08 d2 bc e5 4d 32 bc
       -0.016064718 0.021392792 -0.025638621 -0.010882829
000340 e3 24 81 bc cd aa 52 bc 80 2d a0 3c 12 8f 9e 3c
       -0.01576466 -0.012858105 0.019552946 0.01935533
000350 6a 82 b9 bc 47 f8 0b bc c2 d4 1c bd 96 b5 3e 3c
       -0.022645194 -0.008543081 -0.03828884 0.011639973
000360 1b 8b 59 bb 74 da b2 3c ef 3f c1 bc a0 08 db bc
       -0.0033194486 0.021832682 -0.023590056 -0.026737511
000370 59 5d c0 3b 52 ef 0f bc e7 2b 94 bc 92 63 dc 3c
       0.005870503 -0.008785086 -0.01808734 0.026902948
000380 20 99 09 bd 1a 5b f8 bc 3e f8 83 bc 4b 45 a7 3c
       -0.033593297 -0.030316878 -0.016109582 0.020418784
000390 1c 67 80 bc 81 93 c1 bc 6f 9c a5 3b 44 e5 4f 3b
       -0.015674166 -0.023629906 0.0050540487 0.0031722346
0003a0 2b 16 d6 bb 79 1c cd bc 9d c2 dc ba 97 8e 99 bc
       -0.0065334043 -0.02503799 -0.0016842667 -0.01874475
0003b0 ea da 34 bd cf a4 12 bd 88 a8 99 3c 72 1b 80 bc
       -0.044154085 -0.035801705 0.01875712 -0.015638087
0003c0 a5 f8 86 bb e6 00 5b 3c a7 3d 91 ba 97 23 a9 3c
       -0.004118996 0.013366913 -0.0011080996 0.020646853
0003d0 20 ee 8c bc 0f 26 88 3c 8d fd 21 bd 73 46 ad 3c
       -0.01720339 0.01661971 -0.039548445 0.021151757
0003e0 31 6d 81 bc 08 8b 9d bb 68 14 a6 bc b3 b7 ef bc
       -0.015799137 -0.0048078336 -0.020273402 -0.0292624
0003f0 06 3f cc bc 3c 0f cb 3c ae 0f f6 3b 24 19 4a 3c
       -0.024932396 0.024787538 0.0075091934 0.012335096

encoder.0.bias f4 [128]
000000 6e 70 7f 3c ad 79 b0 3d 93 fe 28 3e d2 77 9a 39
       0.01559077 0.08616958 0.16503362 0.00029462442
000010 5e 64 5e 3d c0 b1 8e 3d fe 69 7d 3d 82 52 9f 3e
       0.054294936 0.06967497 0.06186866 0.31117636
000020 af 08 6d bc 66 dc 35 3c dd 92 39 bd fd ef 20 3d
       -0.014467402 0.01109991 -0.045306075 0.03929137
000030 e4 28 fe 3c 02 c4 79 39 fd bb 1e 3d 4a a8 1d 3e
       0.031025358 0.00023819509 0.0387535 0.15396228
000040 d6 c0 88 3d 46 e4 f7 bc bb 70 05 bc c6 6d 4f 3c
       0.066774055 -0.030260216 -0.008144553 0.012660449
000050 8f e8 87 3e 43 70 ea 3c 1d b3 32 bc 6c a9 c7 3c
       0.26544616 0.028617984 -0.010906962 0.024372779
000060 31 c1 bd 3c b7 7e 49 3c 2d 14 e7 bc a3 eb 6f 3e
       0.02316341 0.012298278 -0.028207863 0.23429732
000070 5b 8e 47 bd bc 8d 8a 3d f7 cc 61 3d 4f 2b 1b 3d
       -0.048719745 0.06765315 0.05512711 0.0378831
000080 60 4c 6c bc 44 b9 a0 bc e7 6b c0 3d 86 d1 d8 bb
       -0.014422506 -0.019619592 0.09395581 -0.006616774
000090 f7 a4 a2 3a ce ce 30 bc 48 0a 68 bc b7 4c 2f 3c
       0.0012408782 -0.010791494 -0.0141626075 0.010699443
0000a0 06 d8 38 3e d9 93 6c 3c 65 3a 4b bb 2b ed 53 3d
       0.18051156 0.0144395465 -0.0031010148 0.051739853
0000b0 d7 18 ab 3c 2e 96 63 3d 82 46 4c 3c 5f 5d 10 3e
       0.020885868 0.055563144 0.012467982 0.14098118
0000c0 08 7e 86 3d 3b 22 43 3c 7d df 8a bc 85 1d 4c 3c
       0.06567007 0.011910017 -0.01695227 0.01245821
0000d0 66 21 01 3c 51 fd 53 3e c1 39 cc 3d d8 4e 6a 3d
       0.007881498 0.20702101 0.09971953 0.057204098
0000e0 5f 56 a8 3c 3c 8e aa 3c 04 8c 74 3d 0c 69 80 3d
       0.020548997 0.020819776 0.05970384 0.06270036
0000f0 32 01 0c 3d 20 c3 5f 3d 32 9a 21 3d 64 72 86 3d
       0.034180827 0.054629445 0.039453693 0.06564787
000100 09 d9 dd 3d e9 a8 78 3b 5c 38 43 3c 74 92 14 3d
       0.10832412 0.0037942475 0.011915293 0.03627248
000110 71 a8 a4 3d 1f 25 ab bb 08 fb 2f bd 76 c1 7d 3d
       0.0803994 -0.005222931 -0.04296401 0.061952077
000120 36 5f 9e 3d cf 26 16 ba 8f a8 8a bc 8a 6d 9c bb
       0.07733004 -0.0005727829 -0.016926078 -0.0047738003
000130 f8 d5 cd 3d 2c 63 b0 3d 96 e4 30 bd 03 af 7d 3e
       0.10050577 0.086126655 -0.043186747 0.24773793
000140 23 87 87 3e 0a 1f 41 bd 69 ee c0 bc 05 53 b7 3c
       0.2647029 -0.04714874 -0.023551183 0.022378454
000150 a4 16 e7 3c 98 85 13 3d 1e 64 92 3d 29 c5 74 3d
       0.028209038 0.036016077 0.07148002 0.05975834
000160 f6 25 b1 3d 6c 14 6f bb 38 7b 10 3c 9a 2f 65 3e
       0.086498186 -0.0036480678 0.00881844 0.2238144
000170 2f ab bd 3d 84 8e 7d 3e 08 b4 94 bc c7 79 49 3d
       0.09261166 0.24761397 -0.018152252 0.0491884
000180 7f 9e 6e 3d ec 14 af 3d 7f bf 2a bd a3 d3 1e bc
       0.058256622 0.085489124 -0.04168653 -0.009694013
000190 c1 fb 33 3d 7c 92 88 3d 58 4e 1c bc 02 6c a0 3d
       0.043941263 0.06668565 -0.009540163 0.07833101
0001a0 ac 8f dd 3c d9 ea 5b 3e 36 48 af 3c 57 33 5a 3c
       0.027046047 0.21476306 0.021396738 0.013317904
0001b0 ad 76 c9 3d 81 46 9a 3b 13 86 7a 3d cf 9e d3 3b
       0.09837089 0.0047081118 0.06116302 0.0064581404
0001c0 c9 c9 42 3e 74 00 1c 3d a6 94 4b 3e 50 9c 87 3e
       0.19022287 0.03808637 0.19880924 0.26486444
0001d0 20 7b 9b 3d 74 a1 8d 3d b0 92 24 3d f4 d2 8e 3d
       0.075918436 0.0691556 0.040178955 0.0697383
0001e0 cd 4b 04 3d d9 58 cf 37 20 6f 55 3e 13 41 a7 bc
       0.03229885 2.4717696e-05 0.20843172 -0.020416772
0001f0 7d c9 1c bc 72 06 8c 3d ee 1c 3d 3c 34 04 38 3d
       -0.009569523 0.06837167 0.011542542 0.044925883

encoder.2.weight f4 [64, 128]
000000 0c 12 81 bd c7 fd 11 bd cd 21 fa bc 74 ea 28 bd
       -0.0630227 -0.03564241 -0.030533696 -0.041239217
000010 93 49 87 3d 5b b0 29 3d d2 09 da bc 7c 93 12 bd
       0.0660583 0.04142795 -0.02661601 -0.035785183
000020 2c d8 6c bc a7 0a 36 3d b3 ba 39 bd e7 0b c5 3d
       -0.014455836 0.044443753 -0.045344066 0.09621411
000030 94 af 86 bd 22 80 b2 bd e0 81 c5 3d a7 69 c4 bd
       -0.065764576 -0.08715846 0.09643912 -0.09590464
000040 a4 90 82 bd e5 b8 95 3d 2b 3f 99 bd a4 77 95 bd
       -0.06375244 0.073106565 -0.074827515 -0.0729821
000050 e2 60 9c bd eb b4 d5 3d e8 95 3d bd 56 27 84 3d
       -0.076356664 0.10434898 -0.04628554 0.06452815
000060 12 03 6b 3d e9 02 be 3b 27 b8 a4 bd 7e 06 86 bd
       0.057375975 0.0057986868 -0.08042937 -0.06544207
000070 1a 61 2f bd 37 85 53 bd 0d af d2 bd 41 d7 9d 3d
       -0.042817213 -0.051640715 -0.102872945 0.07707072
000080 02 04 73 bd e7 ff 64 3d 74 8a 5b bd a4 d9 b7 bb
       -0.059329994 0.05590811 -0.053598836 -0.0056106616
000090 eb b2 76 3d d5 72 45 bb 60 8b 6a bc aa 74 39 3d
       0.060229223 -0.003012826 -0.014315456 0.045277275
0000a0 ba a8 8f bd 07 d8 fa 3c 2a 41 10 3d 4b c6 d4 3c
       -0.07014604 0.030620588 0.035218395 0.02597346
0000b0 83 ae 9d 3b 61 c1 b6 bd fb c1 75 3d 15 49 cd 3c
       0.004812063 -0.08923603 0.059999447 0.025059262
0000c0 b5 29 bb 3c 68 28 03 3a 3d 1a ae bd 26 d0 88 3d
       0.022847036 0.00050032744 -0.08501098 0.06680326
0000d0 0f 73 5b bd 58 74 a8 bd f7 ea 22 3e 3d ca da bc
       -0.053576525 -0.08225316 0.15909944 -0.026707763
0000e0 91 16 78 bd fd d7 cf 3d 4e 4e 5b 3d f3 8f 90 bc
       -0.060568396 0.10148618 0.053541474 -0.017646765
0000f0 1f 53 52 3d 3f a1 8d 3d 35 1e d7 3b 56 ea a5 bc
       0.0513488 0.06915521 0.0065648803 -0.020253342
000100 2d 70 dd 3c d3 83 99 bd 8b 31 38 3d 86 22 45 bd
       0.027031029 -0.074958466 0.044969123 -0.048128627
000110 56 b1 45 bd 07 41 a8 bd 31 20 8c 3d ee d1 bf 3c
       -0.048264824 -0.08215528 0.068420775 0.023415532
000120 be 45 fe bc 28 5f 35 bd 3a 63 02 3b fb c6 20 bd
       -0.031039115 -0.0442802 0.001989557 -0.039252263
000130 24 c0 47 3d be 2f 23 3c a6 62 35 bb 52 06 9d bd
       0.048767224 0.009960113 -0.0027677207 -0.07667221
000140 c1 d6 f4 3d b1 9c c3 bc c0 e3 0d 3d 7b 0e e6 3b
       0.119550236 -0.023878427 0.034641027 0.007020769
000150 6c ab 98 3d d6 a9 87 3d e5 c8 e8 bd 9f 9f f6 bc
       0.07454571 0.066241905 -0.113664426 -0.03010541
000160 61 ae 79 3d 06 c2 a8 bc 17 03 06 3d 33 96 78 bd
       0.060957316 -0.02060033 0.03271779 -0.060690116
000170 38 30 d5 bc 1f a9 34 3d fa d2 64 3d d0 71 b2 3d
       -0.026023969 0.0441066 0.055865265 0.08713114
000180 31 f9 af 3d e9 37 7a bd 9f 9b 5f 3c 97 65 82 3d
       0.08592451 -0.061088476 0.013647943 0.06367033
000190 48 b0 ce 3c e4 5b 1f 3d ee 34 bf 3d 49 c7 3c bd
       0.025230542 0.038905993 0.093362674 -0.04608849
0001a0 49 dc c6 bd 4d 08 a4 3d 29 b2 1d bd dc 73 63 3d
       -0.09709985 0.08009396 -0.038499985 0.055530414
0001b0 d4 9f 59 3d 8b 0f a3 bd c0 49 b3 3b f9 9d 0a 3b
       0.05313094 -0.07961949 0.005471438 0.0021151288
0001c0 e4 b8 31 bd 08 02 8c 3d ca 49 59 3c 47 79 22 3d
       -0.043389216 0.06836325 0.013262222 0.03966644
0001d0 0e 80 a1 3a 04 68 dd bd 09 0a 02 3e 63 cf 52 3d
       0.0012321488 -0.10810855 0.1269914 0.05146731
0001e0 c7 39 91 3c c0 9a 00 3d 37 71 12 bd 30 ad 5c 3d
       0.017727746 0.03139758 -0.0357525 0.053876102
0001f0 9f 73 38 3b 84 84 83 3c 44 5c 7d bd 4a 62 a9 3c
       0.0028145087 0.0160544 -0.06185557 0.02067675
000200 42 2c 85 3d be 89 1f 3d 27 ec a7 bd ce 85 95 3d
       0.06502582 0.03894972 -0.08199339 0.07300912
000210 bb f5 a8 bb 6d 11 92 bd c2 a6 99 bd f2 2e 62 bd
       -0.0051562465 -0.0713223 -0.0750251 -0.05522055
000220 94 c3 c4 3c 5f a6 14 3d 1d b2 1b 3c ac 72 60 bc
       0.02401904 0.036291476 0.009502915 -0.013699215
000230 5b 33 09 3c 2c 00 6e 3d 80 6f ce 3c 80 9a bc bd
       0.0083740605 0.058105633 0.025199652 -0.09209156
000240 ff 19 8f 3d f9 d0 8a 3d 29 b9 52 bd f9 19 62 3a
       0.0698738 0.067781396 -0.051446114 0.0008625086
000250 14 0a 07 bd 9b 72 2e 3d c7 ef bc 3c 75 f6 72 bd
       -0.032968596 0.042589765 0.023063553 -0.05931707
000260 71 5a 79 3d af 8c b7 bc b8 f7 42 bd c0 2d 1e 3b
       0.060877267 -0.02240595 -0.047599524 0.0024136156
000270 43 dc 30 bd a5 54 ff 3c 2a 8e 0c 3c 5a c6 1c 3b
       -0.043178808 0.031168291 0.008578816 0.0023921938
000280 0d a5 ce 3c 28 13 21 bd be 63 8d 3d e3 4c 5e bd
       0.025225187 -0.03932491 0.0690379 -0.054272544
000290 eb 17 57 bd 44 8f 7e bc 2a e3 9c bd e3 cc a1 bc
       -0.052513044 -0.015537087 -0.076605156 -0.019751018
0002a0 a9 e2 6c 3d 9c fb 4e bd 9f d1 1d bd ce 12 ff 3c
       0.057833347 -0.050532922 -0.03852999 0.031136896
0002b0 45 6f 66 3d 40 72 c1 bd e9 29 c9 bb 16 14 0a bd
       0.05625846 -0.094456196 -0.0061390293 -0.03371056
0002c0 2a 2f 1c 3c dc ae 18 3d 88 26 53 3d 6c 4f 2e 3d
       0.009532729 0.037276134 0.05155042 0.04255621
0002d0 9c 40 24 3d 5c b6 17 3c e9 4d 66 bd 89 be 61 3d
       0.04010068 0.009259786 -0.056226645 0.05511335
0002e0 ed 6e fd ba 09 87 93 bd 83 56 5d 3d 85 71 83 bd
       -0.0019335427 -0.0720349 0.054037582 -0.064181365
0002f0 ea f5 7b bc cd 79 d5 3c 7c 7b ae bc 6e 30 65 bc
       -0.015378455 0.026059056 -0.021299116 -0.013988597
000300 ac 5d 10 bd 4c 88 5f 3d f5 f9 97 3d d3 2b 9e 3d
       -0.035245582 0.054573342 0.074207224 0.077232026
000310 c0 a7 01 3d f5 84 b4 bd e8 39 6e 3d 4f fe 83 bc
       0.03165412 -0.08814422 0.058160692 -0.016112475
000320 48 4d bf bd 46 71 aa bc 25 2e f7 bc 2c 0a d4 ba
       -0.09340912 -0.020805966 -0.03017337 -0.0016177348
000330 d8 85 43 3c c5 cc 59 bd ae 47 00 bd d4 26 92 bc
       0.011933766 -0.0531738 -0.03131836 -0.01784078
000340 fe d7 b8 bd d4 dc ba 39 7a 5f c4 bd e8 37 fe bb
       -0.09025572 0.00035641214 -0.09588523 -0.0077581294
000350 54 3c 47 3d 20 b1 40 bd d2 92 95 bc a5 72 83 bd
       0.048641518 -0.04704392 -0.018258486 -0.06418351
000360 60 9b da bc 27 af 6f 3d ca 2f c3 3b 2c 00 79 bd
       -0.026685417 0.058516648 0.0059566246 -0.06079118
000370 ea 44 64 3d eb 26 0a 3c 18 9e 9a 3d df 26 b1 bd
       0.055729784 0.00843213 0.07549685 -0.08649992
000380 47 1a 65 bd 95 65 9f bd 93 a1 3d bd bb 8b 20 3d
       -0.055933263 -0.07783047 -0.046296667 0.039195757
000390 c9 5c f0 bc a9 3f 65 bd d0 cb 95 3d ba 5c 8a bd
       -0.029341118 -0.055968914 0.07314265 -0.067559674
0003a0 02 26 0a 3d c5 79 ba 3c c2 5b da bb 9f ba 16 3c
       0.033727653 0.022763142 -0.0066637704 0.009199767
0003b0 58 3f 1e 3d 2d dc d6 bb cc 43 ad bd 74 0f 94 3d
       0.038634628 -0.0065570087 -0.08460197 0.0722951
0003c0 a8 51 af bd 58 c5 23 bd a9 f7 83 bd d0 c1 a0 3d
       -0.085604966 -0.039983124 -0.06443722 0.07849467
0003d0 59 e3 a7 3c 76 f8 19 3a 98 ea 1c bd 84 80 8d 3a
       0.02049415 0.00058735104 -0.038309664 0.0010795747
0003e0 e9 17 33 bd c7 0c 8f 3c d5 46 41 3d 82 85 66 3d
       -0.043723974 0.017462147 0.04718669 0.056279667
0003f0 bc a2 6f 3d 1e 82 bd bc 7c 27 a9 3d 0b 36 97 3d
       0.058504805 -0.023133334 0.08259484 0.07383355

encoder.2.bias f4 [64]
000000 9b b7 e2 bc 24 8b d3 bc 0e 39 aa bc 81 19 df bd
       -0.02767544 -0.025823183 -0.020779159 -0.10893536
000010 bc f5 17 3c 9f b4 4c 3c 42 e1 13 bd 02 5e 6d 3d
       0.009274896 0.012494235 -0.036103494 0.05795098
000020 61 1d 8f 3d 8d e6 07 3e 5f 3f 90 3d 9a 70 be bc
       0.069880255 0.13271542 0.07043337 -0.023247052
000030 87 6e 00 3d b4 25 ad 3d dc 41 4f bd 6c 44 a4 3d
       0.031355407 0.08454457 -0.050599918 0.08020863
000040 a7 38 a9 bc e7 7c 3d bd 7b ae b3 3c 44 cd 20 bc
       -0.020656897 -0.046261694 0.021933785 -0.009814564
000050 a5 08 08 bd 96 b4 a3 3d 7d 40 46 bd a1 4d 91 3c
       -0.03321137 0.079934284 -0.048401345 0.017737212
000060 35 f5 d8 bb b3 f5 fc 3d 43 ee bf bd 87 d1 9c 3b
       -0.006621028 0.12351551 -0.09371617 0.00478572
000070 94 bc ab bc c5 01 38 bd 28 eb 45 3c 51 9c 36 3d
       -0.020963944 -0.044923563 0.012079991 0.04458267
000080 a7 8e a4 bc de b8 3a 3a c3 78 c3 3d 98 5d a9 3d
       -0.020087553 0.0007122884 0.09544518 0.08269805
000090 d7 07 5b 3d 44 dd f0 3d f8 23 07 3d e7 04 3c 3d
       0.053474274 0.11760953 0.032993287 0.045903113
0000a0 56 9d cb 3b 10 1e 38 3b ae 83 b4 bd 74 73 a2 bd
       0.0062138243 0.002809409 -0.088141784 -0.07932177
0000b0 d6 04 f3 bc 0c 94 ce bd 1d 71 62 3c d0 a7 9f bd
       -0.029665392 -0.100868315 0.013820914 -0.077956796
0000c0 00 b4 b5 bc 6d 88 73 3d 4c 16 c2 bd 56 ba 0c 3d
       -0.022180557 0.059456278 -0.09476909 0.03435739
0000d0 65 f4 4d bc 99 a9 87 3d e9 41 b6 bc 22 d1 ae ba
       -0.012570475 0.06624145 -0.022248225 -0.0013337473
0000e0 e7 b6 b3 bd ac 52 6a bb f1 61 2d bd 56 72 a0 bc
       -0.0877512 -0.0035754843 -0.042329732 -0.01958577
0000f0 0c 8a 0e bd 66 07 48 3a 73 78 0e 3e dc 28 ae bd
       -0.03479962 0.0007630497 0.13913135 -0.08503887

encoder.4.weight f4 [12, 64]
000000 62 74 c9 bd 4e 9f d7 3d 3b 72 d5 3c 62 97 32 3e
       -0.098366514 0.10528432 0.026055446 0.1744056
000010 3c 9e 60 bd d2 d6 e2 3d cb d9 c9 bc c6 4e a5 3c
       -0.054838404 0.1107613 -0.024639985 0.020179164
000020 98 28 ab 3d 2b 5c 49 3e d8 94 97 bc 38 69 28 3d
       0.08357352 0.19664066 -0.018503591 0.04111597
000030 44 bd e5 3d 3b ea ba bd f2 b0 78 bc ca c4 f4 3d
       0.1121774 -0.09126707 -0.015178906 0.11951597
000040 2e b9 b3 3d 98 97 47 bd 8b ad 04 bd e2 e3 6b 3d
       0.087755546 -0.048728555 -0.032392066 0.057590373
000050 e4 cd 50 bd 72 3e 48 be be bf e5 3c aa 99 eb 3d
       -0.050977603 -0.19555071 0.028045531 0.115039185
000060 c8 0a bc bc c6 8e 93 3d ab 5c 45 3b 6c e1 34 bd
       -0.02295436 0.07204966 0.003011505 -0.04416029
000070 a1 32 02 3e 61 ae be 3d 9d 0a a9 3d e8 87 a8 3c
       0.12714626 0.09310604 0.082539774 0.020572618
000080 73 10 b4 bd f0 e6 8d 3d d0 fc 62 bd 09 e1 36 be
       -0.087922 0.069288135 -0.055416882 -0.17859282
000090 01 96 56 bd 1b 2a a0 be d0 ee 77 bc 8a 73 b6 bc
       -0.05238915 -0.31282124 -0.015132621 -0.02227189
0000a0 2f 14 cd 3d 30 fa 9d 3c 98 97 06 3d 22 4a cb 3c
       0.10013615 0.019284338 0.032859415 0.024815623
0000b0 00 09 0d bc fc 9b ee bc 0e 4a c5 bd c8 3b cf bd
       -0.008608103 -0.029127114 -0.096332654 -0.10118824
0000c0 c2 c8 62 be 52 2c 00 3e d8 0c 2f 3d be df e6 3c
       -0.22146896 0.12516907 0.042736858 0.02818286
0000d0 66 01 92 bd 5b 6c 41 be 6a f3 2b bd 64 61 6e 3d
       -0.07129173 -0.1888899 -0.041980185 0.058198348
0000e0 f4 ef 7e bd 52 ff e5 3d dd b4 ae 3d d4 47 ed 3d
       -0.062240556 0.11230339 0.08530591 0.11585966
0000f0 be 0f 83 bd de b5 73 3d 10 10 cd 3d 22 72 c9 3d
       -0.06399487 0.059499614 0.10012829 0.09836222
000100 3e 82 08 3e bf 55 2e 3d 11 51 d6 3d 1a 57 72 3d
       0.13330933 0.042562243 0.10464681 0.059165098
000110 7b bb dd 3d 83 ba 01 be cf d2 09 3d e9 67 20 bb
       0.10826775 -0.12668805 0.03364831 -0.0024475998
000120 f2 34 da bd b1 fa 6c bd 67 07 2a 3d 54 c0 49 3d
       -0.1065463 -0.057856265 0.041510966 0.049255684
000130 46 2a 1a bc 25 4a 9e 3d dc 23 a8 3d 34 09 e6 bd
       -0.009409493 0.07728986 0.08209965 -0.11232224
000140 18 8b 69 bd cb 6c 41 3d cc 82 ec bc 59 23 5b bd
       -0.057017416 0.047222894 -0.028870963 -0.053500507
000150 74 36 10 3d a5 25 cf 3d c2 ec 99 bd a5 61 a9 3b
       0.03520818 0.10114602 -0.07515861 0.005169111
000160 9b 66 27 3c e5 0f a8 bd 3b be 6b 3d 9a 09 83 3c
       0.010217334 -0.08206157 0.057554465 0.01599579
000170 8e 57 6d 3c 3f b5 65 3d 70 a2 80 3d 08 b5 de bd
       0.014486207 0.056081053 0.062809825 -0.10874373
000180 98 89 db bc d1 b5 b1 3d 83 15 12 3c c1 4c 1e 3c
       -0.026799008 0.08677257 0.008916262 0.009661854
000190 2e 72 ff bd 03 a2 b6 3d 16 82 01 be 38 be 5e bc
       -0.1247295 0.0891762 -0.1264728 -0.013595156
0001a0 76 8a ce 3c 37 d4 39 bd 92 fd 9c bd 5a 66 55 bd
       0.025212508 -0.0453684 -0.07665552 -0.052099563
0001b0 36 e8 8f 3b 5b d0 ec 3d e1 17 80 bd 3a 43 ba bd
       0.0043916954 0.11563178 -0.062545545 -0.09094854
0001c0 18 e6 da 3d f8 a4 32 bd 18 62 ad 3d 9b 75 63 3c
       0.10688418 -0.043614358 0.084659755 0.01388302
0001d0 ea 14 99 bd 0a c6 dc bb 2d 65 3e 3d 51 e6 56 3d
       -0.07474692 -0.0067374753 0.046483207 0.05246574
0001e0 36 45 de 3d f3 72 50 bd 8d 24 a6 bd 8a 84 0c 3d
       0.10853045 -0.050890874 -0.0811244 0.034306087
0001f0 a1 7a 73 3d 6f c4 25 bd 07 c8 06 be c6 6d 1f bd
       0.05944312 -0.040470537 -0.13162242 -0.038923047
000200 88 94 e9 3c 82 91 86 bd 08 e6 9e 3d f6 69 2b 3d
       0.028513208 -0.06570722 0.07758719 0.0418491
000210 70 97 5a bc e5 c3 89 bd 2c ad 03 3d 98 1e 2e bd
       -0.01334177 -0.06726817 0.03214757 -0.042509645
000220 ac 43 6f bd 13 14 ec 3d 0c 48 c9 3d e8 a4 85 3c
       -0.058414146 0.11527266 0.09828195 0.016313985
000230 02 65 88 bd 4e ca 76 bd 1e 4f 87 3d d2 06 21 bd
       -0.06659891 -0.060251527 0.06606887 -0.039313145
000240 2c 0e 97 bd 6a 07 ff 3d 70 c1 ac bd b2 32 85 3d
       -0.0737575 0.12452586 -0.08435333 0.0650381
000250 80 c0 e3 ba d8 ca bd 3d 80 90 f9 3a 1e ca db bd
       -0.0017376095 0.09267205 0.0019040257 -0.1073191
000260 26 58 d1 bd 33 ed 30 3d a0 0d 1f bd 68 52 f1 bc
       -0.10221891 0.04319496 -0.038831353 -0.02945824
000270 1c 1d e5 bd f2 0b cf bd 2c bc ad bd b0 c6 1c bc
       -0.11187193 -0.101097 -0.084831566 -0.009568855
000280 a4 d8 25 3d 92 1e e1 3d 88 5f bc 3d b6 57 90 3d
       0.040489808 0.10992159 0.09197909 0.070479795
000290 09 c3 cf bd f2 a6 36 3d 2c 93 2e bd 64 a0 29 bd
       -0.10144622 0.044592805 -0.042620823 -0.041412726
0002a0 cc 12 c3 bc 98 0e 85 bc 58 29 7b bd 70 3a 46 3d
       -0.023812674 -0.01624231 -0.061318725 0.048395574
0002b0 d2 78 92 bd 60 dc a0 3b 6c bf 00 3d be 44 e5 bd
       -0.07151951 0.0049090832 0.031432554 -0.11194752
0002c0 18 05 1e bd d5 5f 05 be 08 5e ae 3c ba 72 6b bd
       -0.038579077 -0.13024838 0.021285072 -0.05748246
0002d0 3a 66 f7 3d 64 f9 c6 bc 56 ce c3 3d 40 98 c5 3c
       0.12080045 -0.02428884 0.0956084 0.02412045
0002e0 64 d7 80 3d 9e 62 93 3d 04 1f bc bd 50 e0 ea 3c
       0.062910825 0.07196544 -0.09185603 0.028671414
0002f0 cc 4c b3 3d a0 7f 98 bd 00 6d 85 3d 54 e3 89 3d
       0.08754882 -0.074462175 0.06514931 0.067328125
000300 50 3a bc 3d c0 e3 18 3b 64 50 4e 3b e4 a5 ad bd
       0.0919081 0.002332911 0.0031481022 -0.08478907
000310 16 1f c2 bc 7a 26 ac bd 2b 26 cd bd 02 7a 9d bd
       -0.023696464 -0.08405776 -0.100170456 -0.07689287
000320 ab 7d 4b bd ee 44 1c bc 2d 86 6b 3d 02 84 bf 3d
       -0.049680393 -0.0095379185 0.057501007 0.0935135
000330 5a 1f e3 3c 88 9b 2c 3e 47 59 c4 3d d3 d4 d6 bc
       0.02772491 0.16856205 0.09587341 -0.02622453
000340 5c 2f b2 3b 00 f9 27 bb ed 7b 30 bc ba f1 f8 bb
       0.0054377746 -0.0025630593 -0.010771734 -0.0075971754
000350 08 ea d2 3c 00 b0 38 3e f8 10 dd 3b f6 7e 6a 3c
       0.02574636 0.18035889 0.0067464076 0.014312496
000360 98 5f 59 bd 7c d2 22 3e 62 e2 70 3d 9c 0a 42 3d
       -0.05306968 0.15900606 0.058809645 0.0473734
000370 2c c8 93 3d 5a 7e 9e 3c 4f aa 9e 3c 14 96 f3 3d
       0.07215914 0.019347358 0.019368319 0.118938595
000380 68 5f 12 3d 68 c1 ec bd 68 5a 35 3e a8 dd 96 bb
       0.035735518 -0.11560327 0.17710268 -0.00460406
000390 6d 92 28 3e 7e ef e3 3d 7c 2b 44 3d d0 65 ac bc
       0.16462107 0.11129664 0.047893032 -0.021044642
0003a0 f0 22 a5 3c 7c 12 05 3d 78 c5 bf bd b4 6b e8 bd
       0.020158261 0.03248833 -0.09363836 -0.11348668
0003b0 80 7e ae ba 80 15 93 3a 08 50 38 bd 08 34 dd 3d
       -0.0013312846 0.0011221617 -0.0449982 0.1080094
0003c0 88 83 2e 3e 7b 20 bb bd 0c fc 5d bd ee 43 94 3d
       0.17042363 -0.091370545 -0.05419545 0.07239519
0003d0 bf 8d 0d 3d 09 48 30 3e 70 08 a8 3c f2 38 90 bb
       0.034559008 0.17214979 0.020511836 -0.0044013197
0003e0 f4 ea 42 bd b4 8f d3 3d 3a 84 ed 3b 5c b9 62 3d
       -0.04758735 0.103301436 0.0072484287 0.055352554
0003f0 c0 b2 4e 3c 04 d2 db bd 61 72 f1 3d 24 98 52 bd
       0.0126158595 -0.10733417 0.11789394 -0.051414624

encoder.4.bias f4 [12]
000000 ff 0d c0 bc 3c bd 85 3c f1 7f f9 bd 99 73 f3 bc
       -0.023444174 0.016325586 -0.12182606 -0.029718207
000010 1a 33 26 3c ee 88 92 3c 7a c2 c9 bc 06 db 77 3d
       0.0101440195 0.017887559 -0.024628866 0.06051161
000020 f4 06 07 3e ec 0b 87 bd ee 4e b8 3c f5 a9 e0 bb
       0.13186246 -0.06594071 0.022498574 -0.006856198

encoder.6.weight f4 [3, 12]
000000 7c 34 a2 be ae ef 71 3e 73 a8 21 3c a9 4f d3 3d
       -0.31680667 0.23626587 0.009866822 0.10317928
000010 7b b5 47 bc 5f 2d d9 3c e9 f8 12 be 3c a6 81 3e
       -0.012189264 0.026510892 -0.14352764 0.2532214
000020 b0 15 ec bc cc c3 45 be 62 fc 19 3e c7 30 3b be
       -0.028818935 -0.19312972 0.15037683 -0.18280326
000030 69 0b a9 be a9 3c 40 be 6d c1 12 be f2 7f a2 3d
       -0.33016518 -0.1877314 -0.14331599 0.0793456
000040 49 20 e0 bd 16 16 b4 3e 67 28 71 be dc 1a 92 be
       -0.10943658 0.351731 -0.23550569 -0.28536117
000050 48 b3 fc bd 74 8d 58 3e 13 e3 ac bc a1 fb 25 be
       -0.12338883 0.2114771 -0.021104371 -0.1620927
000060 44 49 9d bb 3a bc 5e be d6 b6 70 3e 5d 41 91 3d
       -0.0047999937 -0.2175149 0.23507246 0.07092545
000070 3f 3d 7c be f2 c6 a8 3e 2d ad 6f be 33 a9 ee bd
       -0.24632739 0.32964283 -0.23405905 -0.11653366
000080 cb 33 af 3d 4c ab 23 3e 08 41 8c be e8 4b 0d be
       0.085548006 0.15983313 -0.27393365 -0.13798487

encoder.6.bias f4 [3]
000000 9f ab 04 3d c3 a2 93 be 2d de ad bd
       0.032390233 -0.28835115 -0.08489642

decoder.0.weight f4 [12, 3]
000000 c1 11 bd 3e 65 ff c6 3d 15 28 78 3e d0 8f 5a be
       0.36927608 0.097166814 0.2423404 -0.21343923
000010 9e c4 8d be f7 51 1a 3f 2d b5 16 bf 8a 3e be 3e
       -0.2768907 0.6028132 -0.588702 0.3715709
000020 f5 ff 2d 3f ee 51 a1 be c4 5e a8 3e aa 3e 4d 3e
       0.67968684 -0.3150782 0.328848 0.20043436
000030 71 d6 9b 3e fb 55 aa 3e e5 a9 ad 3e 87 d1 53 be
       0.30437043 0.33268723 0.33918682 -0.20685397
000040 36 f2 0d bf 4f d5 b8 be 27 9b db be 2f 47 d4 be
       -0.5544771 -0.36100242 -0.4289181 -0.4146056
000050 45 f8 a5 3e 3e 4f b4 3e c0 20 03 3d f6 ce 7a be
       0.32415977 0.35216707 0.032013655 -0.24493012
000060 6d 30 09 bf 91 fd 20 3e ff 24 ee be 1b 53 d8 be
       -0.53589517 0.15721728 -0.465126 -0.42250904
000070 22 59 76 be 59 dc f4 3e d4 53 dd 3e 56 ef 1a 3e
       -0.24057439 0.47824362 0.43228018 0.15130362
000080 25 c9 c2 3d 30 d9 24 bd 0b 36 f8 be 65 c0 b9 be
       0.095110215 -0.04024619 -0.48478732 -0.36279598

decoder.0.bias f4 [12]
000000 94 70 74 3e a6 b8 ea be be 06 89 be 20 65 c5 3e
       0.2387107 -0.45844 -0.26762956 0.38553715
000010 45 29 07 3e 23 cf 9f 3e d8 22 19 3f 1a e1 3f be
       0.13199337 0.3121272 0.5981879 -0.18738213
000020 bf 5b dc 3e e1 2c b8 3d 25 97 03 3f 9d 37 ee be
       0.43038747 0.08992935 0.51402503 -0.46526805

decoder.2.weight f4 [64, 12]
000000 cd 96 6e bd 22 80 9d bd b2 d8 6d 3e 83 55 94 be
       -0.058249284 -0.07690455 0.23227194 -0.2897149
000010 cb 82 35 3e e5 22 80 3e 5c 6d a1 3c d0 2a 62 3e
       0.17725675 0.25026622 0.019705467 0.22086644
000020 5c c3 5f 3e aa fb 8c 3d a5 8e 35 be 2d 48 87 3e
       0.21851867 0.068839386 -0.17730196 0.26422253
000030 b7 60 3f 3e fc ad dc 3d 35 c7 81 bd 22 df ab be
       0.18689238 0.107753724 -0.06336824 -0.33568674
000040 20 80 9b be 46 91 94 3e c3 01 8b bd 60 3d 6f 3d
       -0.3037119 0.29017085 -0.067874454 0.05840814
000050 22 15 46 3e d1 6c 4a 3e 5d f9 03 bd 30 f9 0d be
       0.19343999 0.19768073 -0.032220233 -0.13864589
000060 82 1d 82 3e a5 0a 67 bd c9 91 89 bd 53 e7 89 3e
       0.25413138 -0.056406636 -0.067172594 0.269343
000070 b8 5d 1a be ba 0d d4 3d 0a 29 88 3d de 94 02 3e
       -0.15074813 0.10354181 0.066484526 0.12752101
000080 9b f8 e8 bd 1e d8 30 be 34 4c 3e be b0 45 a7 3d
       -0.11375543 -0.17269942 -0.18583757 0.08167589
000090 26 3e 1e be 3a b6 9a 3e 57 a7 8f 3d 06 80 d4 be
       -0.15453395 0.30217153 0.070143394 -0.41503924
0000a0 05 0c 77 bc 5c 5f 1f 3e 84 ff 49 3d 00 1a 98 bd
       -0.015078549 0.1556372 0.049315944 -0.07426834
0000b0 e6 50 14 3e 38 57 13 be 29 2e 58 be 72 f0 92 3d
       0.14483985 -0.1438874 -0.21111359 0.071747676
0000c0 4f e5 73 be bc be 74 be 74 0f 67 3e 80 e1 6a 3c
       -0.23817943 -0.23900884 0.22564489 0.01433599
0000d0 17 50 88 be 30 2e ff bc c0 94 e2 3c 68 a6 4b 3d
       -0.26623604 -0.031149954 0.02765882 0.049719244
0000e0 14 9f 59 be 56 f3 e8 bd a4 db 2e be 6a 49 55 be
       -0.2125209 -0.11374538 -0.17075974 -0.20828786
0000f0 d2 87 b7 bd 67 62 bf 3d e9 f0 89 3d 28 5f da bd
       -0.089614525 0.09344941 0.06735403 -0.10662681
000100 4b b0 e0 bc 64 0a 9c 3e c9 83 20 3d 54 ee 82 3d
       -0.027427813 0.30476677 0.03918818 0.06393114
000110 45 33 25 be 82 cd 41 3d 66 f9 86 be d8 3b d2 bb
       -0.16132839 0.04731513 -0.2636215 -0.0064158253
000120 3c a9 e2 3d 5c 43 7e 3d 89 c3 b2 3c 2d 32 3a ba
       0.11067435 0.062075958 0.021821754 -0.00071028137
000130 0b d7 7d be 68 53 8d 3e 18 b5 fd bd f8 ae c1 3d
       -0.24789064 0.27602696 -0.123880565 0.09457201
000140 67 30 1a 3e 5e c4 97 bd 75 24 fb 3d 84 9b 63 3d
       0.15057527 -0.07410501 0.12262813 0.055568233
000150 65 03 19 3e f5 bd ed 3d 68 bb c2 be 31 c7 84 3e
       0.14942701 0.11608497 -0.38033605 0.2593322
000160 7a 5a 4d be 28 59 82 bd 49 a6 54 3e 78 07 1e 3d
       -0.20054045 -0.063646615 0.20766558 0.03858134
000170 cb 06 69 bb fa 2f 19 3e 7f ba 0d be f0 5d d1 3d
       -0.0035557027 0.14959708 -0.13840674 0.10222995
000180 84 29 1f bd 5c bf 5f bd a4 d1 85 be 17 89 78 be
       -0.03885795 -0.054625854 -0.26136506 -0.24271046
000190 09 96 8e be 50 1b ba bc c6 06 32 be 08 50 ed 3d
       -0.27848843 -0.022718102 -0.17385396 0.115875304
0001a0 d0 20 7f be 47 f1 6d be 2c 7e ff bd 30 d9 1b bd
       -0.2491486 -0.23236571 -0.12475237 -0.038048923
0001b0 1f 66 fd 3d 59 ae 27 3e 01 5e 90 3d be 31 2a 3e
       0.12372994 0.16375102 0.0704918 0.16620538
0001c0 23 38 0d 3e c7 84 bd bd 64 0e 72 3e f8 d0 41 be
       0.13790946 -0.09253841 0.23638302 -0.18927372
0001d0 b2 68 80 3e 9d 9e 90 3e 90 aa 39 bd c6 0d 92 be
       0.25079876 0.28246012 -0.045328677 -0.28526133
0001e0 78 34 eb 3d 04 f5 8c be 30 6f b2 3c b0 65 0a bd
       0.11484617 -0.27530682 0.021781534 -0.033788383
0001f0 38 aa 8b bd 68 c6 3f bd 00 c5 0a 3c 94 0a 5f be
       -0.06819576 -0.046820074 0.00846982 -0.21781379
000200 a4 8d 6c 3e 5e 49 91 be 12 ad 65 be 2e 22 7a be
       0.23100907 -0.28376287 -0.22429302 -0.24427101
000210 a5 65 74 be f6 f9 b1 bd 0d 96 bc be b0 52 4b 3e
       -0.238669 -0.086902544 -0.3683323 0.19855762
000220 8b 9b 69 bd 57 3a 71 3e d6 7c ca 3d 0c 1e 47 be
       -0.057033103 0.23557411 0.09887092 -0.19445056
000230 06 5f df bd ae 7e 86 3e 10 0b 0a 3e 22 10 99 be
       -0.10906796 0.26268524 0.13480783 -0.2989512
000240 70 7a 89 bd 54 fe 26 be e5 0c 04 bc 5f fb 51 be
       -0.06712806 -0.16307956 -0.008059715 -0.20506047
000250 6b f9 ab be 1b b4 92 3e d2 b3 47 3e c0 c4 5e 3c
       -0.33588728 0.28653035 0.1950219 0.013596714
000260 67 d0 91 be fd 48 10 3e ab c0 2f 3d 93 21 d2 3e
       -0.2847931 0.14090343 0.042908352 0.4104124
000270 c6 db c8 bd c6 b4 d6 bd 80 9e 7f 3d b6 b2 1e 3e
       -0.098075435 -0.104836985 0.062407017 0.1549786
000280 51 e6 3b be d5 65 91 3e cb 4d 84 3d b8 cf 21 be
       -0.18349577 0.28398004 0.0646015 -0.15801895
000290 42 89 73 3e c9 ed ea 3c 50 90 a4 bc 42 e3 28 3e
       0.23782828 0.028677838 -0.020088345 0.16492942
0002a0 c4 83 a3 3e 23 e8 19 be 06 18 16 bc 1c 97 56 3e
       0.31936467 -0.1502996 -0.009161001 0.20956081
0002b0 99 0a f0 3d d5 ed 51 be 03 fe 4f 3e 9c 18 cf 3d
       0.11720771 -0.20500882 0.20311742 0.10112116
0002c0 e3 73 94 bd cb c6 38 3e 56 b5 12 3e f0 bd 6d be
       -0.07248666 0.18044583 0.14326987 -0.23216987
0002d0 97 ee 80 3e 0f a8 1d 3d 53 6c 89 be e0 2a 6b be
       0.2518203 0.03849035 -0.26840457 -0.22965574
0002e0 99 e8 ea bc d8 76 e7 bd 53 2f 75 3e d8 b9 cd 3d
       -0.028675364 -0.113019645 0.23943834 0.100452125
0002f0 a3 94 b5 3e 1b 42 32 be 4d 54 3d 3d ea ca e5 3e
       0.35464963 -0.1740803 0.046222974 0.44881374
000300 70 4a 37 3d 39 0f 1c be c8 64 0a be 1c 3f 52 3e
       0.044748724 -0.15240182 -0.13515007 0.20531887
000310 42 cc 93 be 38 09 75 3e 80 5c 0a bc e0 a6 38 3e
       -0.28866774 0.23929298 -0.008444905 0.18032408
000320 fc 47 c0 bd cd 22 85 be 00 15 e1 3d 9e d4 b7 bd
       -0.0938873 -0.26003113 0.109903336 -0.089761004
000330 59 54 15 3d c1 b0 34 3e 39 5a 91 3e a8 39 5f be
       0.036457393 0.17645551 0.28389147 -0.21799338
000340 cf 04 a4 3e e6 ae 4e bd 6d c2 31 bd e0 fc fa bc
       0.3203492 -0.050459765 -0.04339831 -0.030638158
000350 d2 af 9b be 1b 93 82 3e 6c 5f a0 3c ab 30 9e 3d
       -0.30407578 0.25502858 0.01957675 0.077241264
000360 dd fe 44 3e 98 e4 06 be 51 b5 0c be 8c b5 01 3e
       0.19237848 -0.13173139 -0.13741042 0.12666911
000370 6c 1e 92 bc db 23 7d 3e 05 8e 19 3e ac 34 bc 3d
       -0.017836772 0.24720709 0.14995582 0.09189734
000380 5f ea ed 3d 97 80 c7 3d 52 52 53 3e 23 db 77 3e
       0.11616968 0.097413234 0.20636871 0.24204688
000390 48 38 29 3e 26 fc 2b 3e fb df 39 be 34 6e 8e 3d
       0.16525376 0.16795406 -0.18151848 0.06954613
0003a0 fd a3 a4 bd 7e 84 2f 3e 10 34 5f be a2 d2 42 3e
       -0.08039091 0.17140386 -0.21797204 0.19025663
0003b0 88 5d 89 3e f1 03 9e 3e a1 29 4d 3e cd ec 9f bc
       0.2682917 0.30862382 0.20035411 -0.019522095
0003c0 c0 b7 a5 3d d4 82 fb 3d a7 77 ea bc d9 ca 6a 3e
       0.08091688 0.12280813 -0.028621508 0.22928943
0003d0 5a a5 78 3e f9 4c e9 bd d0 16 94 bd 00 b7 77 3d
       0.24281827 -0.113916345 -0.07230914 0.060477257
0003e0 11 4f 29 be 40 55 84 3d 3c 9d 97 3e 46 6d 00 3e
       -0.16534068 0.06461573 0.29612148 0.12541685
0003f0 1c c7 51 3e fc 3c 68 be d8 82 10 3e 2e 4b 55 be
       0.2048611 -0.22679514 0.14112413 -0.2082946

decoder.2.bias f4 [64]
000000 ef ee 76 be 03 8f be bd e5 11 95 3e 84 60 67 be
       -0.24114583 -0.09304621 0.29115215 -0.22595412
000010 d6 77 7b be 5c bb 01 3e 27 9e 54 3e aa 5d ef 3d
       -0.24557433 0.12669128 0.20763455 0.11687787
000020 0d a6 26 be 41 fc 0f 3d 9a da 41 be c5 3a a8 3e
       -0.16274281 0.035152677 -0.18931046 0.32857338
000030 05 13 a3 be d4 a7 9c 3d 31 2b 97 3e c8 72 cb bc
       -0.31850448 0.07649198 0.2952514 -0.024835005
000040 99 9b 41 be 8e 52 0e bd 7b 48 30 bd 02 5d 84 3e
       -0.18907012 -0.0347467 -0.043037873 0.2585221
000050 7f 2a 9a 3e 94 18 33 bd e2 1f 92 3e 38 10 5f 3e
       0.30110547 -0.04372461 0.2853995 0.2178353
000060 d6 3e 62 3e dd dc 8d be fb 0b 90 3e e0 42 ba bc
       0.22094283 -0.27707568 0.2813414 -0.022736967
000070 af 6a 8b 3d 25 a5 34 3e c9 30 7d 3e 17 b3 65 3e
       0.06807458 0.17641123 0.24725641 0.22431599
000080 5c b2 2a 3e b2 8a 1d 3d 93 12 90 3e 49 d5 8f 3e
       0.16669601 0.03846235 0.2813917 0.2809241
000090 ac b7 19 be 87 5c 7a 3e c3 f8 45 be dd a4 9c 3b
       -0.15011472 0.24449359 -0.19333176 0.0047803954
0000a0 c9 6b 92 be 9f 31 a4 be 07 d4 b5 be 58 3f f0 bd
       -0.2859786 -0.32069108 -0.35513327 -0.11730832
0000b0 99 0a d0 39 49 9b e9 bd 1c 05 db bc 46 07 24 3e
       0.00039680747 -0.114065714 -0.026735835 0.160184
0000c0 80 46 2c 3e fa 0d a3 3e ea e7 a8 3e 5e 24 9a bc
       0.16823769 0.318466 0.32989436 -0.01881617
0000d0 0c a6 65 3e 57 61 52 bd e4 49 8c be 20 f5 59 be
       0.22426623 -0.05136236 -0.27400124 -0.21284914
0000e0 c5 61 ab 3e 67 8e 10 be 9c ba c4 3d e0 c9 bd be
       0.3347303 -0.14116822 0.096059054 -0.3706808
0000f0 a3 8a 3d 3e 63 7d 58 be f0 e2 b1 3e 90 27 38 3e
       0.18509917 -0.21141581 0.34743452 0.17983842

decoder.4.weight f4 [128, 64]
000000 82 d5 cf bd a0 c7 0c bd 8c ab fb bd 7a c3 b5 3d
       -0.10148145 -0.034370065 -0.12288579 0.08875175
000010 88 07 ef bd 24 c0 44 bd 70 62 cf bd 00 a7 f3 3a
       -0.11671358 -0.048034802 -0.10126197 0.0018589199
000020 00 66 14 3a 00 ca e0 ba 40 db 45 3d b8 c2 af bd
       0.0005660951 -0.0017150044 0.048304796 -0.085820615
000030 ec 4f 7f bd 18 dd 9e bd 64 ec b2 bd b8 02 a3 bc
       -0.06233208 -0.07757014 -0.08736494 -0.019898757
000040 cc b5 97 bd 18 5d 9a 3d a0 9c 8f bc b8 bd c2 3d
       -0.07407722 0.075372875 -0.01753074 0.09508842
000050 00 73 bf bb 7e b4 a1 bd 1e 02 93 bd c0 36 04 3c
       -0.0058425665 -0.07895754 -0.07178138 0.008069694
000060 10 5d 5e 3c e4 d4 e6 3d 50 54 c6 bc fc e2 e2 bd
       0.0135719925 0.112710744 -0.024210125 -0.1107845
000070 24 cf 1b bd 30 84 fe 3c 48 4d 3a 3d 14 bd c6 bd
       -0.03803934 0.031068891 0.045483857 -0.097040325
000080 0e 04 91 bd f0 93 2d 3c 8e a5 c2 bd 34 db b9 bd
       -0.070808515 0.010594353 -0.09504233 -0.09075013
000090 a8 d5 8f bc e4 29 8a bd d4 30 07 3d b0 eb a0 bd
       -0.017557934 -0.06746271 0.03300555 -0.07857454
0000a0 70 6a c2 bc 88 b7 0f 3d c8 43 f2 bd c4 0b 33 bd
       -0.023732394 0.03508714 -0.118293345 -0.043712392
0000b0 54 f7 4c bd b6 8d a1 bd b8 91 6c 3d 00 2a ee 3b
       -0.050040558 -0.07888357 0.057756156 0.0072681904
0000c0 44 6c 2d 3d 08 f6 dd bd 20 43 94 bb 08 99 e5 bc
       0.04233958 -0.10837942 -0.0045246035 -0.028027073
0000d0 60 15 fd 3c 60 0a 90 bc 24 cb 98 bd 98 df f0 bd
       0.030893981 -0.017583072 -0.07460621 -0.11761397
0000e0 88 9c c7 bd 28 0b aa 3d 78 62 b7 bd f8 df e9 bc
       -0.09746653 0.08302909 -0.08954328 -0.02854918
0000f0 3c 67 80 3d 5c 63 6a 3d b0 44 79 bc 04 12 8d bd
       0.062696904 0.057223663 -0.01521413 -0.06888202
000100 49 60 80 be 9b b6 f9 3c 2b b4 07 3d 9f 57 81 bd
       -0.2507346 0.03048258 0.033130806 -0.063155405
000110 b8 ab 5a bd 83 25 eb bd 66 3b 83 bd 31 29 b3 3b
       -0.05338642 -0.11481764 -0.06407814 0.005467557
000120 7c c8 f5 3d d1 c0 1c 3e ac 56 62 3d 6d 1b f7 3d
       0.1200113 0.15307929 0.055258438 0.12065778
000130 44 77 88 be 65 0e 2b be ae ff 99 3d 87 5f 6e be
       -0.26653492 -0.1670471 0.0751947 -0.23278628
000140 b0 be 6d 3d 4a 46 0b 3e a8 c6 3d bd 72 c0 c6 bd
       0.058043182 0.13601032 -0.04633203 -0.09704675
000150 c8 1b 07 3e 22 db 9c 3d d5 23 f8 3d a7 66 aa bd
       0.13194191 0.07658984 0.121162094 -0.08320361
000160 0a ca 13 be 94 a2 d3 3d c4 e2 ea 3d e0 ff 46 bc
       -0.1443254 0.10333744 0.11469033 -0.012145966
000170 bf e0 03 be c5 e4 24 3e 53 7f 42 3e 24 13 e3 3d
       -0.12878703 0.16102894 0.18993883 0.11087635
000180 88 10 b9 3d 4f eb 21 3d 1d b6 21 bd 5c a5 38 be
       0.09036356 0.03953105 -0.039480317 -0.1803183
000190 50 61 f2 bc b6 91 8f be d3 68 de 3d ee c7 19 bd
       -0.029587418 -0.28040856 0.108598374 -0.037544183
0001a0 6b 51 98 3d 5a a6 97 3e 42 56 26 3d 30 37 f5 3d
       0.07437404 0.29619104 0.040609606 0.11973417
0001b0 b1 dc 39 bd c7 da 96 bd f3 06 33 be 85 21 fc bd
       -0.045376483 -0.07365947 -0.1748312 -0.12311081
0001c0 46 9a 01 be e6 84 34 be 29 a5 fb bb ad 44 1b 3e
       -0.12656507 -0.17628822 -0.0076796007 0.15162916
0001d0 60 97 b4 bd 1d 72 bb 3d 00 55 b4 3a 16 3f d6 bd
       -0.08817935 0.09152625 0.0013758242 -0.104612514
0001e0 bb 07 28 3c e0 1a 17 bd 70 3c 8e 3d 71 17 dc bd
       0.010255749 -0.036890864 0.06945121 -0.107466586
0001f0 cc 1d a7 bb 77 20 c6 3d 7e 10 76 3e 7f bc 9a 3e
       -0.0050999876 0.09674161 0.24029729 0.30221936
000200 8c 02 61 bd b8 f9 7a ba 58 48 40 bd 43 44 2d bd
       -0.05493407 -0.0009573954 -0.046943992 -0.042301428
000210 16 cb ba 3d 72 33 83 bc f8 05 0a bd d8 a1 d4 3d
       0.09120767 -0.016015742 -0.0336971 0.10382432
000220 5c 4d 50 3d 6a 06 bd 3b e4 e1 90 bd 46 03 85 3c
       0.050855026 0.005768587 -0.07074335 0.016236912
000230 81 93 9c 3d 58 82 8a 3d f8 6b c1 3d c8 97 71 3d
       0.07645322 0.06763142 0.094444215 0.05898264
000240 b8 5d 9f bd 3f 4d 7b bd 83 92 d7 3d 80 42 c1 bd
       -0.07781547 -0.061352964 0.10525992 -0.09436512
000250 4e 9d c7 3d 24 cc 3e 3d 8e 20 a3 3d 2e 7b 05 be
       0.097468 0.046581402 0.07965194 -0.1303527
000260 7e 57 f6 3d 00 0a e7 3a 73 52 88 bd 32 93 a6 3d
       0.120284066 0.0017626882 -0.06656351 0.08133544
000270 f9 ff 8d 3d 80 f8 89 ba b2 3a e8 bd d1 15 c1 bd
       0.069335885 -0.0010526329 -0.1133932 -0.09427989
000280 38 f0 92 bd 43 d5 07 3d cb ab d2 bd 26 b5 fa bd
       -0.07174724 0.033162367 -0.10286673 -0.122415826
000290 e4 77 f4 bd 0e 22 d2 3c aa e1 df bd 15 17 c8 3c
       -0.1193693 0.025651004 -0.10931714 0.024425069
0002a0 26 79 cb 3d 48 e0 9d 3c 7b 33 ab bc a0 79 bf 3d
       0.099352166 0.019271985 -0.020898571 0.0934937
0002b0 4f 61 fa bd 3c c9 8f 3d e7 1e b1 3c 28 a2 61 bc
       -0.122255914 0.07020804 0.02162118 -0.013771571
0002c0 b4 70 b4 3d 51 67 39 bd 2b 14 fb 3c a8 23 ba bd
       0.08810559 -0.045264546 0.030649265 -0.09088832
0002d0 1d 61 38 bd 30 01 f1 bd 62 b6 9a 3d e0 f9 cd bb
       -0.04501449 -0.117678046 0.07554318 -0.006285891
0002e0 9a ec 97 3d 38 1a b3 bd 08 6a 34 3d af f8 1d 3d
       0.07418175 -0.08745235 0.04404643 0.03856724
0002f0 39 23 ad 3d ea c5 e0 3d e3 72 f5 bd 02 56 c5 3d
       0.08453984 0.10975249 -0.119848035 0.09635545
000300 60 5f ae bb b8 1d c3 bc 3c 9b 78 3d 18 96 a1 bc
       -0.005321428 -0.023817882 0.060694918 -0.01972489
000310 e6 f3 c0 3d cc 65 e8 3d ea 2f e8 bd 78 fa 58 bd
       0.0942152 0.11347541 -0.11337264 -0.05297324
000320 70 87 97 3c 06 69 f8 bd 0c 88 b1 bd 92 ab e0 3d
       0.018497199 -0.12129407 -0.08668527 0.109702244
000330 da c0 d2 3d c8 81 dd bc d2 9f fc bd 80 0f 03 bc
       0.1029069 -0.027039424 -0.12335171 -0.007999301
000340 dc d8 6e bd 98 5c f2 3c 10 2b 22 bc 3c 15 b5 3d
       -0.058312282 0.029585168 -0.009897962 0.08841941
000350 16 9c d4 bd 66 73 8b 3d 10 2f c4 bc 24 4c 79 3d
       -0.103813335 0.0680912 -0.023948222 0.06086363
000360 34 66 76 bd 0c 07 d7 bd 9c fa d6 bd c8 ff d8 3d
       -0.060156062 -0.10499391 -0.10497019 0.105956614
000370 f4 1e c2 bd a2 12 c8 bd 7a 44 b2 bd 40 b5 06 3d
       -0.0947856 -0.09769179 -0.08704467 0.032887697
000380 b0 f3 a8 bc d6 1c 87 bd d4 aa 7d bd bc 57 7f 3d
       -0.020624012 -0.06597297 -0.061930493 0.06233953
000390 92 74 cd 3d 7a e6 8a bd 66 93 89 3d 68 dc 85 bd
       0.10032 -0.06782241 0.06717567 -0.0653618
0003a0 7e 43 b0 bd c2 01 d0 3d ce 3c ed bd e0 84 f0 bc
       -0.08606623 0.10156585 -0.11583863 -0.029360235
0003b0 98 d6 58 bd 18 e4 18 3d c4 a7 0a 3d e6 20 c4 3d
       -0.052939028 0.037326902 0.0338514 0.095765874
0003c0 40 d1 37 3b c0 e9 98 3d 64 f8 ef bd 08 83 3a bd
       0.0028048307 0.07466459 -0.117172986 -0.045535117
0003d0 56 e1 97 bd a8 54 ff 3d 10 5d 43 bd 38 c1 1a 3d
       -0.07416026 0.12467319 -0.047696173 0.037781924
0003e0 90 d5 d0 3d e0 10 55 3c 42 d8 f1 bd 46 25 f0 bd
       0.10196984 0.013004512 -0.11808826 -0.11725859
0003f0 f2 fc ab 3d 86 01 b8 3d e2 6b f5 3d 10 1d a9 3c
       0.08397855 0.089846656 0.11983468 0.02064374

decoder.4.bias f4 [128]
000000 16 c8 99 3d 7c f1 60 bd ed 7e b4 bd a0 b7 15 bd
       0.075088665 -0.054917797 -0.08813272 -0.03655207
000010 78 a5 ea 3c e3 eb 86 3d 02 6d 3d be 09 2e 95 bc
       0.028643355 0.065879606 -0.18498614 -0.018210428
000020 cd 84 e9 3d 2d 65 a2 be bc 1c 0b 3a 7d bb f7 bc
       0.11402283 -0.31717816 0.0005306711 -0.030240769
000030 b9 b4 c4 be c2 39 0c 3d 86 48 98 bd 07 f6 2a bd
       -0.3841913 0.03423477 -0.07435708 -0.041738536
000040 98 63 48 bd cc ad 01 3e 83 8b 6f bc 55 ac 0c bd
       -0.048923105 0.12663954 -0.0146206645 -0.034344036
000050 f1 65 5f be 7c f4 8d bd 36 57 e3 bd 20 cb 32 3d
       -0.21816231 -0.06931397 -0.111006185 0.043650746
000060 0f e3 11 3e fc 03 fc 3d 98 86 de bc e4 77 32 bd
       0.14246772 0.123054475 -0.027163789 -0.043571368
000070 a0 70 31 3d 9b 14 26 3c e2 3f 00 3d 7e 82 ee 3d
       0.0433203 0.010136749 0.031310923 0.11645983
000080 fe 4e 46 3d 9f a8 df bd 66 a8 e2 3d 40 71 e6 bc
       0.048415177 -0.10920834 0.11067276 -0.028130174
000090 a3 79 90 3e 18 cd 2d 3e 9a 5a 35 3d 1c 10 4b bd
       0.282178 0.16972768 0.044275858 -0.04957591
0000a0 a6 d3 9f bd 6d 69 75 be e9 da fd bd 6e b8 c4 bd
       -0.078040406 -0.23965998 -0.123952694 -0.0960549
0000b0 74 27 e1 3d 4c de 0c 3e 94 a3 97 bd 74 6f a2 3d
       0.10993853 0.13756675 -0.07404247 0.07931414
0000c0 7c a0 27 3e e0 ab 82 3e 85 9c d8 3d 50 56 2c 3d
       0.16369814 0.25521755 0.10576729 0.0420745
0000d0 60 32 dc 3e 86 36 b9 3d 48 91 dd bd 9f 3c b0 3d
       0.43007183 0.09043603 -0.10818726 0.086053126
0000e0 c4 56 03 3d 74 2d 0f 3d 73 2c 0b bd 1e 44 16 3e
       0.032065168 0.034955457 -0.033977937 0.14674422
0000f0 3d 28 bb 3c f6 82 d6 3c 3a c5 f0 bd f6 f2 1d ba
       0.022846336 0.026185494 -0.11756368 -0.00060252787
000100 44 67 92 3e e1 52 19 3e 2a 17 0c 3e 14 c5 7e bd
       0.2859441 0.14973022 0.13680711 -0.062199667
000110 de e8 db bd 6f dc f9 3d 34 f2 65 3d c4 b1 20 3e
       -0.10737775 0.122002475 0.056139186 0.15692812
000120 e9 7e 90 ba 03 4f 3d 3e c0 61 a4 3d 4a 01 2f 3d
       -0.001102415 0.18487172 0.08026457 0.04272584
000130 b6 8b 8a 3d 5d 8b e3 3d 7f 41 ad bc 74 9e 2d 3e
       0.06764929 0.11110566 -0.021149395 0.16954976
000140 65 01 09 be 1b 37 18 3e d3 c0 14 bd a4 40 31 bd
       -0.13379438 0.14864771 -0.036316704 -0.043274537
000150 83 f9 66 3c bc de 82 bc f5 75 d2 3d 18 e9 19 3e
       0.014097574 -0.015975349 0.10276405 0.15030324
000160 d3 19 dc bd e8 47 47 3d 2a 43 eb 3d f4 66 a4 3d
       -0.10747113 0.04865256 0.1148742 0.08027449
000170 dd 6b e4 bd cc 86 f6 3d 5f cf 0d be fc 1f 0b bd
       -0.11153386 0.12037429 -0.13848637 -0.03396605
000180 d8 c5 d4 bd 77 37 20 3e 13 a5 d1 3c e1 d1 07 bc
       -0.10389298 0.15646158 0.025591409 -0.008289785
000190 b6 d8 21 3e 7e 31 d8 3d 15 12 f6 3d 5c 93 20 bd
       0.15805325 0.10556315 0.120151676 -0.039203033
0001a0 34 6f 01 3e 25 16 b3 bc 0e a8 da bb a5 29 20 3e
       0.12640077 -0.021861145 -0.0066728657 0.15640886
0001b0 61 ab ff bd ca d1 09 3e c5 3a 5a 3e 38 f5 ca 3d
       -0.1248386 0.13458934 0.21311481 0.09910053
0001c0 77 90 00 be 73 49 b7 bd cc b0 61 bd 49 f3 0f 3d
       -0.12555109 -0.08949556 -0.055100247 0.035144124
0001d0 ac a3 64 3d 2c f5 2a 3e fe 55 46 3d a8 5f 33 3c
       0.055820152 0.16695088 0.048421852 0.010948099
0001e0 bb 8b ed bd 0c 35 99 3d 58 d2 4a be 50 2e 07 be
       -0.11598917 0.07480821 -0.19806802 -0.1320126
0001f0 2c b3 66 3d 4d 1c 94 3d 1c af ce 3d 2c c3 14 3e
       0.056323215 0.072319604 0.10091993 0.14527577
