autoencoders/models/verification_classifier.pth (torch, 676146 bytes, 12 tensors)

net.0.weight f4 [32, 1, 3, 3]
-0.046539925 0.4087092 0.3171234 -0.008803424 0.36363232 0.20488788 0.08015174 -0.3056702
-0.24066037 -0.16197893 0.06963629 0.32023782 -0.036357988 0.1748011 0.372503 0.10978823
0.36225954 0.15203604 0.23448507 0.01897136 -0.45551705 0.2776883 0.47228566 0.09231843
-0.27153224 -0.056491952 0.47704038 0.5043285 0.11688853 0.19248287 0.26540637 -0.031274986
0.38853383 -0.43813622 -0.017025117 -0.2502623 0.2310762 0.016623763 0.0252836 -0.12884967
-0.28219932 -0.30248815 0.28327736 0.346409 0.43864346 -0.04095603 0.35761994 0.0049567805
0.22533219 -0.09091506 0.27950576 0.3775795 0.1241216 -0.06962165 0.49983826 0.1465936
0.16857441 -0.035307765 -0.09513345 0.11009063 -0.36176372 -0.1588519 -0.39800552 0.3205909
0.007617064 0.26001287 -0.101789124 0.39337078 0.37128064 -0.066774644 -0.13098203 -0.104454696
-0.16098775 0.21123935 0.22953302 -0.07910342 0.44260916 0.35967246 0.17289111 0.07141326
0.4102847 -0.31560975 -0.2232287 -0.17017703 0.074484915 -0.29116285 0.034488052 -0.06862426
-0.19326708 -0.0044314563 0.24471234 -0.012067341 0.178462 0.19946137 -0.021451892 0.17477728
-0.4183891 0.046366185 0.13794349 0.042037748 0.3259 -0.03034101 0.27043363 0.18953058
0.46157324 0.10662063 0.364707 0.3842846 0.47244236 0.54485214 0.12069574 -0.061603136
0.05896333 -0.04541249 -0.09030237 0.027417973 -0.4618003 0.12817009 0.30677465 -0.21048506
-0.061560996 0.19085665 -0.35363725 0.3665861 0.47896162 -0.02414855 -0.504966 -0.30645096
-0.22131135 -0.12076601 -0.10510158 0.080034666 0.28526333 0.14921352 0.467931 0.21046092
0.24958079 -0.39593717 -0.10115443 0.2772684 0.051236384 0.24739964 0.41801035 -0.044077873
-0.02900737 -0.01614547 0.104916535 0.40624297 0.135337 -0.18528707 -0.071300074 0.44181937
0.37442037 0.030665308 0.10519887 -0.31326145 -0.15846018 -0.14459647 -0.43330213 0.18569031
-0.21771236 0.2805423 -0.024726758 -0.16969804 -0.35369378 0.025387958 -0.40244544 0.004035865
-0.46097708 -0.10008152 0.19737402 0.035618883 0.35577425 0.5036822 0.01866078 0.15639044
0.15262333 -0.09023688 -0.04167106 -0.1903248 -0.27916223 -0.048057795 -0.27032885 0.008601755
-0.19353501 -0.12880826 -0.035246283 -0.206938 -0.021124244 0.3427372 -0.114197254 -0.012223593
-0.43648347 -0.40572298 -0.4903495 0.12798253 -0.14499784 0.18739116 0.1998699 0.17340095
0.28894782 0.011943529 0.45822626 0.29457244 0.007325565 0.34776384 0.1538932 -0.044166286
-0.1680771 0.22746655 -0.24278317 0.40955362 0.07571238 0.34104642 0.20351397 0.43172267
0.04587092 -0.040099196 -0.3016832 0.432048 0.10246046 0.16446427 0.41384262 0.25760016
0.019914938 -0.2513517 -0.5892265 -0.5013979 -0.012293306 0.22533762 -0.5536021 0.17697397
0.36216798 -0.19301015 -0.5689427 -0.35799965 -0.05139895 0.010897233 -0.1518289 -0.181762
0.026505152 0.25935966 0.32992738 0.43111208 0.5862912 0.058080293 0.4181562 0.37277877
0.06480488 -0.120232426 0.013513117 -0.21898185 0.009610281 0.033440012 -0.34062737 0.1474779
00000000: a6a0 3ebd 5542 d13e 005e a23e 3d3c 10bc
00000010: 042e ba3e 21ce 513e 9826 a43d ce80 9cbe
00000020: ac6f 76be cedd 25be 799d 8e3d 36f6 a33e
00000030: 1dec 14bd 0fff 323e b7b8 be3e a7d8 e03d
00000040: 157a b93e 56af 1b3e db1c 703e d369 9b3c
00000050: 8839 e9be 292d 8e3e 6dcf f13e 7211 bd3d
00000060: 4606 8bbe 1b64 67bd a33e f43e ac1b 013f
00000070: 4163 ef3d 3b1a 453e 58e3 873e 331a 00bd
00000080: e8ed c63e 6453 e0be 4278 8bbc 6122 80be
00000090: 3d9f 6c3e 8f2e 883c 8d1f cf3c 2bf1 03be
000000a0: 6e7c 90be badf 9abe bb09 913e 855c b13e
000000b0: e095 e03e 83c1 27bd f619 b73e 7d6c a23b
000000c0: 7bbd 663e ad31 babd 611b 8f3e 1a52 c13e
000000d0: 7733 fe3d cc95 8ebd cdea ff3e a21c 163e
000000e0: c59e 2c3e e09e 10bd 54d5 c2bd 3277 e13d
000000f0: 1839 b9be 13aa 22be 61c7 cbbe 7e24 a43e
00000100: 9098 f93b 6820 853e d176 d0bd e567 c93e
00000110: 7f18 be3e 25c1 88bd 2720 06be 58ec d5bd
00000120: f9d9 24be 214f 583e b40a 6b3e f900 a2bd
00000130: ab9d e23e fd26 b83e 5e0a 313e 1e41 923d
00000140: d610 d23e 9a97 a1be 1096 64be e342 2ebe
00000150: 8c8b 983d 4c13 95be 5843 0d3d e08a 8cbd
00000160: cee7 45be c035 91bb df95 7a3e 19b6 45bc
00000170: bebe 363e 9a3f 4c3e e1bb afbc d1f8 323e
00000180: 1937 d6be 78ea 3d3d 0f41 0d3e c62f 2c3d
00000190: 5ddc a63e b68d f8bc 4776 8a3e 4e14 423e
000001a0: 5453 ec3e eb5b da3d e0ba ba3e f3c0 c43e
000001b0: f7e3 f13e 6e7b 0b3f 542f f73d 9253 7cbd
000001c0: 8883 713d 7202 3abd 73f0 b8bd a89b e03c
000001d0: 1771 ecbe 053f 033e 9111 9d3e 6589 57be
000001e0: 6227 7cbd ed6f 433e f10f b5be 2cb1 bb3e
000001f0: 753a f53e 2ed3 c5bc 7445 01bf 24e7 9cbe
00000200: 719f 62be 2b54 f7bd 7f3f d7bd 37e9 a33d
00000210: 090e 923e 6ecb 183e a794 ef3e 1183 573e
00000220: 1b92 7f3e 47b8 cabe 0e2a cfbd 20f6 8d3e
00000230: 3edd 513d 5556 7d3e 7405 d63e 008b 34bd
00000240: dda0 edbc 8143 84bc 7bde d63d 14ff cf3e
00000250: c895 0a3e e5bb 3dbe c605 92bd 2636 e23e
00000260: 07b4 bf3e d035 fb3c 8172 d73d ce63 a0be
00000270: 6343 22be 1911 14be c7d9 ddbe 9a25 3e3e
00000280: fdef 5ebe 3ea3 8f3e c58f cabc 53c5 2dbe
00000290: 5a17 b5be 68fa cf3c 540d cebe 4a3f 843b
000002a0: 3005 ecbe 8af7 ccbd 6a1c 4a3e 1be5 113d
000002b0: 0b28 b63e 51f1 003f 7ede 983c d124 203e
000002c0: 4a49 1c3e 1dce b8bd 46af 2abd 81e4 42be
000002d0: 5aee 8ebe 40d8 44bd 8b68 8abe 60ee 0c3c
000002e0: 0b2e 46be 50e6 03be 685e 10bd 8ee7 53be
000002f0: c00c adbc 407b af3e 40e0 e9bd 7745 48bc
00000300: c37a dfbe ecba cfbe 170f fbbe da0d 033e
00000310: 507a 14be 78e3 3f3e b2aa 4c3e 0590 313e
00000320: f8f0 933e cbae 433c a29c ea3e 33d2 963e
00000330: 4b0b f03b 1a0e b23e 2e96 1d3e b5e7 34bd
00000340: 671c 2cbe feec 683e 279c 78be 03b1 d13e
00000350: 180f 9b3d a39d ae3e f765 503e c10a dd3e
00000360: 25e3 3b3d 0e3f 24bd 3876 9abe 6535 dd3e
00000370: cad6 d13d 5269 283e 2ee3 d33e 2be4 833e
00000380: a724 a33c 2cb1 80be 8cd7 16bf 9d5b 00bf
00000390: dd69 49bc e8be 663e deb8 0dbf aa38 353e
000003a0: 156e b93e 74a4 45be 3ba6 11bf bb4b b7be
000003b0: b587 52bd 4f8a 323c 0979 1bbe d11f 3abe
000003c0: 5521 d93c caca 843e 3eec a83e b9ba dc3e
000003d0: 2e17 163f 9ae5 6d3d 9218 d63e dcdc be3e
000003e0: 6cb8 843d 6b3c f6bd 1f66 5d3c c73c 60be
000003f0: 7174 1d3c 65f8 083d b666 aebe 7204 173e

net.0.bias f4 [32]
0.2990142 -0.060188457 0.34645462 -0.14275283 0.31724256 0.08830594 0.14592403 0.016196564
0.0061027613 -0.2382971 0.011327002 -0.07636804 0.062406227 0.0022134767 0.26993504 0.20329623
-0.00051874144 0.38396972 0.3488109 0.25795743 -0.14780924 0.31299305 0.02699427 0.017914375
0.17961405 0.00040867 0.30928096 -0.034623463 0.20125519 -0.1541102 -0.16021328 0.017199041
00000000: 6418 993e 2c88 76bd 8062 b13e cc2d 12be
00000010: 9e6d a23e bfd9 b43d 1c6d 153e a8ae 843c
00000020: acf9 c73b 2804 74be e494 393c d966 9cbd
00000030: ac9d 7f3d fa0f 113b ed34 8a3e e32c 503e
00000040: 26fc 07ba ae97 c43e 5897 b23e ff12 843e
00000050: 4e5b 17be a040 a03e 1623 dd3c 2bc1 923c
00000060: bfec 373e c242 d639 135a 9e3e 55d1 0dbd
00000070: d715 4e3e 10cf 1dbe f30e 24be 01e5 8c3c

net.2.weight f4 [64, 32, 3, 3]
-0.022328032 -0.051025417 -0.013709618 0.017904697 -0.033003043 0.037736207 0.012692502 -0.04494869
0.014295068 -0.1902276 -0.1011012 0.010940211 0.009193856 0.055850893 0.09736238 0.10320293
0.14179786 0.13326329 0.057641413 0.025171088 0.021963201 0.04303433 0.09189505 0.08544636
0.051317245 0.10793754 0.077230215 -0.14154495 -0.21195962 -0.21223246 -0.103160255 -0.24192329
-0.048689947 -0.20919214 -0.20008513 -0.10812352 -0.028786585 -0.01042365 -0.020024544 -0.02006655
0.057598844 0.09778117 0.022238739 0.07843922 0.15979098 -0.14900364 -0.17356741 -0.031782415
-0.16663875 -0.08772345 0.029339807 -0.053159583 0.073564574 0.069662675 0.04067102 -0.085547715
-0.06961189 0.033383086 -0.011726064 -0.06651692 -0.07459193 -0.12349934 -0.14531404 -0.15612239
-0.18331322 -0.21122631 -0.14367647 -0.114356324 -0.025069874 -0.100265324 -0.0002370448 0.0411742
-0.15010658 -0.056516655 -0.038663752 -0.014322761 -0.010482889 0.10763376 0.018853003 0.057756234
0.07682834 -0.006076537 0.042659674 -0.045642488 0.024223607 0.011889804 0.007874798 -0.055853333
-0.05402726 -0.057399675 -0.116791144 -0.100386366 -0.098345935 -0.042626366 0.015438767 0.018809881
0.0039130747 0.00789374 0.025519924 -0.22760797 -0.069354005 -0.030586084 -0.049765922 -0.018538607
0.07816723 -0.050797008 0.13461916 0.15927479 -0.15972261 -0.21223381 -0.22707647 -0.17563398
-0.11067343 -0.19033813 -0.22476992 -0.15557359 -0.108247034 -0.222655 -0.13213217 -0.10305725
-0.1921931 -0.033067297 0.011024567 -0.04660135 -0.008053341 0.13062844 0.06719441 0.107651256
0.06624813 0.096769206 0.1162512 0.055531338 0.14976004 0.070770204 0.16857953 -0.04001205
0.05187825 -0.05427668 -0.04156125 0.011238882 0.057276968 -0.041465327 0.071368985 0.0521811
-0.22215056 -0.06639141 0.031957477 -0.12319665 -0.030637613 0.074253894 0.008002947 0.17090648
0.13478285 0.08084348 0.023892736 0.07044869 0.10338945 0.077746116 0.073964 -0.009040538
0.03493483 -0.034701616 0.110228926 0.14871605 0.035902847 0.102763526 0.018157683 0.10212474
0.08591832 0.07841283 0.018469026 -0.11686255 -0.035250496 -0.0048282556 -0.028595712 0.027641874
0.02566613 -0.04363099 0.006515408 0.059070542 -0.008997474 0.05445865 0.050549198 -0.055903826
-0.038285896 0.018254358 0.040510464 -0.023009278 -0.05314039 0.12115055 0.066722386 0.09208535
0.05267339 0.03290076 0.06563863 0.062343225 0.036266442 0.05092085 -0.18427314 -0.13368098
-0.040343985 -0.14433077 0.009340543 0.052823935 0.030736888 0.11786616 0.13632682 -0.12761067
-0.06060996 -0.009269651 -0.043724846 -0.0199963 0.13782403 0.0385649 0.095562726 0.14316657
-0.10900167 -0.07718298 0.036112472 -0.05118674 0.012276352 0.05221402 -0.041783217 0.017306568
0.149636 -0.0077035143 0.07144323 0.17084627 0.08340727 0.0896024 0.07369995 -0.0029990629
-0.048440654 0.05342709 0.086448565 0.106246755 0.14027612 0.043849055 0.055490874 0.02296138
0.060450662 0.033825584 0.12465416 -0.21767904 -0.23853777 -0.22612286 -0.31109333 -0.15705203
-0.059789214 -0.1758337 -0.08902898 -0.05330322 -0.03603604 0.0645103 0.03806016 -0.04119864
00000000: 47e9 b6bc 0700 51bd 4e9e 60bc dfac 923c
00000010: 332e 07bd 4891 1a3d 36f4 4f3c 1e1c 38bd
00000020: dc35 6a3c 06cb 42be 250e cfbd 923e 333c
00000030: d4a1 163c e8c3 643d ed65 c73d 0f5c d33d
00000040: 7533 113e 2c76 083e 6719 6c3d 9933 ce3c
00000050: 2cec b33c c444 303d 7933 bc3d 80fe ae3d
00000060: 0832 523d 5b0e dd3d e02a 9e3d 29f1 10be
00000070: f10b 59be 7753 59be af45 d3bd bdba 77be
00000080: 1c6f 47bd 7736 56be 1ee3 4cbe dd6f ddbd
00000090: d8d1 ebbc f5c7 2abc 830a a4bc 9b62 a4bc
000000a0: c4ec 6b3d 7e41 c83d 042e b63c bea4 a03d
000000b0: 3fa0 233e 6994 18be a8bb 31be 472e 02bd
000000c0: 59a3 2abe 5aa8 b3bd 095a f03c ddbd 59bd
000000d0: 06a9 963d 4eab 8e3d a896 263d a433 afbd
000000e0: ae90 8ebd b4bc 083d ad1e 40bc 063a 88bd
000000f0: a7c3 98bd 39ed fcbd 34cd 14be 8cde 1fbe
00000100: 76b6 3bbe b64b 58be ed1f 13be a633 eabd
00000110: 565f cdbc e857 cdbd 3b8f 78b9 47a6 283d
00000120: 8ab5 19be 027e 67bd e25d 1ebd 04aa 6abc
00000130: 6cc0 2bbc 176f dc3d 9d71 9a3c cd91 6c3d
00000140: 2d58 9d3d b01d c7bb e9bb 2e3d 9ef3 3abd
00000150: 9670 c63c 74cd 423c 4c05 013c 77c6 64bd
00000160: b04b 5dbd ec1b 6bbd 3230 efbd 5e97 cdbd
00000170: 9869 c9bd fc98 2ebd e2f2 7c3c 2e17 9a3c
00000180: 4039 803b bf54 013c 290f d13c 1012 69be
00000190: 7909 8ebd ab8f fabc 5ad7 4bbd 47de 97bc
000001a0: 2416 a03d 8610 50bd 9bd9 093e ee18 233e
000001b0: 538e 23be d253 59be bc86 68be 65d9 33be
000001c0: c0a8 e2bd 00e8 42be 162a 66be af4e 1fbe
000001d0: 9fb0 ddbd acff 63be a84d 07be ae0f d3bd
000001e0: 45ce 44be 9371 07bd 63a0 343c 0fe1 3ebd
000001f0: 29f2 03bc 76c3 053e 399d 893d 4378 dc3d
00000200: 19ad 873d ef2e c63d 1c15 ee3d d474 633d
00000210: b25a 193e f8ef 903d 1da0 2c3e ade3 23bd
00000220: 4a7e 543d 3951 5ebd 213c 2abd 4a23 383c
00000230: 419b 6a3d 8cd7 29bd e729 923d d9bb 553d
00000240: 707b 63be 38f8 87bd d8e5 023d 864e fcbd
00000250: bbfb fabc 6d12 983d cb1e 033c 1c02 2f3e
00000260: 8404 0a3e 4491 a53d b3ba c33c 6747 903d
00000270: d9bd d33d 5b39 9f3d 707a 973d c41e 14bc
00000280: d317 0f3d 4823 0ebd b4bf e13d 0549 183e
00000290: dd0e 133d af75 d23d 6cbf 943c c726 d13d
000002a0: f2f5 af3d e896 a03d 5b4c 973c a255 efbd
000002b0: d362 10bd 5836 9ebb 8e41 eabc 3671 e23c
000002c0: c741 d23c 69b6 32bd 347f d53b f4f3 713d
000002d0: 246a 13bc 0910 5f3d ad0c 4f3d 69fb 64bd
000002e0: acd1 1cbd 2a8a 953c 4dee 253d f47d bcbc
000002f0: bda9 59bd c81d f83d bfa5 883d 3e97 bc3d
00000300: 0dc0 573d f3c2 063d 8c6d 863d 9c5b 7f3d
00000310: 1f8c 143d 6292 503d 19b2 3cbe abe3 08be
00000320: bc3f 25bd 72cb 13be 1409 193c e95d 583d
00000330: edcb fb3c d063 f13d 4299 0b3e 5fac 02be
00000340: 2642 78bd bcdf 17bc d318 33bd 48cf a3bc
00000350: be21 0d3e 3bf6 1d3d 64b6 c33d 429a 123e
00000360: 443c dfbd 1c12 9ebd acea 133d 30a9 51bd
00000370: c122 493c 5ede 553d e124 2bbd 81c6 8d3c
00000380: 2e3a 193e c36d fcbb d450 923d 53f2 2e3e
00000390: 6ed1 aa3d 7781 b73d 00f0 963d ed8b 44bb
000003a0: b569 46bd 5dd6 5a3d f20b b13d e697 d93d
000003b0: 8ba4 0f3e 119b 333d 664a 633d 8119 bc3c
000003c0: 1d9b 773d b28c 0a3d ae4a ff3d 41e7 5ebe
000003d0: 3f43 74be c08c 67be a047 9fbe 3fd2 20be
000003e0: 89e5 74bd c00d 34be d354 b6bd 7a54 5abd
000003f0: 879a 13bd fa1d 843d f8e4 1b3d e8bf 28bd

net.2.bias f4 [64]
0.06712187 0.05123938 -0.060746443 -0.026765587 0.05602504 0.040113572 -0.012603301 -0.01991085
-0.021952238 -0.029805308 0.044370037 0.0066453577 0.046502158 -0.015192432 -0.012930917 -0.01849974
0.0054424405 0.008132676 -0.0075796107 -0.03393114 -0.030732693 0.027972188 0.014427072 -0.027620668
0.024653243 -0.004684664 -0.026948681 0.037614938 0.013446357 -0.016073694 -0.041889027 -0.06673937
-0.051830325 0.0061961366 0.002161398 0.02463438 0.019466905 0.012392129 -0.025452264 0.049007762
-0.042743742 -0.005697063 0.008306564 0.04336191 -0.031787407 -0.026673451 -0.06050666 0.031625487
-0.08023268 0.05574826 0.044404335 0.028606236 -0.0050869226 -0.04236451 -0.040976115 -0.007197292
0.038417295 0.051715944 0.00024483434 0.003324285 0.06731563 -0.044961937 0.038005173 0.022224931
00000000: 3177 893d 62e0 513d 43d1 78bd 8143 dbbc
00000010: 837a 653d 214e 243d 137e 4ebc 141c a3bc
00000020: 2ed5 b3bc 432a f4bc 5bbd 353d 4dc1 d93b
00000030: 0c79 3e3d aee9 78bc 32dc 53bc c48c 97bc
00000040: 8056 b23b ea3e 053c 625e f8bb 61fb 0abd
00000050: 21c3 fbbc ee25 e53c 875f 6c3c bd44 e2bc
00000060: 99f5 c93c cf81 99bb 7bc3 dcbc 1f12 1a3d
00000070: 1c4e 5c3c fbac 83bc d493 2bbd a7ae 88bd
00000080: 094c 54bd f608 cb3b 3ea6 0d3b 0ace c93c
00000090: 0f79 9f3c 5b08 4b3c 4481 d0bc 5dbc 483d
000000a0: 1014 2fbd 6eae babb 4118 083c 429c 313d
000000b0: 8333 02bd 4882 dabc d5d5 77bd ba89 013d
000000c0: 0851 a4bd 4a58 643d 52e1 353d a057 ea3c
000000d0: 33b0 a6bb 6986 2dbd 92d6 27bd 43d7 ebbb
000000e0: 745b 1d3d 19d4 533d 1c5d 8039 3fdc 593b
000000f0: c7dc 893d 022a 38bd 50ab 1b3d 0f11 b63c

net.6.weight f4 [64, 64, 3, 3]
0.018673226 -0.048944592 -0.110787086 0.026626043 -0.07855409 -0.14257513 0.017991131 -0.13294312
-0.15556903 -0.10855251 -0.008725795 0.02098041 -0.10594555 -0.013797498 0.07678626 -0.062496066
0.03499543 0.11336443 0.04123928 0.0156934 0.022432573 -0.008359495 0.064785324 -0.034321256
0.005556771 0.022121612 -0.004544135 0.052730564 0.005488727 -0.023547674 0.020795805 0.041838728
-0.008742957 0.045806527 -0.032872155 -0.06786044 -0.031964 0.045741946 0.041620955 -0.03147693
0.05076546 -0.019232789 -0.049749758 -0.008534265 -0.018641708 -0.045466572 -0.03687882 0.043442655
-0.10038909 -0.019820135 0.024431268 -0.044939578 0.040495314 0.1123079 0.0047166888 0.026564734
-0.045356985 -0.017821765 0.052408528 -0.0648452 0.08715051 -0.0017641179 -0.055714026 -0.0039956323
0.022226796 -0.019216817 -0.022646364 0.00816058 0.0009894933 0.037037782 0.06730124 -0.0215666
-0.023965001 0.01733609 -0.005060871 -0.04702678 -0.0069069946 -0.03120601 -0.02905297 0.07436777
0.02283498 -0.06423587 -0.07069244 -0.011295532 -0.1118374 -0.043732677 0.050051223 -0.06967285
-0.014072349 0.048159126 0.010825261 0.0570304 0.015251779 -0.036564287 0.050183687 0.016211027
0.021096801 0.05432535 -0.009898874 -0.068575166 0.0031204857 0.009198786 -0.015504822 -0.0016519239
-0.0071815746 -0.001410194 0.0050549502 0.010932358 -0.004130053 -0.026732365 -0.11006299 -0.09257427
0.00074371253 -0.0814703 0.017487831 -0.012619889 0.021551363 -0.056477062 -0.020515839 0.04327709
-0.082383856 -0.057110805 0.09163972 -0.1536254 0.0014553452 0.118981116 -0.04325263 -0.021286849
0.034904446 -0.0060215206 -0.031199796 0.050978545 -0.0010865363 0.005128946 0.05914869 0.020593328
0.03609939 -0.041728716 0.042772073 0.026577406 -0.067988336 0.026014283 0.027140494 -0.02874563
0.028026288 0.02141006 -0.01426392 0.035765443 -0.02054776 -0.06205328 0.04093543 0.05014507
0.002809538 -0.06883593 0.039588373 0.0098494515 -0.02315605 0.061298642 0.01311925 -0.057948608
-0.015239232 -0.0226888 -0.024416586 0.048034087 -0.010988171 9.255884e-06 0.059669293 -0.03155407
0.07125502 -0.027024737 -0.0319263 -0.03405841 -0.029392425 0.019812042 -0.06288044 0.05011127
-0.018129816 0.0048954445 0.0075629973 0.06447437 0.0017667502 -0.025896639 0.03790419 0.041519452
0.036198664 -0.017145462 0.011290055 0.021556156 -0.038411837 -0.00032283243 0.047851734 -0.026730377
-0.027887179 0.05427057 0.008863839 -0.004632873 0.054378144 0.0018968682 -0.099324934 -0.05292211
0.028595755 -0.15100992 -0.07614031 0.068887115 -0.17845269 -0.037991058 0.10689658 -0.021854086
0.054188576 -0.055972334 -0.0497983 -0.003137143 -0.01479074 -0.041760974 0.041347828 -0.024622208
0.046088316 -0.016622512 0.016063295 -0.032117967 0.06552733 -0.06881026 0.04200935 0.06063814
-0.012513475 -0.024462327 0.027735135 0.011779415 -0.036789928 0.07339215 -0.023697583 0.0075564706
0.05765044 0.048242822 0.011196931 0.0751288 0.0029048102 0.007888475 0.06501192 -0.0055326107
-0.010034854 0.06240146 -0.019735107 -0.038974706 0.047517817 0.024047384 -0.07820938 0.041602053
0.047729213 0.031692315 0.009738514 0.025382552 -0.051561456 0.06692322 -0.036454223 -0.031464648
00000000: 98f8 983c 207a 48bd 57e4 e2bd dc1e da3c
00000010: f7e0 a0bd 37ff 11be 2362 933c 3e22 08be
00000020: 7d4d 1fbe c750 debd a3f6 0ebc 1cdf ab3c
00000030: fbf9 d8bd e70e 62bc 1d42 9d3d e0fb 7fbd
00000040: 5e57 0f3d 9c2b e83d 85ea 283d 728f 803c
00000050: 84c4 b73c 43f6 08bc 2bae 843d 7294 0cbd
00000060: 9315 b63b 6238 b53c f8e6 94bb 01fc 573d
00000070: c7da b33b 0de7 c0bc f75b aa3c 165f 2b3d
00000080: 9f3e 0fbc a09f 3b3d f4a4 06bd 6afa 8abd
00000090: afec 02bd e85b 3b3d bc7a 2a3d f4ed 00bd
000000a0: 71ef 4f3d 158e 9dbc 67c6 4bbd 4dd3 0bbc
000000b0: 7fb6 98bc 283b 3abd 3f0e 17bd edf0 313d
000000c0: cc98 cdbd d65d a2bc 1524 c83c 9012 38bd
000000d0: 6ade 253d af01 e63d 748e 9a3b 499e d93c
000000e0: 3fc8 39bd f3fe 91bc 53aa 563d 8fcd 84bd
000000f0: f77b b23d f939 e7ba 6434 64bd cbed 82bb
00000100: f814 b63c 966c 9dbc de84 b9bc f4b3 053c
00000110: e3b1 813a eeb4 173d 3cd5 893d 70ac b0bc
00000120: 4052 c4bc 6a04 8e3c aad5 a5bb 279f 40bd
00000130: 1254 e2bb bfa3 ffbc 7f00 eebc 214e 983d
00000140: 6d10 bb3c 198e 83bd 33c7 90bd e510 39bc
00000150: 020b e5bd 0921 33bd 8302 4d3d a4b0 8ebd
00000160: b68f 66bc 8142 453d 6f5c 313c b598 693d
00000170: 99e2 793c 6fc4 15bd 698d 4d3d fdcc 843c
00000180: 33d3 ac3c 4284 5e3d e32e 22bc 2371 8cbd
00000190: 1081 4c3b 81b6 163c f007 7ebc 5e85 d8ba
000001a0: 6a53 ebbb 42d6 b8ba ffa3 a53b a21d 333c
000001b0: 6555 87bb d5fd dabc b468 e1bd 9497 bdbd
000001c0: b4f5 423a e7d9 a6bd a442 8f3c a7c3 4ebc
000001d0: 7c8c b03c 7e54 67bd d510 a8bc 5143 313d
000001e0: deb8 a8bd 05ed 69bd 9bad bb3d fa4f 1dbe
000001f0: 48c1 be3a 5fac f33d ab29 31bd c261 aebc
00000200: f7f7 0e3d 2d50 c5bb b796 ffbc e1ce 503d
00000210: 1c6a 8eba b810 a83b e645 723d 57b3 a83c
00000220: f4dc 133d bbeb 2abd c531 2f3d dcb8 d93c
00000230: 783d 8bbd e81b d53c be55 de3c f57b ebbc
00000240: 6397 e53c 2664 af3c 37b3 69bc c97e 123d
00000250: c753 a8bc 952b 7ebd e9ab 273d eb64 4d3d
00000260: 3a20 383b daf9 8cbd 6b27 223d 985f 213c
00000270: c2b1 bdbc 4914 7b3d 1ff2 563c 855b 6dbd
00000280: f9ad 79bc dddd b9bc 4b05 c8bc 64bf 443d
00000290: bb07 34bc b849 1b37 ca67 743d d73e 01bd
000002a0: 27ee 913d fb62 ddbc 27c5 02bd d580 0bbd
000002b0: 62c8 f0bc dd4c a23c 76c7 80bd 7a41 4d3d
000002c0: fb84 94bc f769 a03b 05d3 f73b 230b 843d
000002d0: 4d92 e73a 3025 d4bc 6d41 1b3d 4d10 2a3d
000002e0: 0d45 143d a474 8cbc ecf9 383c 8996 b03c
000002f0: bb55 1dbd d641 a9b9 2e00 443d aaf9 dabc
00000300: a773 e4bc d14a 5e3d a339 113c 5bcf 97bb
00000310: 9ebb 5e3d 56a0 f83a df6a cbbd dbc4 58bd
00000320: a541 ea3c 58a2 1abe 73ef 9bbd b014 8d3d
00000330: 4dbc 36be 839c 1bbd 98ec da3d 5707 b3bc
00000340: d7f4 5d3d 3f43 65bd 4df9 4bbd 8798 4dbb
00000350: dc54 72bc 8e0d 2bbd 575c 293d 83b4 c9bc
00000360: 1ac7 3c3d ef2b 88bc 2c97 833c 218e 03bd
00000370: 3133 863d 65ec 8cbd ff11 2c3d b35f 783d
00000380: 5105 4dbc 3865 c8bc cb34 e33c 73fe 403c
00000390: 09b1 16bd a04e 963d 6f21 c2bc 459c f73b
000003a0: de22 6c3d 449a 453d 5573 373c 21dd 993d
000003b0: a15e 3e3b aa3e 013c f824 853d e74a b5bb
000003c0: 3a69 24bc ac98 7f3d 85ab a1bc f1a3 1fbd
000003d0: 0ba2 423d 05ff c43c 3d2c a0bd ea66 2a3d
000003e0: b57f 433d cdcf 013d 4a8e 1f3c 12ef cf3c
000003f0: 1b32 53bd 0b0f 893d 0651 15bd 13e1 00bd

net.6.bias f4 [64]
-0.057375323 0.035430122 -0.03636747 -0.023897506 0.00821713 -0.04468865 0.014755094 -0.05488153
-0.033305652 -0.021341847 -0.06101647 -0.044943817 0.000932917 -0.06976794 -0.06282869 -0.029773135
-0.04414361 -0.06082001 -0.030970633 -0.0034179823 0.04463277 -0.0045687887 -0.050526362 -0.019470666
0.0016637879 -0.07140257 0.03917433 -0.04923077 -0.0020395205 -0.05766475 0.003912557 0.018286139
-0.029380081 -0.05477054 -0.011271238 -0.031203061 0.0067729554 -0.042247962 -0.027776306 -0.05596028
0.021246653 -0.013724536 -0.022187175 -0.030807551 -0.043583825 -0.009502606 -0.054482974 -0.04491657
0.01646581 -0.03510446 -0.035916287 -0.069179595 0.050320942 -0.09866126 -0.029935531 -0.040401958
-0.003044837 -0.06528367 -0.04853276 -0.05787082 0.0144099 0.050533075 -0.04904122 -0.007884909
00000000: 6302 6bbd 2d1f 113d 0ef6 14bd b4c4 c3bc
00000010: 24a1 063c 720b 37bd 5abf 713c 75cb 60bd
00000020: 826b 08bd 19d5 aebc 68ec 79bd 0217 38bd
00000030: 008f 743a 7ee2 8ebd 54ac 80bd cae6 f3bc
00000040: eecf 34bd 671e 79bd 20b6 fdbc 3a00 60bb
00000050: dad0 363d c7b5 95bb bbf4 4ebd f280 9fbc
00000060: 7513 da3a 833b 92bd 4375 203d 34a6 49bd
00000070: 7aa9 05bb df31 6cbd e834 803b d0cc 953c
00000080: 7fae f0bc 1357 60bd 00ab 38bc 909d ffbc
00000090: abef dd3b 330c 2dbd 238b e3bc 9b36 65bd
000000a0: 760d ae3c e0dc 60bc e1c1 b5bc 1e60 fcbc
000000b0: f484 32bd d1b0 1bbc 8a29 5fbd 70fa 37bd
000000c0: 4ee3 863c b2c9 0fbd f51c 13bd 08ae 8dbd
000000d0: 551d 4e3d ea0e cabd 5c3b f5bc 867c 25bd
000000e0: e38b 47bb 72b3 85bd 4aca 46bd f409 6dbd
000000f0: 8017 6c3c c5fb 4e3d 72df 48bd b52f 01bc

net.10.weight f4 [64, 64, 3, 3]
0.032210518 -0.036073457 -0.049344365 0.04344906 -0.019917628 -0.07925054 0.019544324 0.0023639263
-0.02383607 0.0060424996 0.011712242 -0.061113164 0.009291192 -0.098290525 -0.14149188 -0.072421856
-0.07696464 0.00034101828 0.0026752022 -0.020381438 -0.032548238 0.086062 -0.0019212485 0.06317838
-0.001167551 0.006259305 0.00431269 -0.02107689 0.015056661 0.062284444 -0.03226326 -0.060241703
-0.0046649454 0.027960652 -0.029550202 0.041703034 0.026053492 -0.013230719 0.09387991 -0.021924544
-0.029430484 -0.013269573 0.032153953 0.041997075 -0.0013970596 -0.03300885 -0.052030023 0.026544543
0.022713624 0.0010999483 -0.009053104 0.00026715058 0.013073169 -0.005685998 -0.003446616 0.0021680368
0.0711617 -0.02135567 -0.080263995 -0.02713913 -0.029430335 -0.020082645 0.0010818623 0.030375957
-0.0971516 -0.0071092285 0.010821664 0.00022613825 -0.03365401 0.036009673 0.004884578 -0.025855444
0.027324881 -0.03467402 -0.046414737 0.044560064 -0.004579908 -0.022568636 0.013541214 0.026888467
-0.019180331 -0.021261586 -0.029664258 0.023550274 -0.05720103 0.026487336 -0.0063435277 0.0068610446
-0.061353963 -0.034677655 0.0111711 -0.049704842 -0.0055667195 -0.04250864 -0.03696612 -0.040758997
-0.053624768 -0.02879696 0.007781451 -0.057626504 -0.05344843 -0.034882817 0.060502633 0.008404331
0.06979511 0.020424921 0.016192025 0.016755763 0.06550012 -0.002499908 0.04847617 0.01820326
-0.04456406 -0.03342457 -0.0065288073 0.010168327 0.029235562 0.00051314733 0.03629734 -0.09872509
0.005145369 -0.012918627 0.0012012292 -0.026466742 -0.003774674 -0.009784503 -0.034053434 -0.050458003
-0.017126467 0.025237072 0.01865743 0.016846955 0.06193541 0.041059237 -0.025848817 0.05707435
-0.010143735 0.057462122 0.006299646 -0.10967388 -0.1039224 0.037656322 -0.0067066895 -0.023574967
0.015044682 -0.02328277 0.03581792 0.002210504 0.011661735 -0.027085867 0.022078801 0.026869815
0.026144212 -0.04092332 -0.0013065679 0.06168966 0.034741297 -0.0037552926 0.028917428 0.0075301686
-0.013591099 0.04343663 0.044533208 -0.020530425 -0.033529866 -0.00021706942 -0.023922605 -0.05228557
-0.011747554 -0.032191075 -0.070237964 -0.05162343 -0.015465527 0.010838181 -0.05393962 -0.00826531
-0.057364836 0.028067367 -0.053358935 -0.024612015 0.02477794 -0.009077722 -0.05995396 0.014202169
-0.02142957 -0.10135173 -0.06666701 -0.014564844 -0.029293353 -0.12611653 -0.006834715 -0.0007482686
0.014825056 0.016040422 0.08635533 -0.009470645 0.042700995 0.048515927 0.027758168 0.011768048
0.008074713 0.020068519 -0.0009889152 0.020119201 0.031035393 0.043968383 -0.020511432 -0.04561292
-0.043375384 -0.031845834 -0.024428612 0.036101643 0.018412275 0.043236695 0.040325794 0.021932574
0.00581559 -0.075276084 0.010834982 0.009842946 -0.00027259748 0.051322937 0.0066199256 0.036955286
0.054341033 -0.012509379 -0.07028305 0.010870693 0.019753424 -0.0009644034 0.024547944 -0.005231152
0.015501027 0.04708929 0.0022902158 0.037759475 0.00085937796 -0.036761165 -0.05326034 -0.085554875
-0.028948316 -0.06424065 -0.07167991 -0.022349393 -0.030879064 0.025063125 0.03084307 -0.0541408
-0.01163563 -0.0029419407 -0.02034297 0.05075518 0.012206787 -0.071897015 -0.053146433 0.0021223426
00000000: 2def 033d c3c1 13bd 511d 4abd a4f7 313d
00000010: 4b2a a3bc 1b4e a2bd 6b1b a03c 1aec 1a3b
00000020: dd43 c3bc 2900 c63b b4e4 3f3c cc51 7abd
00000030: 153a 183c 8b4c c9bd 3fe3 10be e951 94bd
00000040: a39f 9dbd b3ca b239 7252 2f3b f9f6 a6bc
00000050: 4d51 05bd 4641 b03d 67d2 fbba ab63 813d
00000060: 8308 99ba db1a cd3b 7751 8d3b 71a9 acbc
00000070: 37b0 763c f91d 7f3d 7b26 04bd 01c0 76bd
00000080: 66dc 98bb bd0d e53c 4413 f2bc cdd0 2a3d
00000090: 226e d53c a8c5 58bc 1c44 c03d 1a9b b3bc
000000a0: 3318 f1bc a068 59bc ddb3 033d 2005 2c3d
000000b0: 8b1d b7ba 4a34 07bd 6f1d 55bd f173 d93c
000000c0: ec11 ba3c 242c 903a 7853 14bc 5810 8c39
000000d0: d830 563c 9c51 babb 9fe0 61bb 9f15 0e3b
000000e0: 3abd 913d 16f2 aebc 7361 a4bd e152 debc
000000f0: e317 f1bc 5c84 a4bc 46cd 8d3a 00d7 f83c
00000100: 6bf7 c6bd 88f4 e8bb 594d 313c 861f 6d39
00000110: cad8 09bd e17e 133d cf0e a03b ccce d3bc
00000120: 6ed8 df3c 5806 0ebd 611d 3ebd 9d84 363d
00000130: 0e13 96bb dce1 b8bc f8db 5d3c 3445 dc3c
00000140: 1220 9dbc c72c aebc 7502 f3bc 81ec c03c
00000150: a14b 6abd f8fb d83c 5edd cfbb 9dd2 e03b
00000160: 4b4e 7bbd 280a 0ebd fd06 373c 4e97 4bbd
00000170: 0769 b6bb 8a1d 2ebd c969 17bd e8f2 26bd
00000180: a5a5 5bbd 9ae7 ebbc 8bfb fe3b c509 6cbd
00000190: beec 5abd 49e1 0ebd 9cd1 773d 52b2 093c
000001a0: bdf0 8e3d 2a52 a73c 23a5 843c 6243 893c
000001b0: ed24 863d 7fd5 23bb f38e 463d 011f 953c
000001c0: ce88 36bd 34e8 08bd 9bef d5bb 0e99 263c
000001d0: 6b7f ef3c bc84 063a 85ac 143d 6130 cabd
000001e0: 7c9a a83b a6a8 53bc 9072 9d3a c8d0 d8bc
000001f0: 8560 77bb 2e4f 20bc 9d7b 0bbd 0dad 4ebd
00000200: ce4c 8cbc fabd ce3c 77d7 983c a002 8a3c
00000210: fcaf 7d3d bb2d 283d e6c0 d3bc cbc6 693d
00000220: e931 26bc 675d 6b3d 436d ce3b b39c e0bd
00000230: 44d5 d4bd 843d 1a3d cac3 dbbb 4a20 c1bc
00000240: f87d 763c 82bb bebc d0b5 123d 1ade 103b
00000250: dd10 3f3c 2ee3 ddbc 9ade b43c 161e dc3c
00000260: 632c d63c 369f 27bd 2541 abba 4cae 7c3d
00000270: e44c 0e3d 5b1b 76bb 3ee4 ec3c a2bf f63b
00000280: 33ad 5ebc 9cea 313d 7468 363d 6c2f a8bc
00000290: 9d56 09bd 219d 63b9 57f9 c3bc 6529 56bd
000002a0: d078 40bc cada 03bd ecd8 8fbd 1773 53bd
000002b0: 1f63 7dbc a092 313c caef 5cbd 396b 07bc
000002c0: 64f7 6abd 89ed e53c e68e 5abd 239f c9bc
000002d0: 1bfb ca3c baba 14bc 4992 75bd 37b0 683c
000002e0: 118d afbc 7f91 cfbd b788 88bd 62a1 6ebc
000002f0: 9df8 efbc b124 01be bff5 dfbb 7527 44ba
00000300: cbe4 723c 3467 833c 10db b03d c42a 1bbc
00000310: 3de7 2e3d a3b8 463d 1965 e33c c5ce 403c
00000320: cd4b 043c bc66 a43c 7d9e 81ba 06d1 a43c
00000330: f03d fe3c 3118 343d 9707 a8bc 9dd4 3abd
00000340: 63aa 31bd c770 02bd 831e c8bc 51df 133d
00000350: 57d5 963c f618 313d a92c 253d f1ab b33c
00000360: b490 be3b 592a 9abd 3585 313c 4f44 213c
00000370: 6aeb 8eb9 0038 523d f6eb d83b 6d5e 173d
00000380: b494 5e3d 23f4 4cbc 8ff0 8fbd fe1a 323c
00000390: efd1 a13c 04d0 7cba c518 c93c 156a abbb
000003a0: 05f8 7d3c b3e0 403d 7217 163b aea9 1a3d
000003b0: e147 613a e092 16bd 8427 5abd 6537 afbd
000003c0: 0525 edbc 9a90 83bd ebcc 92bd 1316 b7bc
000003d0: 17f6 fcbc 2f51 cd3c 9baa fc3c bec2 5dbd
000003e0: 5fa3 3ebc 93cd 40bb 4da6 a6bc aae4 4f3d
000003f0: fafe 473c be3e 93bd 13b0 59bd 0017 0b3b

net.10.bias f4 [64]
-0.06424953 0.0005380323 0.0011333083 -0.0035450691 -0.021862948 -0.07541211 -0.009540332 -0.03476486
-0.049311053 -0.10770256 -0.046112742 0.034914825 -0.043700173 -0.03236383 -0.035943337 -0.066835724
-0.04000766 -0.02362692 -0.0130841285 0.004656242 0.00033849553 -0.01800015 -0.02009298 -0.016646996
-0.004401473 -0.101167835 0.011561222 -0.067930944 -0.0032970123 -0.052489024 -0.026482433 0.0145824915
-0.05399567 0.0029259978 0.009041356 -0.0394022 -0.038176786 0.009079502 0.00030002417 -0.0021564963
-0.026899347 -0.01921375 -0.013103233 0.031251613 -0.07919022 0.013327599 -0.020365072 -0.031803228
-0.054337468 -0.032570288 -0.03375208 -0.008134625 -0.06464638 -0.06954413 -0.029992629 -0.08566828
-0.04318778 0.00968953 -0.083617784 -0.01006662 -0.04514009 -0.049369916 -0.06292634 -0.02379384
00000000: 4295 83bd bd0a 0d3a 848b 943a 6454 68bb
00000010: ed19 b3bc aa71 9abd 0d4f 1cbc 9965 0ebd
00000020: 63fa 49bd 2993 dcbd b7e0 3cbd d902 0f3d
00000030: f4fe 32bd ef8f 04bd 5239 13bd 2be1 88bd
00000040: 12df 23bd 3e8d c1bc d05e 56bc 6493 983b
00000050: 1a78 b139 0d75 93bc 089a a4bc 485f 88bc
00000060: 3b3a 90bb 1531 cfbd 486b 3d3c 611f 8bbd
00000070: b012 58bb bbfe 56bd b0f1 d8bc 67eb 6e3c
00000080: 902a 5dbd 19c2 3f3b 3222 143c 3464 21bd
00000090: 435f 1cbd 31c2 143c 904c 9d39 0154 0dbb
000000a0: 055c dcbc 2766 9dbc f1ae 56bc b101 003d
000000b0: 7b2e a2bd 005c 5a3c a7d4 a6bc 1a44 02bd
000000c0: f790 5ebd 6c68 05bd 9f3f 0abd 1747 05bc
000000d0: 5265 84bd 276d 8ebd 1ab3 f5bc da72 afbd
000000e0: abe5 30bd d6c0 1e3c cd3f abbd 77ee 24bc
000000f0: d1e4 38bd 1c38 4abd 86df 80bd 4deb c2bc

net.15.weight f4 [128, 576]
-0.014804332 -0.014488729 -0.021625426 -0.060528357 -0.007470922 0.046447057 0.006433008 -0.005239666
-0.060313266 -0.024133012 0.019994989 0.08278184 -0.015609279 0.010965381 0.03244522 -0.025988331
0.0043856446 -0.015054371 0.022664737 0.003659263 -0.0020084078 0.0328574 -0.01931895 -0.010446022
-0.05570645 0.04782582 -0.040556043 -0.046240762 -0.029935457 0.07693662 0.007819623 0.07083943
-0.08845172 0.020993317 -0.014688883 -0.020768672 -0.015340235 0.09055122 -0.120925196 -0.0011432715
0.06686431 0.00069483306 0.0010837698 0.0013006579 -0.021046959 -0.061733432 0.01527935 0.013766701
-0.07054696 -0.020985244 0.0045899698 0.0572411 0.0706441 0.04692612 0.0034152933 0.016157098
0.08618542 -0.067820996 0.010923216 -0.024062753 -0.011102856 -0.014019206 0.032480735 -0.028656326
-0.0386963 -0.0608223 -0.004312484 -0.018862119 0.0362711 -0.0032974398 -0.020434115 -0.045704793
0.01630617 0.024989927 -0.050302606 0.05468449 0.04965616 -0.12510562 -0.016468938 -0.028908465
0.021050492 0.026155109 -0.018256499 0.006607025 -0.05743135 0.02645776 0.0858989 0.021905838
0.020875914 0.009953043 -0.12025478 -0.017161382 0.07733027 0.0016963427 0.07819301 -0.01043339
0.017882422 0.022285499 -0.02902776 -0.072937496 0.06789388 0.045800917 -0.049412347 0.09869721
0.019647468 -0.04796685 0.0038111333 -0.008632754 0.017068276 -0.012906957 -0.026907006 -0.038934816
-0.0008336546 0.13576877 0.045208573 0.014602984 -0.023750996 -0.05823427 0.03954778 0.121766515
-0.03595134 -0.0013881591 0.07845422 0.03653124 0.006194529 0.0061339075 0.025525477 -0.04027935
-0.0445543 0.006558043 0.0030721251 -0.0177876 0.032868166 0.017952668 0.0021518942 0.03669904
-0.03947974 0.00952087 0.00146777 -0.010521374 -0.026454402 0.02892749 0.0016968126 0.057839293
-0.07799397 -0.028775746 0.024440845 -0.041091796 0.011841723 0.061130546 0.0032920681 -0.0103168255
-0.0035372232 0.04609283 0.06047757 -0.096770406 0.012875905 0.008721758 -0.08061376 -0.03504577
-0.07089422 0.014280232 0.038814656 0.061570745 0.04132735 -0.028895345 0.05830685 0.016763264
0.017896468 0.040103722 0.019391099 0.03050982 0.06182273 0.061434824 -0.0019485902 0.015810749
-0.09734297 0.02911849 -0.028127007 0.03628239 0.09633504 0.03152812 -0.065968245 0.006775909
-0.024785949 -0.078522585 -0.018977217 -0.09421241 -0.0041187285 0.043574695 -0.034649387 -0.002334701
0.039661057 -0.0050895303 -0.1243768 -0.041894637 0.02508166 -0.020446219 -0.009437822 -0.02317747
-0.00032464473 -0.025687365 0.03108393 0.04499191 0.01906769 -0.021255828 -0.04889516 -0.007403832
0.06909873 -0.04673541 -0.011768956 0.0625278 -0.02684773 0.024955185 0.008591242 0.012746377
-0.042998098 -0.07703679 0.11696106 -0.012767821 0.008391423 0.0059113163 -0.0056820656 0.0007737283
-0.00557896 -0.028235609 -0.01865166 0.012355894 -0.04129401 0.024165442 0.10507782 0.004261925
0.011037777 -0.05323372 0.002969774 -0.060366776 0.011186012 0.009234298 0.025321204 -0.0055313767
-0.029847907 0.04013591 -0.030075107 0.03677267 -0.03270169 -0.12608294 0.02447253 0.045367002
-0.026906857 -0.04385531 -0.014485628 0.010362413 -0.014258018 -0.06305253 -0.01309801 0.020058684
00000000: de8d 72bc 2262 6dbc ce27 b1bc 95ec 77bd
00000010: a3ce f4bb 453f 3e3d fbcb d23b 81b1 abbb
00000020: 0b0b 77bd 98b2 c5bc 88cc a33c 8689 a93d
00000030: 10be 7fbc 24a8 333c 47e5 043d 7be5 d4bc
00000040: 74b5 8f3b 9ca6 76bc 66ab b93c 3fd0 6f3b
00000050: 7e9f 03bb 7b95 063d c642 9ebc cb25 2bbc
00000060: 722c 64bd 02e5 433d 181e 26bd f466 3dbd
00000070: 343b f5bc f290 9d3d e01d 003c 4314 913d
00000080: 2d26 b5bd 2dfa ab3c a4a9 70bc 1023 aabc
00000090: 9c55 7bbc eb72 b93d a1a7 f7bd d3d9 95ba
000000a0: 28f0 883d 7525 363a 480d 8e3a d67a aa3a
000000b0: ac6a acbc 32dc 7cbd 3d56 7a3c bb8d 613c
000000c0: ed7a 90bd 3fe9 abbc 7567 963b a575 6a3d
000000d0: dbad 903d 9a35 403d 1dd3 5f3b e45b 843c
000000e0: fb81 b03d bce5 8abd 4af7 323c 401f c5bc
000000f0: c1e8 35bc d0b0 65bc 850a 053d acc0 eabc
00000100: 0380 1ebd ce20 79bd bd4f 8dbb bb84 9abc
00000110: 0191 143d dc19 58bb 7265 a7bc f334 3bbd
00000120: 8494 853c adb7 cc3c 1b0a 4ebd d8fc 5f3d
00000130: 4264 4b3d b01b 00be dee9 86bc 72d1 ecbc
00000140: 1572 ac3c 3d43 d63c a78e 95bc be7f d83b
00000150: 233d 6bbd f2bd d83c c3eb af3d df73 b33c
00000160: f703 ab3c 1712 233c 2348 f6bd 0796 8cbc
00000170: 555f 9e3d d157 de3a a823 a03d cff0 2abc
00000180: 287e 923c 1490 b63c a0cb edbc 4160 95bd
00000190: f20b 8b3d be99 3b3d 9a64 4abd c321 ca3d
000001a0: baf3 a03c e378 44bd 35c4 793b 6570 0dbc
000001b0: c5d2 8b3c b477 53bc 156c dcbc 1d7a 1fbd
000001c0: 9d89 5aba f806 0b3e a02c 393d 5b41 6f3c
000001d0: 7391 c2bc 0f87 6ebd dafc 213d b960 f93d
000001e0: b641 13bd e4f2 b5ba 9bac a03d c8a1 153d
000001f0: 7afb ca3b f2fe c83b ce1a d13c f6fb 24bd
00000200: 927e 36bd dae4 d63b b555 493b 4db7 91bc
00000210: c5a0 063d 7911 933c cb06 0d3b bc51 163d
00000220: 82b5 21bd 6cfd 1b3c 3062 c03a d761 2cbc
00000230: e7b6 d8bc 58f9 ec3c 9567 de3a e5e8 6c3d
00000240: 4dbb 9fbd 1dbb ebbc 2b38 c83c df4f 28bd
00000250: c903 423c 0664 7a3d bdbf 573b e707 29bc
00000260: c2d0 67bb d6cb 3c3d 54b7 773d 902f c6bd
00000270: 76f5 523c b4e5 0e3c d418 a5bd 278c 0fbd
00000280: fd30 91bd a2f7 693c 1efc 1e3d 9b31 7c3d
00000290: de46 293d eeb5 ecbc 2ad3 6e3d 1d53 893c
000002a0: 9d9b 923c cd43 243d 15da 9e3c bbef f93c
000002b0: d539 7d3d 15a3 7b3d d667 ffba 8b85 813c
000002c0: c05b c7bd e689 ee3c 9c6a e6bc d89c 143d
000002d0: 4e4b c53d a123 013d 5c1a 87bd 7208 de3b
000002e0: e70b cbbc 73d0 a0bd 1c76 9bbc 70f2 c0bd
000002f0: 66f6 86bb 617b 323d 84ec 0dbd c801 19bb
00000300: a273 223d 13c6 a6bb 44b9 febd b699 2bbd
00000310: 0e78 cd3c d47e a7bc 18a1 1abc adde bdbc
00000320: 1435 aab9 4f6e d2bc baa3 fe3c 7049 383d
00000330: d833 9c3c b420 aebc 4b46 48bd d89b f2bb
00000340: a383 8d3d a16d 3fbd 94d2 40bc 930e 803d
00000350: c5ef dbbc d16e cc3c 48c2 0c3c 2ed6 503c
00000360: c61e 30bd 77c5 9dbd 4889 ef3d 1f30 51bc
00000370: 2e7c 093c b7b3 c13b 9f30 babb 07d4 4a3a
00000380: b5cf b6bb 5d4e e7bc 5ecb 98bc 6070 4a3c
00000390: e823 29bd 9bf6 c53c 0a33 d73d 9ea7 8b3b
000003a0: cbd7 343c 9a0b 5abd 8aa0 423b 2743 77bd
000003b0: 8945 373c 744b 173c 6a6e cf3c 8d40 b5bb
000003c0: 9983 f4bc 8d65 243d 1260 f6bc f09e 163d
000003d0: 35f2 05bd e31b 01be 9e7a c83c c0d2 393d
000003e0: c56b dcbc a0a1 33bd 2155 6dbc 1cc7 293c
000003f0: 769a 69bc af21 81bd 0999 56bc 1c52 a43c

net.15.bias f4 [128]
-0.03740155 -0.04559401 0.0015524621 -0.024115132 -0.008506156 0.04377168 0.01734224 -0.035622995
-0.009707802 0.006245376 0.0045636813 -0.03781195 0.004899008 0.075241245 0.018024161 0.023681477
0.022870043 -0.025021717 0.053336672 -0.022074029 -0.03508231 0.010842725 0.002482718 0.010218459
-0.03276599 -0.040533595 0.0005763678 0.020621844 0.022456417 0.029839283 0.0524883 -0.02510438
-0.0030316673 -0.003635972 -0.016842926 0.016284797 -0.010442176 -0.037303194 0.0064132917 -0.019295478
-0.007038154 -0.048281584 0.0561434 -0.011588915 -0.010125919 0.026286718 0.013013138 -0.00143299
-0.023530576 -0.055676203 0.028450087 0.01685466 0.033101536 0.0022439724 -0.049521685 -0.03385468
-0.049754757 -0.013107694 0.043383554 0.010914785 -0.055493403 0.019699547 0.031671245 0.05193437
0.017612502 -0.007553292 0.008356477 -0.021864768 -0.0068762596 -0.036349855 0.061473146 0.027487768
-0.060112376 0.0010390214 -0.012092885 0.012688129 0.02195044 -0.049157817 0.006060896 -0.04843933
0.022840107 -0.009960135 -0.07450826 0.042638008 -0.057920523 0.012987834 0.041784626 -0.03907667
0.023651741 0.0019288369 -0.0033496 -0.046453584 0.02363826 -0.037318427 0.044848256 -0.052668247
-0.008671721 0.026623376 0.0233617 -0.0020321666 0.02000683 0.039124202 -0.035096306 -0.04697591
-0.0577228 -0.032481734 0.051772166 0.031893563 -0.030906653 -0.05244264 0.021595608 -0.049140204
-0.0304192 -0.038643304 0.020894274 0.017319314 -0.04481443 0.006087359 -0.023503367 -0.037369963
0.017720032 0.0037830174 0.021479705 0.011604438 -0.026222432 0.04359522 -0.048898906 -0.05139755
00000000: 5e32 19bd c9c0 3abd fc7b cb3a 198d c5bc
00000010: 675d 0bbc ef49 333d 5011 8e3c 6be9 11bd
00000020: 790d 1fbc 03a6 cc3b ef8a 953b b4e0 1abd
00000030: dc87 a03b 1518 9a3d 68a7 933c a8ff c13c
00000040: f559 bb3c 58fa ccbc 8e77 5a3d 98d4 b4bc
00000050: 78b2 0fbd afa5 313c 19b5 223b 536b 273c
00000060: a135 06bd 8e06 26bd 6317 173a 24ef a83c
00000070: 85f6 b73c 8371 f43c f9fd 563d b3a7 cdbc
00000080: f0ae 46bb 7d49 6ebb 2dfa 89bc b267 853c
00000090: a915 2bbc 3ccb 18bd 9726 d23b 8d11 9ebc
000000a0: 51a0 e6bb e9c2 45bd 9ff6 653d 6fdf 3dbc
000000b0: 2fe7 25bc 3e57 d73c 0f35 553c 2ad3 bbba
000000c0: 32c3 c0bc bb0c 64bd 2810 e93c c912 8a3c
000000d0: 7a95 073d 9c0f 133b 40d7 4abd 34ab 0abd
000000e0: a5cb 4bbd a7c1 56bc f4b2 313d edd3 323c
000000f0: 0d4d 63bd f260 a13c b5b9 013d 22b9 543d
00000100: 1848 903c 9b81 f7bb 9be9 083c be1d b3bc
00000110: 3f52 e1bb 96e3 14bd 44cb 7b3d 072e e13c
00000120: 6538 76bd c62f 883a 3c21 46bc dfe1 4f3c
00000130: 69d1 b33c b559 49bd 7b9a c63b 5268 46bd
00000140: 2d1b bb3c d62f 23bc c997 98bd 31a5 2e3d
00000150: 123e 6dbd edca 543c 5b26 2b3d dc0e 20bd
00000160: 4cc1 c13c 07d1 fc3a f684 5bbb 1d46 3ebd
00000170: 06a5 c13c 35db 18bd ceb2 373d a9ba 57bd
00000180: d613 0ebc 4419 da3c 0961 bf3c 192e 05bb
00000190: 5de5 a33c b340 203d 25c1 0fbd d069 40bd
000001a0: be6e 6cbd 910b 05bd 0d0f 543d d3a2 023d
000001b0: f32f fdbc 18ce 56bd 46e9 b03c 3d47 49bd
000001c0: b031 f9bc 7148 1ebd 782a ab3c 3ce1 8d3c
000001d0: 568f 37bd 7878 c73b 228a c0bc 3f11 19bd
000001e0: 9a29 913c 80ec 773b 35f6 af3c 8a20 3e3c
000001f0: 6dd0 d6bc e790 323d 384a 48bd 3d86 52bd

net.18.weight f4 [10, 128]
0.05205017 -0.07310361 -0.05960797 0.04513438 -0.03435973 -0.1007984 0.10477273 -0.06663834
-0.0067347083 -0.002810246 0.057280216 0.065361686 -0.062805384 -0.076715924 0.07000524 0.033874527
-0.11498512 -0.00208691 -0.14665721 0.0398893 -0.071679674 -0.059262685 0.037528943 -0.090531416
0.08840486 0.014183082 -0.0037526726 -0.091105446 0.0139040705 -0.04954327 -0.093605354 -0.0008389193
0.06313688 -0.12107432 -0.0491629 -0.09803236 0.050785705 -0.079617776 0.057999227 -0.12978287
-0.14620224 -0.09783531 -0.093429044 -0.009247588 -0.118821576 -0.027494388 -0.09017759 -0.04239845
-0.0100535555 0.046486087 0.05298812 -0.060974132 -0.060074847 0.08934398 0.03963904 0.03562606
-0.029570617 -0.065690465 0.039317846 0.04905414 0.029007519 0.10790162 0.006308589 -0.020218935
0.019568732 -0.04193744 0.014379803 0.080079764 -0.07694447 -0.033327434 -0.01847975 -0.013051208
0.09813954 -0.0197296 -0.08420281 0.11088794 -0.116753854 0.010448673 -0.038985647 0.06699724
0.096573286 -0.037966423 0.06238461 0.07576221 0.083264746 0.013219585 0.03637913 -0.037472833
-0.09563595 0.05818087 -0.034031052 -0.034631606 -0.020894183 0.094926655 -0.007822432 -0.073617205
-0.093381435 0.046136767 -0.060734876 -0.04920747 -0.060090322 -0.03086383 -0.011378473 0.040060565
-0.022326754 -0.00018577812 -0.09876547 0.057578493 0.0012819589 -0.014455208 0.0749447 0.041185915
0.024222806 0.11046176 -0.119514324 0.07077017 -0.040189303 -0.022402832 0.08976568 -0.09208417
-0.012444641 0.05648274 0.050527234 -0.0591744 0.08528839 -0.09012034 0.07726491 0.016960511
-0.09694748 0.015978148 -0.09852706 -0.0575711 -0.0027170451 0.15048039 0.090382434 0.040389754
-0.04609085 -0.06139057 -0.06441442 0.013538753 0.13393016 0.048908897 0.071730904 -0.030490624
0.057697177 0.019332414 0.03068032 0.050123304 0.043549974 0.078385 -0.08940323 0.017180633
-0.037298337 0.09345179 -0.052217226 0.1024825 0.02088594 0.09608453 0.022790773 0.049718753
-0.119250596 0.044710536 -0.008074783 0.01940861 -0.09332138 0.057822306 -0.017454196 -0.02142682
0.020901734 0.098205194 0.048120763 -0.11154505 -0.076786846 0.13841954 0.034393568 -0.023377463
0.1881031 0.014819559 -0.07362715 0.011342662 0.0015325478 0.008785162 -0.05163553 0.10990404
-0.0519336 -0.038607884 0.029513977 0.047626466 0.07165068 0.074170604 -0.019257728 -0.023478596
-0.079998426 -0.11550826 -0.12280759 0.03452293 0.08311747 -0.1113368 0.09793084 0.061170578
-0.09808713 0.13363653 -0.00303352 -0.018513413 -0.038795013 0.06963889 -0.053264845 -0.004357447
-0.06516914 0.09022009 -0.025340676 0.02804591 -0.06800962 0.002476336 -0.051202603 -0.051097237
0.04897393 0.08469893 -0.014072186 -0.051550485 0.027955875 -0.07820007 0.0687648 0.03452201
-0.02410248 -0.04483383 -0.08662493 -0.024228578 0.1397538 0.057650365 -0.01063073 -0.08524372
-0.088793606 -0.05447048 0.08531467 0.10575142 -0.0496988 -0.08707939 0.0503472 -0.10163182
-0.098426186 0.031065198 -0.04741836 -0.0071406136 0.038802445 -0.0062184115 -0.041588716 -0.044613365
0.084011145 0.018662388 -0.12145593 0.06438931 -0.12715964 0.05750971 0.07851946 -0.101682894
00000000: 8f32 553d 58b7 95bd 7d27 74bd d4de 383d
00000010: cabc 0cbd 646f cebd 1693 d63d af79 88bd
00000020: d4ae dcbb 1b2c 38bb a99e 6a3d 59dc 853d
00000030: 1ca0 80bd 3d1d 9dbd e85e 8f3d 04c0 0a3d
00000040: 527d ebbd 8ac4 08bb 4f2d 16be f662 233d
00000050: cbcc 92bd 6ebd 72bd f3b7 193d 8968 b9bd
00000060: 9b0d b53d 2860 683c 66ef 75bb 7e95 babd
00000070: e6cd 633c e2ed 4abd 2ab4 bfbd ecea 5bba
00000080: e94d 813d d0f5 f7bd 095f 49bd 31c5 c8bd
00000090: ac04 503d a50e a3bd 9990 6d3d cde5 04be
000000a0: 0ab6 15be e15d c8bd ba57 bfbd 3283 17bc
000000b0: ba58 f3bd e93b e1bc 07af b8bd ffa9 2dbd
000000c0: abb7 24bc 3268 3e3d 120a 593d 03c0 79bd
000000d0: 0b11 76bd faf9 b63d 8c5c 223d a2ec 113d
000000e0: 143e f2bc b988 86bd c00b 213d feec 483d
000000f0: 2da1 ed3c 86fb dc3d 48b8 ce3b 2ea2 a5bc
00000100: 9b4e a03c 98c6 2bbd 4499 6b3c dc00 a43d
00000110: 1095 9dbd 5982 08bd d862 97bc bcd4 55bc
00000120: 62fd c83d f89f a1bc 8672 acbd 3719 e33d
00000130: a51c efbd e930 2b3c 6aaf 1fbd d935 893d
00000140: 37c8 c53d ae82 1bbd 0187 7f3d 3829 9b3d
00000150: b586 aa3d f596 583c 4802 153d 1d7d 19bd
00000160: c8dc c3bd 104f 6e3d 2564 0bbd dfd9 0dbd
00000170: 472a abbc e868 c23d a829 00bc 9ec4 96bd
00000180: c43e bfbd e8f9 3c3d 22c5 78bd c68d 49bd
00000190: 4521 76bd 25d6 fcbc c66c 3abc 8c16 243d
000001a0: 99e6 b6bc 6fcd 42b9 8d45 cabd 6dd7 6b3d
000001b0: 6707 a83a 89d5 6cbc 9b7c 993d 90b2 283d
000001c0: e86e c63c c639 e23d edc3 f4bd f3ef 903d
000001d0: 8a9d 24bd 2586 b7bc 12d7 b73d a096 bcbd
000001e0: 9ce4 4bbc 725a 673d a5f5 4e3d db60 72bd
000001f0: aeab ae3d 0391 b8bd 113d 9e3d c5f0 8a3c
00000200: 678c c6bd 9be4 823c 8ec8 c9bd accf 6bbd
00000210: 7410 32bb 8817 1a3e 6d1a b93d ba6f 253d
00000220: c2c9 3cbd ae74 7bbd b5eb 83bd a5d1 5d3c
00000230: fd24 093e b254 483d a7e7 923d 79c7 f9bc
00000240: e053 6c3d 035f 9e3c 4b55 fb3c 184e 4d3d
00000250: 7561 323d 5188 a03d 0a19 b7bd 66be 8c3c
00000260: 24c6 18bd a763 bf3d bbe1 55bd 58e2 d13d
00000270: fe18 ab3c f7c7 c43d b7b3 ba3c e4a5 4b3d
00000280: a839 f4bd 6522 373d 184c 04bc cefe 9e3c
00000290: 481f bfbd 15d7 6c3d 1afc 8ebc 4c87 afbc
000002a0: 1d3a ab3c ce1f c93d 471a 453d bb71 e4bd
000002b0: 6c42 9dbd dabd 0d3e 45e0 0c3d 1882 bfbc
000002c0: 199e 403e bccd 723c d5c9 96bd 93d6 393c
000002d0: c5df c83a a4ef 0f3c c77f 53bd 5f15 e13d
000002e0: 54b8 54bd 4d23 1ebd 4cc7 f13c f813 433d
000002f0: 97bd 923d c2e6 973d 62c2 9dbc 2f56 c0bc
00000300: 37d6 a3bd 988f ecbd 8c82 fbbd ea67 0d3d
00000310: 7e39 aa3d 8c04 e4bd f78f c83d 008e 7a3d
00000320: e8e1 c8bd 04d8 083e 05ce 46bb 71a9 97bc
00000330: 85e7 1ebd d69e 8e3d 3d2c 5abd eac8 8ebb
00000340: 6677 85bd 4fc5 b83d 4097 cfbc 89c0 e53c
00000350: a148 8bbd 064a 223b d2b9 51bd 564b 51bd
00000360: e398 483d a276 ad3d 078f 66bc 9a26 53bd
00000370: b803 e53c 5c27 a0bd 8fd4 8c3d f366 0d3d
00000380: 9072 c5bc aea3 37bd 6968 b1bd 037b c6bc
00000390: 9f1b 0f3e ca22 6c3d 832c 2ebc 4294 aebd
000003a0: 6cd9 b5bd 701c 5fbd 75b9 ae3d 3394 d83d
000003b0: f890 4bbd ae56 b2bd de38 4e3d 5824 d0bd
000003c0: ab93 c9bd 717c fe3c c139 42bd cffb e9bb
000003d0: 50ef 1e3d d1c3 cbbb ee58 2abd 81bc 36bd
000003e0: 090e ac3d dde1 983c e3bd f8bd 8bde 833d
000003f0: 2336 02be 4d8f 6b3d d0ce a03d 1f3f d0bd

net.18.bias f4 [10]
-0.08589301 0.10581188 -0.13354854 -0.075844795 0.06979264 -0.048412215 0.013649743 -0.020340433
-0.008823027 0.042293437
00000000: ade8 afbd e6b3 d83d f3c0 08be 8454 9bbd
00000010: 72ef 8e3d e34b 46bd 2ca3 5f3c fba0 a6bc
00000020: 758e 10bc e23b 2d3d
